savedmodel/NoL1_NoL2 with GhostBN classifier.pt (torch, 48134 bytes, 36 tensors)

block1.0.weight f4 [8, 1, 3, 3]
0	0x3eb04286	0.34425753
1	0xbe6265d8	-0.22109163
2	0xbe91416a	-0.2837022
3	0x3b5c2746	0.0033592745
4	0xbeb6da3a	-0.3571337
5	0x3de51638	0.111858785
6	0xbe79c47c	-0.24391359
7	0xbda0e2bd	-0.07855747
8	0x3d90a1d4	0.07062116
9	0xbe7bde18	-0.24596441
10	0xbe1a7ca4	-0.15086609
11	0x3b3ae9c8	0.0028520692
12	0xbe7f9970	-0.24960876
13	0xbd475b27	-0.048670914
14	0x3f053aa8	0.5204263
15	0xbdd59243	-0.10428288
16	0x3cfccc5f	0.03085917
17	0x3ea74a80	0.32674026
18	0x3df084f7	0.11744111
19	0x3e502e9c	0.2033028
20	0x3b30cf29	0.0026978946
21	0xbdf6d579	-0.120524354
22	0xbd99ebea	-0.075157
23	0x3e34121e	0.17585036
24	0xbee726d4	-0.4514681
25	0x3d2a102e	0.041519336
26	0x3edcb612	0.4310766
27	0x3def0bb6	0.116721556
28	0x3e9ef8dd	0.31049243
29	0x3dc001ed	0.09375367
30	0x3e850d64	0.2598678
31	0x3dfe756d	0.12424741
32	0x3dbad742	0.091230884
33	0xbe195f66	-0.14977798
34	0x3e4b9196	0.19879755
35	0xbeaf2ec0	-0.34215355
36	0xbdea63ee	-0.11444841
37	0x3ec2151c	0.3790673
38	0x3d42d13d	0.047562826
39	0x3d5975a2	0.0530907
40	0x3ed3cfcc	0.41369474
41	0x3e802b58	0.2503307
42	0xbe88ec32	-0.26742703
43	0xbe4d67e5	-0.20059164
44	0xbc7ac779	-0.015306347
45	0x3e2069ba	0.15665331
46	0xbda629b0	-0.0811342
47	0x3efeea70	0.49788237
48	0x3e84f702	0.25969702
49	0x3e2de412	0.16981533
50	0x3e2fbe42	0.17162421
51	0xbf14d4e1	-0.5813733
52	0xbf050c50	-0.5197191
53	0xbd7e8819	-0.06214151
54	0xbe957781	-0.29192737
55	0xbda69ab4	-0.08134976
56	0x3e0ba831	0.13638379
57	0xbe1edb58	-0.1551336
58	0xbe039e27	-0.12853299
59	0xbda3ae1d	-0.07992194
60	0xbe51835a	-0.20460263
61	0xbe0392d6	-0.12848982
62	0xbe63d31f	-0.22248505
63	0x3e17cf58	0.14825189
64	0xbe91b76a	-0.28460246
65	0xbccdb2ef	-0.025109736
66	0x3e086ec7	0.13323508
67	0xbe35d780	-0.17757988
68	0xbe6ffb89	-0.23435797
69	0xbeda3c69	-0.42624214
70	0xbd8fdca8	-0.07024509
71	0xbdde657e	-0.10859202

block1.1.weight f4 [8]
0	0x3f942114	1.1572595
1	0x3f7551bd	0.9582785
2	0x3f5ed546	0.8704418
3	0x3f5bd99a	0.8587891
4	0x3f62da68	0.8861451
5	0x3f86f6f4	1.0544114
6	0x3f8e6617	1.1124905
7	0x3f89da9a	1.0769837

block1.1.bias f4 [8]
0	0x3e29ed13	0.16594343
1	0x3cb05c34	0.02152834
2	0x3ccc016a	0.024903018
3	0x372588e1	9.866636e-06
4	0x3d90aec5	0.07064585
5	0xbd0fb478	-0.035084218
6	0x3dc8cfe6	0.098052785
7	0x3d919f50	0.071104646

block1.1.running_mean f4 [8]
0	0x00000000	0.0
1	0x00000000	0.0
2	0x00000000	0.0
3	0x00000000	0.0
4	0x00000000	0.0
5	0x00000000	0.0
6	0x00000000	0.0
7	0x00000000	0.0

block1.1.running_var f4 [8]
0	0x3f800000	1.0
1	0x3f800000	1.0
2	0x3f800000	1.0
3	0x3f800000	1.0
4	0x3f800000	1.0
5	0x3f800000	1.0
6	0x3f800000	1.0
7	0x3f800000	1.0

block2.0.weight f4 [8, 8, 3, 3]
0	0x3e1bf069	0.15228428
1	0x3e111c2a	0.141709
2	0xbda2d7d6	-0.07951324
3	0x3e4917c2	0.19637969
4	0x3ccc705f	0.024955926
5	0x3d67fa4a	0.05663518
6	0x3da880e8	0.08227712
7	0x3e0faeda	0.14031544
8	0x3c3c5483	0.011494759
9	0xbcf3fb2e	-0.029782858
10	0x3c1a75f6	0.009427538
11	0xbc6f066c	-0.014588933
12	0xbd0f429d	-0.034975637
13	0x3c4af0ff	0.0123865595
14	0xbb502814	-0.003176217
15	0xbda10b45	-0.078634776
16	0xbde418d0	-0.11137545
17	0x3d9679d2	0.07347454
18	0x3d4a909f	0.049454328
19	0xbe02f5f1	-0.12789132
20	0xbd994154	-0.074831635
21	0xbd9ddf20	-0.07708573
22	0xbe446f4d	-0.19183083
23	0xbb1adcc9	-0.0023630133
24	0x3c96b698	0.018397614
25	0xbd822d74	-0.06356326
26	0x3c688865	0.014192675
27	0x3e91ed7e	0.28501505
28	0x3d441e99	0.047880743
29	0xbd9a27f3	-0.07527151
30	0x3e8c1786	0.27361697
31	0xbcc8e946	-0.024525296
32	0xbe5346e4	-0.20632511
33	0x3e185648	0.14876664
34	0xbe1d6a90	-0.15372682
35	0xbd1d144c	-0.038349435
36	0x3e217d2e	0.15770409
37	0xbe0057ff	-0.12533568
38	0x391d5369	0.0001500376
39	0x3e0a9115	0.13531907
40	0xbcd605be	-0.026125785
41	0xbdd0dd5a	-0.101984695
42	0x3dccab71	0.09993637
43	0xbe1364de	-0.14393947
44	0xbd268396	-0.040652834
45	0xbd4af7ea	-0.049552836
46	0xbe0b327b	-0.13593476
47	0xbe12638c	-0.14295787
48	0x3d8a2e99	0.06747169
49	0xbd86bd10	-0.065790296
50	0xbdcd3944	-0.10020688
51	0x3de1509b	0.110017024
52	0xbe2c119c	-0.16803592
53	0x3d899573	0.06717958
54	0xbe322528	-0.17396986
55	0xbd57b9e8	-0.05266753
56	0x3e06e2c1	0.13172437
57	0xbdc33ada	-0.095327094
58	0x3d2f2360	0.042758346
59	0x3e15cba4	0.14628464
60	0xbd8cad2a	-0.06868966
61	0xbab42c47	-0.0013746106
62	0x3e0ac0d5	0.13550122
63	0x3c0126ef	0.007882818
64	0x3d8a89b7	0.06764548
65	0xbcbfa92e	-0.0233961
66	0x3dfd2986	0.123614356
67	0x3d83be32	0.06432761
68	0xbd4a892f	-0.049447235
69	0xbd19b23a	-0.037523486
70	0x3e453255	0.19257481
71	0x3d515429	0.051105652
72	0xbd6b27d1	-0.05741102
73	0xbd137318	-0.035998434
74	0x3ba0e038	0.0049095415
75	0xbe08ce12	-0.1335986
76	0xbb846c00	-0.004041195
77	0x3e2b9e82	0.16759685
78	0x3d405e24	0.04696478
79	0x3c947faf	0.01812729
80	0x3dc72d9d	0.09725497
81	0x3e7ac3a8	0.244887
82	0x3e9ec2f0	0.310081
83	0x3d62b077	0.05534407
84	0x3e56a1e2	0.20960191
85	0xbca1dfe7	-0.019760085
86	0xbe320142	-0.17383292
87	0xbda16ba3	-0.07881858
88	0xbe2adc37	-0.16685568
89	0xbe731288	-0.23737538
90	0x3e574978	0.2102412
91	0x3dd95276	0.10611431
92	0xbdc5307d	-0.09628389
93	0x3daa705d	0.08322213
94	0xbd0650fb	-0.032792073
95	0xbe780517	-0.24220692
96	0xbd94a96e	-0.07258879
97	0xbe602267	-0.21888123
98	0x3c700857	0.014650426
99	0x3df1c8a9	0.11805851
100	0x3db77f33	0.08959808
101	0x3d70e02e	0.058807544
102	0x3e0b5f15	0.1361049
103	0x3dab3607	0.08359914
104	0x3da855e7	0.082195096
105	0xbdb8a23d	-0.090153195
106	0xbc5d0d2d	-0.013491911
107	0xbe42828b	-0.1899511
108	0x3d5401e3	0.05175961
109	0x3946fc6b	0.00018976784
110	0x3dd0e8dc	0.102006644
111	0xbbd660e8	-0.006542314
112	0xbd4c8fb7	-0.049941745
113	0x3d0d9e3a	0.034574725
114	0x3dc6fce5	0.097162046
115	0xbd180110	-0.03711039
116	0xbe81a9e5	-0.25324932
117	0xbe1ff474	-0.15620595
118	0xbd1b72ae	-0.037951164
119	0x3d9182af	0.07105004
120	0x3d22369c	0.03960286
121	0xbe3dc625	-0.18532617
122	0x3de32c20	0.110924006
123	0x3dc7c506	0.09754376
124	0x3dddceb4	0.10830441
125	0xbcb12357	-0.021623297
126	0xbe78b5eb	-0.24288146
127	0xbda19e80	-0.078915596
128	0xbe274e2c	-0.16338414
129	0xbe8daef8	-0.27672553
130	0xbdcd5aab	-0.10027059
131	0xbe0912f0	-0.1338613
132	0xbd789850	-0.06069213
133	0x3c464ea4	0.01210371
134	0x3d1d5dea	0.03841964
135	0xbe03a170	-0.12854552
136	0xbd841655	-0.06449572
137	0xbd158988	-0.036508113
138	0xbdf2710b	-0.118379675
139	0xbd5a62c9	-0.053316865
140	0x3e204abe	0.15653512
141	0x3c7325fd	0.0148406
142	0x3e12318a	0.1427671
143	0x3deb0106	0.114748046
144	0xbe416a00	-0.18888092
145	0xbe167a54	-0.14695102
146	0x3e032065	0.12805326
147	0xbd923d72	-0.07140626
148	0xba9d450e	-0.0011998729
149	0xbdb56683	-0.08857443
150	0xbe1a6da7	-0.15080892
151	0x3cee0393	0.029054439
152	0xbca5af47	-0.02022518
153	0xbd82c3ad	-0.063849784
154	0xbda0fed6	-0.07861106
155	0xbd0374a2	-0.03209365
156	0x3c9f2fb6	0.01943193
157	0xbd6f6634	-0.058447078
158	0x3be7468e	0.0070579713
159	0xbd4f5b0d	-0.050623942
160	0xbd5557b0	-0.05208558
161	0xbda883a5	-0.08228234
162	0xbd389671	-0.045065347
163	0x3d5dda70	0.054163396
164	0x3d9ce936	0.07661669
165	0xbc993796	-0.018703263
166	0xbc7c96e6	-0.015416836
167	0xbd6e00ba	-0.05810616
168	0x3d43af3b	0.047774535
169	0x3ca6f830	0.020382017
170	0x3d563a4a	0.052301683
171	0xbe471f50	-0.19445539
172	0xbd9532da	-0.0728509
173	0xbd79987b	-0.060936432
174	0x3d176023	0.036956917
175	0xbdc7e55b	-0.09760543
176	0xbde9f37d	-0.11423395
177	0x3d93453a	0.07190938
178	0xbc63c59b	-0.013902093
179	0xbd9bdb68	-0.07610208
180	0xbdc14187	-0.094363265
181	0xbcd3d533	-0.025858497
182	0xbd2ae7b1	-0.041724864
183	0xbdf4aa68	-0.11946565
184	0x3d8569a9	0.06514294
185	0x3d31d0e5	0.043412108
186	0x3c918e52	0.017768059
187	0x3d3789d9	0.044809196
188	0xbdafb74d	-0.08579884
189	0x3dfdb18e	0.123873815
190	0xbe05d7ae	-0.13070557
191	0xbe09e2f6	-0.13465485
192	0x3d19e432	0.03757114
193	0xbe0ad8b4	-0.13559228
194	0x3d910b0f	0.070821874
195	0xbe159f09	-0.14611448
196	0xbdb92b75	-0.09041492
197	0xbd99391b	-0.07481595
198	0x3daa4de7	0.0831564
199	0xbda44a34	-0.080219656
200	0x3e09d350	0.13459516
201	0x3de7e2d8	0.11322564
202	0xbd6d9367	-0.058001902
203	0xbd7907db	-0.060798507
204	0xbc713ed2	-0.01472445
205	0x3d9a19a1	0.075244196
206	0x3e1200ef	0.14258169
207	0xbd7f40c5	-0.06231763
208	0xbe3c2732	-0.18374327
209	0xbdcf8331	-0.10132445
210	0xbddfdefb	-0.10931202
211	0x3d651d06	0.055935882
212	0x3c1978d5	0.0093671875
213	0x3ccfc9f2	0.02536485
214	0x3d301e11	0.042997424
215	0x3d2c3d1e	0.042050473
216	0xbe1e7ffe	-0.15478513
217	0xbd40086a	-0.046883024
218	0xbdc557f8	-0.09635919
219	0x3aa19522	0.001232777
220	0x3ddcfc35	0.10790292
221	0xbe3ea357	-0.18616997
222	0xbd05daba	-0.032679297
223	0x3dd4aaeb	0.103841625
224	0xbdb56dd7	-0.08858841
225	0x3df85d7d	0.121272065
226	0x3e4323a9	0.19056572
227	0xbb1b606d	-0.0023708597
228	0xbdfccc35	-0.12343637
229	0x3ca6dc57	0.020368738
230	0x3d9e40ed	0.07727227
231	0xbe010bde	-0.12602183
232	0xbd86166b	-0.06547245
233	0x3e09e6ad	0.13466902
234	0xbe0ca1d0	-0.13733602
235	0x3db27230	0.08713186
236	0x3e70a114	0.23498946
237	0xbe190006	-0.14941415
238	0xbd7a2985	-0.061074752
239	0x3eb6e87d	0.3572425
240	0xbe026901	-0.12735368
241	0x3cbf050f	0.023317842
242	0x3e4f38cf	0.20236515
243	0xbcf75f3f	-0.030196784
244	0xbc73d8b0	-0.014883205
245	0xbc9c2aa0	-0.019063294
246	0xbdfb1ad2	-0.12260975
247	0xbdf2dca3	-0.11858489
248	0x3cb430ef	0.02199599
249	0xbe5a0c09	-0.21293654
250	0x3c3e3cf3	0.011611211
251	0xbdb07b19	-0.08617229
252	0xbe2e593f	-0.17026232
253	0x3cf14451	0.029451521
254	0x3de7acc3	0.113122486
255	0x3d7df43d	0.062000502

block2.1.weight f4 [8]
0	0x3f8ff774	1.1247392
1	0x3f837092	1.0268729
2	0x3f8ca9ee	1.0989358
3	0x3f5523f0	0.8325796
4	0x3f5eda08	0.8705144
5	0x3f58fe42	0.84762967
6	0x3f83e074	1.0302873
7	0x3f94ea0a	1.1633923

block2.1.bias f4 [8]
0	0x3dfd9352	0.12381615
1	0x3e2a4e64	0.16631466
2	0x3d0d2483	0.03445865
3	0x3da3ee35	0.08004419
4	0xbe0d44f5	-0.13795836
5	0xbd941f36	-0.072325155
6	0xbc4d141d	-0.012517002
7	0x3cad7c97	0.021177573

block2.1.running_mean f4 [8]
0	0x00000000	0.0
1	0x00000000	0.0
2	0x00000000	0.0
3	0x00000000	0.0
4	0x00000000	0.0
5	0x00000000	0.0
6	0x00000000	0.0
7	0x00000000	0.0

block2.1.running_var f4 [8]
0	0x3f800000	1.0
1	0x3f800000	1.0
2	0x3f800000	1.0
3	0x3f800000	1.0
4	0x3f800000	1.0
5	0x3f800000	1.0
6	0x3f800000	1.0
7	0x3f800000	1.0

block3.0.weight f4 [12, 8, 3, 3]
0	0xbde59b6b	-0.11211284
1	0x3e4954a5	0.19661196
2	0x3d1868ba	0.03720925
3	0xbd57b15f	-0.05265939
4	0xbc47fac4	-0.012205783
5	0xbd9dd182	-0.07705976
6	0x3d29a784	0.04141952
7	0xbc78ff76	-0.015197625
8	0xbe132b88	-0.14372075
9	0xbcbc4e8e	-0.022986677
10	0x3ddef7e2	0.10887124
11	0xbdbe0a2d	-0.092792846
12	0x3d84a796	0.06477277
13	0xbcfaa691	-0.030597003
14	0xbd8dfb75	-0.06932727
15	0xbd4a7636	-0.04942914
16	0xbcc123b2	-0.023576591
17	0x3c51ae65	0.012797927
18	0x3d7a92fb	0.061175328
19	0x3dd313c7	0.103065066
20	0x3dd4af1e	0.103849635
21	0x3d58564a	0.052816667
22	0x3c46bfde	0.012130706
23	0x3d4cf583	0.050038826
24	0x3da50ca5	0.080590524
25	0x3d82696c	0.06367764
26	0xbd45225b	-0.048128467
27	0x3cc8827a	0.024476279
28	0xbe65e8aa	-0.22452036
29	0xbe693522	-0.22774175
30	0xbcec68da	-0.02885859
31	0x3c9c5643	0.019084102
32	0x3b0d835b	0.0021593187
33	0x3c349a5d	0.011023131
34	0x3d238c82	0.03992892
35	0x3c8ea195	0.017411033
36	0x3e3624ae	0.1778743
37	0xbd81c0ba	-0.06335588
38	0xbe2b4405	-0.16725166
39	0xbd83381d	-0.06407187
40	0xbe140e0a	-0.1445848
41	0xbd1683e0	-0.03674686
42	0xbde1b039	-0.1101994
43	0x3e54318f	0.2072203
44	0x3e8ca039	0.2746599
45	0x3d53c2ea	0.051699556
46	0x3d1d10ea	0.03834621
47	0xbe5702db	-0.20997183
48	0xbdf64ce4	-0.120263845
49	0xbe472735	-0.1944855
50	0xbaa67258	-0.0012698872
51	0xbe408cdb	-0.18803732
52	0xbe4921f6	-0.19641861
53	0xbe39b4d0	-0.1813538
54	0x3df5ae00	0.119960785
55	0xbcd0e0e0	-0.025497854
56	0xbca92597	-0.020647807
57	0xbd1bab05	-0.038004894
58	0xbd108112	-0.03527934
59	0x3caf36bb	0.021388402
60	0xbd6d249b	-0.057896238
61	0x3dcd16a5	0.10014085
62	0xbdf1a77b	-0.117995225
63	0x3e31b186	0.17352876
64	0x3dc62b5e	0.096762404
65	0xbe05ea65	-0.13077696
66	0x3de6a11d	0.11261199
67	0x3d9faf60	0.07797122
68	0xbe14d1c2	-0.14533141
69	0x3c0f8845	0.0087605165
70	0xbdf1863e	-0.11793183
71	0xbc9a5eb8	-0.018843994
72	0xbd5d8de1	-0.054090384
73	0x3d8629fc	0.06550977
74	0x3d69fd12	0.057126112
75	0xbdf28348	-0.11841446
76	0xbdbf8d57	-0.0935313
77	0x394e0fa0	0.00019651512
78	0xbd9bee5b	-0.07613822
79	0x3cf69a56	0.03010289
80	0xbd50da7a	-0.050989605
81	0xbe8dfeac	-0.27733362
82	0xbe2e451c	-0.1701855
83	0x3d7be41a	0.06149683
84	0xbe2f27e5	-0.17105062
85	0xbe81f75a	-0.25384027
86	0xbcbb8591	-0.022890838
87	0xbcd66bc8	-0.026174441
88	0xbe0d57cb	-0.13803022
89	0xbea64033	-0.32470855
90	0x3e18579c	0.1487717
91	0xbd5f37c7	-0.054496553
92	0x3da77645	0.08176855
93	0x3d08c2f7	0.033389058
94	0x3d62304e	0.05522185
95	0xbd50c191	-0.05096585
96	0xbb2f107f	-0.0026712713
97	0xbd51511d	-0.051102746
98	0x3e538a3e	0.20658204
99	0xbcb1719c	-0.021660618
100	0x3e2b9bc9	0.16758646
101	0xbdcc881f	-0.099869005
102	0xbe6b37f0	-0.22970557
103	0x3e702052	0.23449829
104	0x3e1ec892	0.15506199
105	0xbc886a27	-0.01665218
106	0xbe3b7ac2	-0.18308547
107	0x3b8e63a0	0.0043453723
108	0xbde7a2c7	-0.11310344
109	0x3da3d7da	0.08000155
110	0x3e5fa1c8	0.21839058
111	0xbd5a23fa	-0.053256966
112	0xbb2e9e43	-0.0026644624
113	0xbd42e011	-0.047576968
114	0x3cd4a647	0.025958193
115	0xbda076ee	-0.07835184
116	0xbd8c74da	-0.06858225
117	0xbcb507a2	-0.022098366
118	0xbc907999	-0.017636107
119	0xbd515451	-0.0511058
120	0x3ca2a6c2	0.019854907
121	0xbe1ee5cd	-0.1551735
122	0x3e2f3d5d	0.17113252
123	0x3def0207	0.116703086
124	0x3d77efd3	0.06053145
125	0x3c0a8072	0.008453475
126	0x3d715e26	0.058927678
127	0x3c2c9cd9	0.010535442
128	0x3cd01fda	0.025405813
129	0x3d8ffafd	0.07030294
130	0xbd3504c4	-0.044193998
131	0xbc8b172f	-0.016978828
132	0xbd0aa759	-0.033851
133	0xbd7d112f	-0.061783966
134	0xbcd34432	-0.025789354
135	0x3dcc70fc	0.099824876
136	0xbc6de229	-0.014519253
137	0x3da53563	0.08066823
138	0x3dc3a8ac	0.09553656
139	0x3cbd4861	0.023105802
140	0x3c6e6de9	0.014552572
141	0xbd7bc250	-0.061464608
142	0x3cf978b7	0.03045307
143	0x3e9758fa	0.2956007
144	0x3dda9374	0.10672656
145	0x3d27bf0c	0.04095368
146	0xbcb83bfd	-0.022489542
147	0x3dfe09d5	0.12404219
148	0x3d335627	0.043783333
149	0xbde0d658	-0.10978383
150	0x3bff7cad	0.007796845
151	0xbe1f6075	-0.15564139
152	0xbd48369a	-0.048880197
153	0x3e6292ee	0.22126362
154	0x3e3f4dd4	0.18682033
155	0xbe062545	-0.13100155
156	0x3e8e118c	0.27747762
157	0xbdae0221	-0.084965
158	0xbde64247	-0.1124311
159	0xbe0de587	-0.13857089
160	0xbe9b2d53	-0.30308017
161	0x3e6f7b86	0.23386964
162	0xbd905cfe	-0.07048987
163	0x3dbf58dd	0.09343121
164	0xbd1aa421	-0.03775418
165	0x3ded15ad	0.115764
166	0x3d82638a	0.06366642
167	0xbe0cac6c	-0.13737649
168	0x3cc5dd94	0.024153508
169	0xbd688b22	-0.056773312
170	0xbd6e9e0d	-0.058256198
171	0xbe2054c9	-0.15657343
172	0x3d953575	0.07285587
173	0x3e2e9636	0.17049488
174	0x3cd8926c	0.026437007
175	0x3e8705a7	0.263715
176	0x3e1dd779	0.15414228
177	0xbd7e587c	-0.062096104
178	0xbdec4698	-0.11536902
179	0x3d27158e	0.04079204
180	0xbdbccf16	-0.09219186
181	0x3df4c93c	0.11952445
182	0x3e8fb3b7	0.280668
183	0xbe379c56	-0.17930731
184	0xbe287ed0	-0.16454625
185	0x3e9f3200	0.31092834
186	0xbdef49d5	-0.11684004
187	0xbdecfc67	-0.115715794
188	0x3e4bc411	0.19899012
189	0xbe082c8e	-0.13298246
190	0xbc80625a	-0.015671898
191	0x3d9b92d4	0.075963646
192	0x3e129535	0.1431473
193	0x3d2da3d0	0.042392552
194	0xbd20ffe7	-0.039306547
195	0x3e077cc6	0.13231191
196	0xbd8a356e	-0.06748472
197	0x3e09a4ae	0.13441727
198	0x3dace92d	0.08442912
199	0x3cb77004	0.02239228
200	0xbd13dbbd	-0.03609823
201	0xbda542a9	-0.08069355
202	0x3cb80bc4	0.022466548
203	0xbde3b6c7	-0.111188464
204	0x3e158c45	0.1460429
205	0xbd9098c6	-0.07060389
206	0x3d3afef2	0.04565329
207	0xbd6f7665	-0.05846252
208	0xbd490a93	-0.04908235
209	0xbdb09f0e	-0.08624087
210	0x3de8d5a0	0.11368871
211	0xbda62fce	-0.08114587
212	0xbe18dea8	-0.14928687
213	0x3dca4ce7	0.09877949
214	0xbcc5dff5	-0.024154643
215	0xbd927b46	-0.07152419
216	0xbd9a7843	-0.07542469
217	0xbc9ddf07	-0.019271387
218	0x3dd3200d	0.103088476
219	0xbde2e27b	-0.11078354
220	0x3cb95fb6	0.022628646
221	0xbd662a40	-0.056192636
222	0xbe4d0b24	-0.20023781
223	0xbe11a756	-0.1422399
224	0x3c704a6a	0.014666179
225	0xbb8c5af6	-0.0042833043
226	0x3e10bf31	0.14135434
227	0x3e11c9dc	0.1423716
228	0xbe046c32	-0.12931898
229	0xbc65a303	-0.014015916
230	0xbd7d8970	-0.06189865
231	0xbe72ad19	-0.23698844
232	0xbe0bfd7f	-0.1367092
233	0xbe8a4f6d	-0.27013722
234	0xbdf801ea	-0.1210974
235	0x3b6b78ae	0.0035930085
236	0xbd89afa6	-0.067229554
237	0x3d6c8e36	0.05775281
238	0x3dcfaf3c	0.10140845
239	0x3df9276c	0.12165722
240	0x3db7f34e	0.089819536
241	0x3d0f2f4a	0.034957208
242	0x3e0acf91	0.13555743
243	0x3e07cd63	0.13261943
244	0x3d29d1f1	0.04145998
245	0xbe45aacb	-0.19303434
246	0x3e544fd1	0.20733573
247	0x3d401b7f	0.046901222
248	0xbe3e8553	-0.18605547
249	0xbe10f114	-0.14154464
250	0xbcd3de47	-0.025862826
251	0xbe4527ca	-0.1925346
252	0x3dca10e7	0.09866505
253	0x3e4c84a5	0.19972475
254	0x3e06f0c4	0.13177782
255	0xbd342931	-0.043984596

block3.1.weight f4 [12]
0	0x3f869d4f	1.0516757
1	0x3f992032	1.196295
2	0x3f53f192	0.8279048
3	0x3f84b0f7	1.0366505
4	0x3f549c7c	0.83051276
5	0x3f64aaee	0.8932332
6	0x3f8bd332	1.0923827
7	0x3f71e4fa	0.94490016
8	0x3f7021fe	0.9380187
9	0x3f945c0a	1.1590588
10	0x3f82ce4f	1.021921
11	0x3f84f543	1.0387348

block3.1.bias f4 [12]
0	0xbd5737a1	-0.052543286
1	0x3d01b1c7	0.031663682
2	0xbda2f570	-0.0795697
3	0x3c83ff8b	0.016113063
4	0xbe3ee4d6	-0.18641981
5	0xbc9b23ce	-0.018937971
6	0xbe151383	-0.14558224
7	0x3d98b6c1	0.074567325
8	0xbda2c5d2	-0.079478875
9	0xbc8df07d	-0.017326588
10	0x3cf7a634	0.030230619
11	0xbe1cf8e4	-0.15329319

block3.1.running_mean f4 [12]
0	0x00000000	0.0
1	0x00000000	0.0
2	0x00000000	0.0
3	0x00000000	0.0
4	0x00000000	0.0
5	0x00000000	0.0
6	0x00000000	0.0
7	0x00000000	0.0
8	0x00000000	0.0
9	0x00000000	0.0
10	0x00000000	0.0
11	0x00000000	0.0

block3.1.running_var f4 [12]
0	0x3f800000	1.0
1	0x3f800000	1.0
2	0x3f800000	1.0
3	0x3f800000	1.0
4	0x3f800000	1.0
5	0x3f800000	1.0
6	0x3f800000	1.0
7	0x3f800000	1.0
8	0x3f800000	1.0
9	0x3f800000	1.0
10	0x3f800000	1.0
11	0x3f800000	1.0

block3.3.weight f4 [12, 12, 3, 3]
0	0x3d2fd371	0.042926256
1	0x3dd5f772	0.10447587
2	0x3e32491d	0.17410703
3	0xbcb7f76b	-0.022456845
4	0x3e0dfd68	0.13866198
5	0x3a8bacc1	0.0010656343
6	0xbd53e6ba	-0.05173371
7	0x3c63dbc0	0.013907373
8	0x3d88fa2b	0.06688341
9	0xbd082188	-0.033235103
10	0xbc9ef0dc	-0.01940196
11	0x3db1408a	0.08654888
12	0xbd4e8819	-0.05042276
13	0x3d5b9926	0.05361285
14	0x3cc2563f	0.023722766
15	0x3c9a016c	0.018799506
16	0xbd9bcc8d	-0.07607374
17	0x3cbe163b	0.02320396
18	0x3d9c0ace	0.07619248
19	0xbd8e27b1	-0.06941164
20	0xbd9bdd6a	-0.07610591
21	0xbd414edf	-0.047194358
22	0x3d169521	0.036763314
23	0xbd9fa3cf	-0.07794916
24	0xbd0cf951	-0.034417454
25	0xbd475a99	-0.048670385
26	0xbddf6cee	-0.109094486
27	0x3e008002	0.12548831
28	0xbd22ef6a	-0.039779104
29	0xbccacfcf	-0.024757294
30	0xbcb8a4df	-0.022539554
31	0xbd2d0935	-0.04224511
32	0x3dd850a7	0.10562258
33	0xbb0d7d03	-0.0021589405
34	0xbd11c08a	-0.03558401
35	0x3dce27ec	0.10066208
36	0x3d88fcf2	0.066888705
37	0xbd8592dc	-0.06522152
38	0xbdd7a528	-0.10529548
39	0xbe495e64	-0.19664913
40	0xbd73bcd9	-0.05950627
41	0xbe25eb1d	-0.1620297
42	0xbe8de785	-0.27715698
43	0xbe252f90	-0.16131425
44	0xbe20d6cf	-0.15706943
45	0x3c459693	0.0120598255
46	0xbc70eefa	-0.014705414
47	0xbdfa5778	-0.122237146
48	0x3d44d488	0.048054248
49	0xbd88d4cd	-0.066812135
50	0x3d91f995	0.07127682
51	0xbdc7c901	-0.09755135
52	0xbd0d58df	-0.034508582
53	0x3e1b3c5b	0.15159743
54	0x3daf397c	0.08555886
55	0x3e40c01e	0.18823287
56	0x3e1d8513	0.15382795
57	0x3e12d3f3	0.14338665
58	0x3dd7f01b	0.10543843
59	0x3d44e672	0.048071332
60	0x3d9550af	0.0729078
61	0x3da3d3ef	0.079994075
62	0xbd89916c	-0.0671719
63	0xbd9fe17d	-0.0780668
64	0xbe35cf76	-0.17754921
65	0xbe03dfd8	-0.12878358
66	0xbe296e03	-0.16545872
67	0xbccacb05	-0.02475501
68	0xbcfd3aa4	-0.030911751
69	0xbe451e68	-0.1924988
70	0xbd18a740	-0.037268877
71	0xbdfa1c56	-0.12212436
72	0xbda4e40b	-0.08051308
73	0xbce7f4b4	-0.028314926
74	0x3dc31b74	0.09526721
75	0xbe581578	-0.2110194
76	0xbc57d823	-0.01317409
77	0x3d975235	0.073887266
78	0x3d49361c	0.04912387
79	0x3d2f9175	0.042863328
80	0x3de3f0af	0.11129891
81	0xbc1048df	-0.008806436
82	0x3d12bb6c	0.03582327
83	0xbcd55b7b	-0.026044598
84	0xbdb3814a	-0.08764894
85	0xbdbb247e	-0.0913782
86	0x3e27c473	0.16383533
87	0x3c4728ea	0.012155751
88	0x3e2b183f	0.16708468
89	0x3e5b5e6a	0.21422735
90	0xbcbda123	-0.023148125
91	0x3d9e8e9e	0.07742046
92	0x3e19c651	0.15017058
93	0xbcde2727	-0.027118279
94	0x3d4b95e3	0.04970349
95	0x3cb6f027	0.02233131
96	0xbe829808	-0.25506616
97	0xbd431e09	-0.047636066
98	0xbcdc08ef	-0.026859729
99	0x3bc6305c	0.0060482454
100	0xbc7f32c6	-0.01557607
101	0xbd40fc8b	-0.047115844
102	0xbd678798	-0.056525797
103	0xbe1a0465	-0.15040739
104	0xbcc558d0	-0.0240902
105	0xbb98f57a	-0.004667935
106	0x3cb0d261	0.021584691
107	0xbde12e74	-0.10995188
108	0xbded1d86	-0.11577897
109	0x3d863b28	0.06554252
110	0x39234ada	0.00015572776
111	0xbd7d6c65	-0.06187095
112	0xbc7986e7	-0.015229917
113	0x3e15c508	0.14625943
114	0x39e3f90c	0.00043482368
115	0x3d1af129	0.037827644
116	0x3d6b45af	0.057439502
117	0xbc8cdcfa	-0.017195214
118	0xbdae7483	-0.085183166
119	0x3d78e411	0.060764376
120	0x3e2025ce	0.15639421
121	0x3d013d87	0.031552818
122	0x3d0e0c48	0.03467968
123	0x3de2a70f	0.1106702
124	0x3d7fdb65	0.06246509
125	0xbe171941	-0.14755727
126	0xbe43b064	-0.19110256
127	0x3d5bb941	0.05364347
128	0x3e160de2	0.14653733
129	0xbe0a3c02	-0.13499454
130	0xbd569369	-0.052386675
131	0xbd8c9ca1	-0.06865812
132	0xbe1827c1	-0.14858915
133	0xbdb51323	-0.08841541
134	0xbce79f3d	-0.028274173
135	0x3da3feda	0.080075935
136	0xbc05f5fc	-0.008176323
137	0x3e8d57db	0.2760609
138	0x3e242cf5	0.16032775
139	0x3e2c4712	0.16823986
140	0x3cb1dfce	0.021713164
141	0x3d6384fe	0.055546753
142	0x3d0a01cb	0.033693116
143	0x3db5dd49	0.088800974
144	0xbe65d6fc	-0.22445291
145	0x3dc7de61	0.09759212
146	0x3e0d84a2	0.13820127
147	0xbdbfabef	-0.093589656
148	0xbdba9484	-0.09110358
149	0x3e0c4ea2	0.13701871
150	0x3ec8a954	0.39191687
151	0x3dba8e21	0.0910914
152	0xbd3592bf	-0.0443294
153	0xbe9a2673	-0.3010746
154	0xbd09a692	-0.03360612
155	0x3cbc1eb6	0.022963863
156	0xbd776c7e	-0.0604062
157	0xbc4a3f79	-0.012344235
158	0x3dfce76a	0.12348826
159	0x3e085795	0.1331466
160	0x3d4d0e8c	0.0500627
161	0xbda4f822	-0.0805514
162	0xbccab3c1	-0.024743916
163	0xbe0438ac	-0.12912244
164	0xbe0cc758	-0.13747919
165	0xbcf5e1d7	-0.030014915
166	0xbbff26cf	-0.0077866088
167	0xbd9c0c66	-0.07619552
168	0x3c30ff7a	0.010803098
169	0xbd53e902	-0.051735885
170	0xbdf1dfc7	-0.1181026
171	0x3c99de4b	0.018782755
172	0xbe032fb1	-0.12811162
173	0xbea5bf28	-0.32372403
174	0x3a9cc660	0.0011960976
175	0x3d72e59a	0.059300996
176	0x3d7e0f56	0.062026344
177	0x3e73bb33	0.2380188
178	0xbd681a79	-0.05666587
179	0x3d22f608	0.039785415
180	0xbda7bf77	-0.08190816
181	0x390df573	0.00013538245
182	0x3d53e754	0.051734284
183	0x3d823d35	0.063593306
184	0x3cc7d310	0.024392635
185	0xbbaf2757	-0.005345266
186	0xbe3c39a9	-0.1838137
187	0xbdf3fd6e	-0.11913572
188	0xbe46db65	-0.1941963
189	0xbe0f4718	-0.13991964
190	0x3e146df8	0.14495075
191	0x3ea300e6	0.31836623
192	0xbcb98b2b	-0.022649368
193	0xbd932ac6	-0.07185893
194	0x3dc49cb5	0.09600202
195	0xbe5f6f6e	-0.21819851
196	0xbdb2fdce	-0.08739816
197	0xbc909a37	-0.01765166
198	0xbe004219	-0.12525214
199	0xbe94b920	-0.2904749
200	0xbe78bae1	-0.24290039
201	0xbcaa3d8b	-0.0207813
202	0xbd80a2df	-0.06281065
203	0xbcfba15f	-0.030716596
204	0x3e5c27a5	0.21499498
205	0x3df010d2	0.11721958
206	0x3e84240f	0.2580876
207	0xbe954160	-0.2915144
208	0xbd281d16	-0.041043364
209	0xbe26d6d2	-0.16292885
210	0xbe468919	-0.19388236
211	0xbe13e901	-0.14444353
212	0xbe2593b7	-0.1616963
213	0xbda845af	-0.08216416
214	0xbd1628ed	-0.036660124
215	0xbc42ae04	-0.011882309
216	0xbcb49757	-0.02204482
217	0xbc2fc6dd	-0.010728565
218	0xbcee0a54	-0.02905766
219	0x3c0fcda6	0.008777058
220	0xbdf25152	-0.11831917
221	0x3d05e85a	0.03269229
222	0x3dcff5b3	0.10154285
223	0x3c32b5fd	0.010907647
224	0x3db8b4d7	0.090188675
225	0x3e943807	0.28948995
226	0x3da24aa5	0.079243936
227	0x3e54f043	0.20794778
228	0xbd038fbd	-0.0321195
229	0x3ced8c66	0.028997611
230	0x3d8fb669	0.07017214
231	0x3e371ea3	0.1788278
232	0xbc46c785	-0.01213253
233	0xbdbfebc0	-0.093711376
234	0xbb312807	-0.0027031915
235	0x3c502bae	0.012705727
236	0xbd78179f	-0.0605694
237	0xbe0e2c42	-0.1388407
238	0xbd3f1b4b	-0.046656888
239	0xbdc3e1aa	-0.095645264
240	0x3cc79623	0.024363583
241	0x3d27bf9f	0.04095423
242	0x3c97870e	0.018497016
243	0x3e1949c0	0.1496954
244	0x3d88a56f	0.06672179
245	0x3dc02a20	0.09383035
246	0x3bd71125	0.006563323
247	0xbd45bb5a	-0.048274375
248	0x3dd55bd0	0.104179025
249	0x3d89bdee	0.06725679
250	0x3d424ab3	0.04743452
251	0xbd43b1dc	-0.04777704
252	0x3cbb1867	0.022838784
253	0xbbd2248c	-0.006413048
254	0xbcc99aba	-0.024609912
255	0xbd874c4e	-0.06606351

block3.4.weight f4 [12]
0	0x3f861859	1.047618
1	0x3f84c425	1.0372359
2	0x3f85bfa3	1.0449108
3	0x3f733df6	0.9501642
4	0x3f834eab	1.0258383
5	0x3f8965ed	1.073423
6	0x3f76d2ad	0.96415216
7	0x3f9013be	1.1256025
8	0x3f76a68c	0.9634788
9	0x3f80448c	1.0020919
10	0x3f5f1e24	0.87155366
11	0x3f7ffc57	0.99994415

block3.4.bias f4 [12]
0	0xbd9dce6d	-0.07705388
1	0x3bc80acb	0.0061048022
2	0xbd87d2ff	-0.06632041
3	0xbe06f519	-0.13179435
4	0xbda192ab	-0.07889303
5	0xbbedf11b	-0.007261408
6	0xbbd2a25d	-0.0064280466
7	0xbba573ac	-0.0050491896
8	0xbdb322f0	-0.08746898
9	0xbd98c965	-0.07460288
10	0xbc8a4a0e	-0.016881015
11	0xbd12dc74	-0.03585477

block3.4.running_mean f4 [12]
0	0x00000000	0.0
1	0x00000000	0.0
2	0x00000000	0.0
3	0x00000000	0.0
4	0x00000000	0.0
5	0x00000000	0.0
6	0x00000000	0.0
7	0x00000000	0.0
8	0x00000000	0.0
9	0x00000000	0.0
10	0x00000000	0.0
11	0x00000000	0.0

block3.4.running_var f4 [12]
0	0x3f800000	1.0
1	0x3f800000	1.0
2	0x3f800000	1.0
3	0x3f800000	1.0
4	0x3f800000	1.0
5	0x3f800000	1.0
6	0x3f800000	1.0
7	0x3f800000	1.0
8	0x3f800000	1.0
9	0x3f800000	1.0
10	0x3f800000	1.0
11	0x3f800000	1.0

block4.0.weight f4 [12, 12, 3, 3]
0	0x3d8743bf	0.066047184
1	0x3cdde039	0.027084457
2	0xbe2b394e	-0.16721079
3	0x3dd5aaba	0.10432954
4	0x3de78d51	0.11306251
5	0xbe34cc73	-0.17656116
6	0xbdae93f7	-0.08524316
7	0xbdd6626f	-0.104679935
8	0xbe15e78f	-0.14639114
9	0x3d903ac3	0.07042458
10	0x3dfb4343	0.122686885
11	0x3df7f224	0.121067315
12	0x3c026964	0.007959697
13	0x3dba6928	0.09102088
14	0x3dd6d96c	0.10490689
15	0x3e0b87ee	0.13626072
16	0x3baaa479	0.005207595
17	0xbc81b7da	-0.015834738
18	0xbd0a6bda	-0.03379426
19	0xbc13b74d	-0.00901587
20	0x3d7adc50	0.061245263
21	0xba9efc5e	-0.0012129655
22	0x3da97bc2	0.08275558
23	0x3e2c9105	0.16852196
24	0xbb7f2aa5	-0.003893533
25	0x3dc22f41	0.09481669
26	0x3e40a770	0.18813872
27	0x3d3c3a77	0.045954194
28	0xbccaef4f	-0.024772314
29	0x3d8e0c6f	0.06935965
30	0x3c6b28e9	0.014353015
31	0xbc80a662	-0.015704338
32	0x3d8a1daf	0.06743943
33	0xbd8f027a	-0.06982894
34	0x3cc59c84	0.024122484
35	0x3e4f0533	0.20216827
36	0x3e096dc1	0.13420774
37	0x3d069049	0.032852445
38	0xbe64bdfd	-0.223381
39	0x3d8ff5f3	0.07029333
40	0x3da0d8e0	0.078538656
41	0xbd4578b7	-0.048210826
42	0x3e6f97fd	0.23397823
43	0x3e2ecb1d	0.17069669
44	0xbdf32905	-0.11873058
45	0x3e5d8f7d	0.21636768
46	0x3e668a01	0.22513582
47	0x3ea434ab	0.32071432
48	0xbd63c6a6	-0.055609368
49	0xbd8a0146	-0.06738524
50	0x3c862a92	0.016377721
51	0x3daf23c7	0.08551746
52	0xbc967a6f	-0.018368928
53	0xbea0fa9e	-0.31441206
54	0xbc95b4b4	-0.018274643
55	0x3da2d508	0.07950789
56	0x3d8d1f0f	0.068906896
57	0x3c93697c	0.017994635
58	0x3da82fbb	0.08212229
59	0xbdca833f	-0.098883145
60	0x3df8848b	0.121346556
61	0x3d7378f0	0.059441507
62	0xbdb2d0fa	-0.08731265
63	0x3c0639aa	0.008192459
64	0xbdd2525f	-0.10269617
65	0xbe0eb8aa	-0.13937631
66	0x3d330926	0.043709897
67	0xbde4eb6a	-0.11177714
68	0x3d809e1b	0.06280156
69	0x3d3d5c47	0.04623058
70	0xbdc19cf6	-0.09453766
71	0xbd2b1f99	-0.04177818
72	0x3d097a53	0.033563923
73	0xbdc08485	-0.09400276
74	0xbdcdca54	-0.10048357
75	0xbd53e195	-0.051728804
76	0x3c3df2de	0.011593549
77	0x3d33b997	0.043878164
78	0xbc8d5f4a	-0.017257351
79	0x3d91c07a	0.0711679
80	0x3df3420c	0.11877832
81	0xbe12c792	-0.14333943
82	0x3bb172a5	0.005415278
83	0xbd86a3b6	-0.06574194
84	0xbe6237b6	-0.22091565
85	0xbd875e0d	-0.06609736
86	0xbe14917f	-0.14508627
87	0xbdf70ea2	-0.12063338
88	0x3d163974	0.036675885
89	0xbd38a8aa	-0.045082726
90	0xbe57fbec	-0.21092194
91	0xbdc14201	-0.09436417
92	0xb98f5c5e	-0.00027343904
93	0x3cceb2eb	0.0252318
94	0xbd33b6c1	-0.04387546
95	0x3d324b02	0.043528564
96	0x3e35c4c7	0.17750846
97	0x3d907e28	0.070553124
98	0x3d6a5f13	0.057219576
99	0x3d1f6843	0.03891779
100	0x3de84e4f	0.11343061
101	0x3db6fccc	0.08934936
102	0xbc80b952	-0.015713368
103	0x3cd34c0b	0.025793096
104	0x3e024c31	0.12724377
105	0x3d07f0dd	0.03318869
106	0xbdf8319c	-0.12118837
107	0x3d9d0bfc	0.076683015
108	0x3d48436b	0.04889242
109	0x3df5bb7c	0.119986504
110	0x3d4ce775	0.050025422
111	0x3dd73293	0.10507693
112	0xbd06077f	-0.032721993
113	0x3bc05fda	0.0058708014
114	0xbd921f7e	-0.07134913
115	0x3bc02c77	0.0058646756
116	0xbda65ace	-0.08122788
117	0x3abf0f28	0.001457666
118	0xbd5c91f0	-0.053850114
119	0xbe1dd59d	-0.15413518
120	0x3b05b542	0.0020402228
121	0xbcfca0cd	-0.030838395
122	0xbdd41b8a	-0.10356815
123	0x3d09f7da	0.033683635
124	0x3d9a706e	0.075409755
125	0xbdf5c529	-0.12000496
126	0xbd8d83c5	-0.06909899
127	0x3c22731c	0.0099151395
128	0xbda40209	-0.08008201
129	0xbe143287	-0.144724
130	0xbc679b1e	-0.014136104
131	0x3dd47115	0.10373131
132	0xbdb602d4	-0.08887258
133	0xbc9f8107	-0.019470705
134	0xbd89806b	-0.06713947
135	0xbe09010e	-0.13379309
136	0xbd291dbe	-0.04128813
137	0x3b9d8af5	0.0048078247
138	0xbe3a474a	-0.18191257
139	0xbcb4d5bf	-0.022074578
140	0xbd7c331c	-0.06157218
141	0xbc9dabe5	-0.019247005
142	0xbd220ee5	-0.039564986
143	0x3dc55229	0.096348114
144	0x3e559f8a	0.2086164
145	0x3e14e8cf	0.14541934
146	0xbd1cd183	-0.038285743
147	0x3e2c92a0	0.16852808
148	0x3be7eb40	0.0070776045
149	0xbd206db0	-0.039167106
150	0x3d8626a9	0.065503426
151	0x3e015638	0.12630546
152	0x3de5963e	0.11210297
153	0xbd442c61	-0.047893886
154	0xb92070c9	-0.00015300805
155	0xbc875eed	-0.016524756
156	0x3cfdb339	0.03096925
157	0xbd9e8474	-0.07740107
158	0x3dbd4636	0.09241907
159	0x3e548c24	0.20756584
160	0x3e0ac3a2	0.1355119
161	0x3e098347	0.13428985
162	0xbd01b4bc	-0.031666502
163	0x3d51c09c	0.051209077
164	0xbd6d6411	-0.05795676
165	0xbdfcdb45	-0.1234651
166	0xbcb084ac	-0.021547638
167	0x3d9285c9	0.07154424
168	0xbdb7205e	-0.089417204
169	0xbc759545	-0.014989202
170	0x3d98226d	0.07428441
171	0xbd365598	-0.044515222
172	0x3e1eed65	0.15520246
173	0x3e47fba1	0.19529583
174	0xbd60b217	-0.05485734
175	0xbd3dffca	-0.046386518
176	0x3dcc6f81	0.09982205
177	0xbe13e1dd	-0.14441629
178	0xbdd596df	-0.10429167
179	0xbe06c844	-0.13162333
180	0x3dee9bde	0.11650823
181	0x3d9cb0ae	0.076508865
182	0xbe2859b9	-0.16440476
183	0x3d108db5	0.035291392
184	0xbb9ef922	-0.0048514763
185	0xbd8dcae4	-0.06923464
186	0x3cf47db7	0.029845102
187	0x3ca8b00c	0.020591758
188	0xbdb0a2cb	-0.086248
189	0xbd3b908f	-0.04579216
190	0x3dbc5917	0.0919668
191	0x3c2e1340	0.010624707
192	0xbdbf7b36	-0.093496725
193	0x3d46528a	0.04841856
194	0xbd3d9038	-0.046280116
195	0xbe2385ac	-0.1596896
196	0x3d1a3152	0.03764469
197	0x3cacfbf8	0.021116242
198	0x3b4bc9ce	0.0031095627
199	0x3de85c8b	0.11345776
200	0x3d80eb69	0.06294901
201	0xbe1f9a64	-0.15586239
202	0x3d1aa0ce	0.03775101
203	0xbdd0c200	-0.101932526
204	0x3e1c8b34	0.15287477
205	0xbc736e0d	-0.014857781
206	0x3c2d9af4	0.010596026
207	0x3c92c6bf	0.017917035
208	0xbd48a2bb	-0.048983317
209	0xbd4230c7	-0.0474098
210	0x3db72db8	0.08944267
211	0xbd8ddd24	-0.06926945
212	0xbe294df5	-0.16533644
213	0x3dc36f89	0.09542758
214	0x3d919e5d	0.071102835
215	0x3d316e57	0.04331812
216	0x3e153822	0.14572194
217	0xb9b84174	-0.0003514398
218	0x3bf00c60	0.007325694
219	0xbd1c8328	-0.038211018
220	0x3d632c75	0.05546232
221	0x3dbb3a48	0.09141976
222	0x3d565bb2	0.05233354
223	0x3d8c3573	0.06846132
224	0x3e4f66de	0.20254084
225	0xbd2d2863	-0.042274844
226	0xbcbe000a	-0.023193378
227	0x3de49de5	0.111629285
228	0xbe050cf1	-0.12993218
229	0xbdabc095	-0.083863415
230	0x3e01d875	0.12680228
231	0xbe06b2f8	-0.13154209
232	0xbcba2ded	-0.022726977
233	0x3df49d89	0.1194411
234	0xbc80894d	-0.01569047
235	0x3c8685da	0.016421247
236	0x3de296c8	0.110639155
237	0x3dac7888	0.08421427
238	0x3d80b172	0.06283845
239	0x3d45c610	0.04828459
240	0xbcf3b46d	-0.02974912
241	0x3cc24395	0.023713866
242	0x3d50db32	0.05099029
243	0xbe1aa0bc	-0.15100378
244	0xbd3dd54e	-0.046346
245	0x3dc30062	0.095215574
246	0xbdba2119	-0.09088344
247	0x3dec2c5a	0.11531897
248	0x3dd2f2a1	0.10300184
249	0xbd45f021	-0.048324708
250	0xbd59a2f3	-0.053133916
251	0xbd4ec6ae	-0.050482444
252	0xbdb04533	-0.08606949
253	0xbd70ef29	-0.05882183
254	0xbdde20ca	-0.10846098
255	0xbd8dda6f	-0.069264285

block4.1.weight f4 [12]
0	0x3f79c170	0.9756079
1	0x3f6d527e	0.92704
2	0x3f74e16e	0.9565648
3	0x3f73426c	0.95023227
4	0x3f7e3833	0.99304503
5	0x3f85ad6c	1.0443549
6	0x3f80a968	1.0051699
7	0x3f81704f	1.0112399
8	0x3f84ecd5	1.0384775
9	0x3f815790	1.0104847
10	0x3f8be0f3	1.0928024
11	0x3f8800d2	1.062525

block4.1.bias f4 [12]
0	0xbca9e3e4	-0.02073855
1	0x3d1abf60	0.037780166
2	0x3ced69c5	0.028981099
3	0xbe14baa3	-0.14524321
4	0xbe289ba4	-0.16465622
5	0xbcf7018a	-0.030152101
6	0x3d81bd8f	0.063349836
7	0x3da483e8	0.080329716
8	0xbd8b2f38	-0.06796116
9	0x3cab73f8	0.020929322
10	0xbd74e9e1	-0.059793357
11	0xbe1bb2fd	-0.15204997

block4.1.running_mean f4 [12]
0	0x00000000	0.0
1	0x00000000	0.0
2	0x00000000	0.0
3	0x00000000	0.0
4	0x00000000	0.0
5	0x00000000	0.0
6	0x00000000	0.0
7	0x00000000	0.0
8	0x00000000	0.0
9	0x00000000	0.0
10	0x00000000	0.0
11	0x00000000	0.0

block4.1.running_var f4 [12]
0	0x3f800000	1.0
1	0x3f800000	1.0
2	0x3f800000	1.0
3	0x3f800000	1.0
4	0x3f800000	1.0
5	0x3f800000	1.0
6	0x3f800000	1.0
7	0x3f800000	1.0
8	0x3f800000	1.0
9	0x3f800000	1.0
10	0x3f800000	1.0
11	0x3f800000	1.0

block4.3.weight f4 [16, 12, 3, 3]
0	0x3d5aeb8d	0.053447295
1	0x3b8dd35c	0.0043281745
2	0xbdcfbc8d	-0.10143385
3	0x3d1aab37	0.03776094
4	0xbc405a9b	-0.011740352
5	0xbd88528d	-0.0665637
6	0xbd207963	-0.039178263
7	0xbc1c785d	-0.009550181
8	0xbd34feb6	-0.044188224
9	0xbd297d36	-0.041379176
10	0xbdcadbc6	-0.099052
11	0xbe4922d6	-0.19642195
12	0x3d11ed38	0.03562662
13	0xbd1c75d3	-0.038198303
14	0xbd587490	-0.052845538
15	0x3d9593d0	0.073035836
16	0x3e0aa7d7	0.13540588
17	0x3d11a88c	0.03556113
18	0xbdbfa78e	-0.093581304
19	0xbdbcdf5a	-0.092222884
20	0x3ca0a7d6	0.01961128
21	0xbd5675eb	-0.05235855
22	0x3d7b11fc	0.061296448
23	0xba2c204d	-0.00065660925
24	0x3ce2b12b	0.02767237
25	0x3d95a109	0.07306106
26	0x3e056e32	0.13030317
27	0xbba2efbd	-0.0049724267
28	0xbe14916a	-0.14508596
29	0xbde7625e	-0.11298059
30	0x3ce9d8c0	0.028545737
31	0x3db6c0b1	0.08923472
32	0xbda08f54	-0.07839838
33	0x3e0676e2	0.13131288
34	0xbd82c9ca	-0.063861445
35	0xbd69e0db	-0.057099205
36	0x3d4496d4	0.047995403
37	0x3daadf45	0.083433665
38	0x3d95aa65	0.07307891
39	0x3dd63e3d	0.1046109
40	0x3b009225	0.001961836
41	0xbb29d0d7	-0.0025911832
42	0xbdfe40a8	-0.12414676
43	0xbe1374ad	-0.14399977
44	0xbe0c0676	-0.1367434
45	0x3dbdde93	0.09270968
46	0x3bc886f8	0.006119605
47	0x3cab2723	0.020892685
48	0x3c2a1329	0.010380545
49	0x3d98592b	0.074388824
50	0x3d66c1c9	0.05633715
51	0x3cdb76cd	0.026790047
52	0xbd89d543	-0.067301296
53	0x3dbaac3f	0.091148846
54	0xbd36bbe6	-0.044612788
55	0x3d1c574a	0.038169183
56	0x3e0e9fae	0.139281
57	0xbafa6314	-0.0019103014
58	0x3e162091	0.1466086
59	0x3e48e170	0.19617248
60	0xbe129493	-0.14314489
61	0xbd181b84	-0.037135616
62	0x3e674120	0.22583437
63	0xbaaa8993	-0.0013010971
64	0xbd00cb5e	-0.031443946
65	0x3d6be52c	0.057591602
66	0xbc0c66ec	-0.00856946
67	0x3dca61d8	0.098819435
68	0x3e148885	0.14505203
69	0x3de8feb1	0.113767035
70	0x3d24cde2	0.040235408
71	0xbc284237	-0.010269693
72	0x3bc82dd4	0.0061089788
73	0xbe06f68f	-0.13179992
74	0xbe209208	-0.15680707
75	0xbd9442c8	-0.072393
76	0xbdac0b31	-0.08400572
77	0xbdf9b6cd	-0.121930696
78	0x3d3bf61e	0.045889013
79	0xbc767c16	-0.015044233
80	0xbdaa06c4	-0.08302072
81	0x3e4482e0	0.1919055
82	0x3e554e71	0.20830704
83	0x3e1bcf3c	0.15215772
84	0xbdb41475	-0.08792964
85	0xbdb05853	-0.086105965
86	0x3c7dce10	0.015491024
87	0xbdcf760b	-0.10129937
88	0xbceb33c4	-0.028711207
89	0xbe2096b1	-0.15682484
90	0xbe547f94	-0.20751792
91	0xbeb1a184	-0.3469354
92	0xbe267796	-0.16256556
93	0xbd9c3cca	-0.07628782
94	0xbe1c0c06	-0.15238962
95	0xbcd4c8e7	-0.025974704
96	0xbd8bfbe9	-0.068351574
97	0x3d9faa32	0.07796134
98	0x3e42b691	0.19014956
99	0xbba63d5a	-0.0050732316
100	0x3e07b3cd	0.13252182
101	0x3cca0031	0.024658294
102	0xbd3177eb	-0.043327253
103	0x3cdc3265	0.026879499
104	0xbc9cafb7	-0.019126756
105	0xbe0e2892	-0.13882664
106	0xbd2c40ba	-0.042053916
107	0xbe01585c	-0.12631363
108	0x3dba424a	0.09094675
109	0xbdca4760	-0.09876895
110	0xbe866fb0	-0.26257086
111	0xbe271ce1	-0.1631961
112	0xbe0f9b66	-0.14024124
113	0xbd27b1f3	-0.04094119
114	0xbe6694ff	-0.22517775
115	0xbe0cc132	-0.13745573
116	0x3cb6e477	0.022325737
117	0xbd84479a	-0.064589694
118	0xbbf4120c	-0.0074484404
119	0x3c020a10	0.007936969
120	0x3ce7819c	0.028260045
121	0x3dccc7a7	0.09999018
122	0x3dcda8e2	0.100419775
123	0xbe53f933	-0.2070053
124	0xbaf8e05d	-0.0018987764
125	0xbdb3012e	-0.087404594
126	0xbe233799	-0.15939178
127	0xbe29173d	-0.16512771
128	0xbdacb12a	-0.08432229
129	0xbd373477	-0.04472777
130	0x3d6bb2e2	0.057543643
131	0x3d0426a0	0.0322634
132	0x3e3ce447	0.18446456
133	0x3e0371dd	0.12836404
134	0x3abf6eb1	0.0014605132
135	0x3cea57f5	0.028606394
136	0xbb82168b	-0.0039699725
137	0x3d078a74	0.033091024
138	0x3c7f2a10	0.015573993
139	0xbda9aea8	-0.08285266
140	0x3d4e3e4e	0.050352387
141	0x3c4c3b22	0.01246527
142	0xbd85ee11	-0.06539548
143	0xbe31cb6d	-0.17362757
144	0x3e1ec161	0.15503456
145	0x3c4cdaab	0.012503306
146	0xbd8e1a03	-0.06938555
147	0x3db40583	0.08790114
148	0xbc0b89d0	-0.008516744
149	0x3c397e71	0.01132165
150	0x3c8d5c43	0.017255908
151	0xbcd1294e	-0.02553239
152	0x3dbc29e9	0.09187681
153	0x3b8d6ba9	0.0043158126
154	0x3dee80c1	0.116456516
155	0x3de70d44	0.11281827
156	0x3d403511	0.046925608
157	0xbcf827f8	-0.030292496
158	0xbd054285	-0.03253414
159	0xbd004989	-0.03132013
160	0xbdb936e5	-0.090436734
161	0xbddb33a2	-0.107032076
162	0x3d1cd2e5	0.038287062
163	0x3cb251bc	0.02176749
164	0x3e1ce97b	0.1532344
165	0x3daf765f	0.08567499
166	0xbb0d3a5d	-0.002154968
167	0x3c8fac1e	0.017538127
168	0xbd4d1aba	-0.050074317
169	0xbe161f18	-0.14660299
170	0xbe8f4a08	-0.2798617
171	0x3e6b057d	0.22951312
172	0xbc0b7be2	-0.008513423
173	0xbe32202b	-0.17395084
174	0x3ddc42c3	0.10754921
175	0xbe22a509	-0.15883268
176	0xbe36e446	-0.17860517
177	0xbc54d5c3	-0.012990418
178	0xbcc7ebfb	-0.024404516
179	0x3dd5bb13	0.10436072
180	0x3e677d4b	0.22606389
181	0xbcf9ef03	-0.030509477
182	0xbd348408	-0.044071227
183	0x3e1c5f89	0.15270819
184	0xbd95e2f9	-0.07318682
185	0xbd882cb2	-0.0664915
186	0x3bb8e98d	0.005643076
187	0x3dc1e456	0.0946738
188	0x3ddfb440	0.10923052
189	0xbc6d8488	-0.01449693
190	0x3d286231	0.041109268
191	0xbce9c8bb	-0.028538099
192	0xbd60574a	-0.054770745
193	0xbdb9a582	-0.09064771
194	0xbe0a20e4	-0.1348911
195	0xbda2356a	-0.07920344
196	0xbd9a20d6	-0.07525794
197	0xbd7744cb	-0.06036834
198	0xbdb37352	-0.0876223
199	0xbe6700d5	-0.22558911
200	0x3c726105	0.014793639
201	0xbd9dfca0	-0.077142
202	0xbd24ab93	-0.04020269
203	0x3da4663f	0.080273144
204	0x3c266ab7	0.010157279
205	0x3d1ee403	0.038791668
206	0x3b853c6f	0.004066042
207	0xbdc6527e	-0.09683703
208	0xbcc8ca70	-0.024510592
209	0x3da27881	0.079331405
210	0x3db91a4c	0.09038219
211	0x3c55d51b	0.013051297
212	0x3d1d94c4	0.038471952
213	0x3e457e61	0.19286491
214	0x3cdc3c81	0.02688432
215	0xbc9deb17	-0.019277139
216	0xba3d53dc	-0.0007222274
217	0x3c766e2d	0.015040916
218	0xbe6c3b55	-0.23069508
219	0x3c90131a	0.017587233
220	0xbd143fb4	-0.036193565
221	0xbe37ae73	-0.17937641
222	0x3dfd6a43	0.123737834
223	0x3d72fc85	0.059322853
224	0x3d8e89ec	0.069599
225	0x3db2c1ea	0.087283924
226	0x3d24aa46	0.040201448
227	0x3c9917c5	0.018688092
228	0xbca93360	-0.02065438
229	0x3e02cbbe	0.12773034
230	0x3d6215b8	0.055196494
231	0x3d0672d7	0.032824364
232	0x3ddfaf3c	0.10922095
233	0x3d1b2562	0.037877448
234	0xbddd7cba	-0.10814805
235	0x3c4eab44	0.012614075
236	0xbd4cdbef	-0.050014433
237	0xbdc54ed3	-0.09634175
238	0xbd71a4ce	-0.05899506
239	0xbca78c7a	-0.020452727
240	0xbc989019	-0.018623399
241	0x3d07a371	0.033114854
242	0x3d48c6c8	0.049017698
243	0x3d455fb7	0.048186984
244	0x3c046ff6	0.008083334
245	0xbd811436	-0.06302683
246	0x3d5f2c71	0.054485742
247	0x3ce3737d	0.02776503
248	0xbd947437	-0.07248729
249	0x3d73c1e9	0.0595111
250	0x3e2358e3	0.15951876
251	0x3d1b50f6	0.037919007
252	0x3d13d9b5	0.036096293
253	0x3ce55ecf	0.02799931
254	0xbdf7549b	-0.12076684
255	0xbcef6e7f	-0.029227493

block4.4.weight f4 [16]
0	0x3f86918f	1.0513171
1	0x3f80345c	1.0015979
2	0x3f6f0fc9	0.9338346
3	0x3f819a4c	1.0125213
4	0x3f8294a5	1.0201613
5	0x3f8af5eb	1.0856298
6	0x3f822d0c	1.0169997
7	0x3f818ff4	1.0122056
8	0x3f7e237e	0.99272907
9	0x3f82cfd1	1.021967
10	0x3f7e56c1	0.99351126
11	0x3f7705dd	0.9649332
12	0x3f7d91cb	0.9905059
13	0x3f6f97c9	0.9359098
14	0x3f788ce8	0.97090006
15	0x3f82c8a4	1.0217481

block4.4.bias f4 [16]
0	0xbdd3fcd0	-0.103509545
1	0xbdf077ea	-0.11741622
2	0xbbaba0df	-0.005237683
3	0xbe41612b	-0.18884723
4	0xbc1c9190	-0.009556189
5	0xbd36dcaf	-0.044644054
6	0xbdb9c862	-0.09071423
7	0xbda697e8	-0.081344426
8	0xbdf9751a	-0.121805385
9	0xbe21365e	-0.15743396
10	0xbda50447	-0.080574565
11	0xbdf9c095	-0.12194935
12	0xbdb5dca7	-0.08879977
13	0x3e382714	0.17983657
14	0xbd06b812	-0.032890387
15	0x3c7bf878	0.015379064

block4.4.running_mean f4 [16]
0	0x00000000	0.0
1	0x00000000	0.0
2	0x00000000	0.0
3	0x00000000	0.0
4	0x00000000	0.0
5	0x00000000	0.0
6	0x00000000	0.0
7	0x00000000	0.0
8	0x00000000	0.0
9	0x00000000	0.0
10	0x00000000	0.0
11	0x00000000	0.0
12	0x00000000	0.0
13	0x00000000	0.0
14	0x00000000	0.0
15	0x00000000	0.0

block4.4.running_var f4 [16]
0	0x3f800000	1.0
1	0x3f800000	1.0
2	0x3f800000	1.0
3	0x3f800000	1.0
4	0x3f800000	1.0
5	0x3f800000	1.0
6	0x3f800000	1.0
7	0x3f800000	1.0
8	0x3f800000	1.0
9	0x3f800000	1.0
10	0x3f800000	1.0
11	0x3f800000	1.0
12	0x3f800000	1.0
13	0x3f800000	1.0
14	0x3f800000	1.0
15	0x3f800000	1.0

block5.0.weight f4 [16, 16, 3, 3]
0	0x3da5c320	0.08093858
1	0x3e5f9a1c	0.21836132
2	0x3e9abe23	0.30223188
3	0x3c8b1fb7	0.016982896
4	0x3dc00d2c	0.09377512
5	0x3e162a0d	0.14664479
6	0x3dd57304	0.10422328
7	0x3da0dadc	0.07854244
8	0x3e3dd835	0.18539508
9	0xbc5930c4	-0.013256256
10	0x3d5ec0d4	0.054383114
11	0x3e306f84	0.1723004
12	0xbd367838	-0.044548243
13	0x3cba200e	0.022720363
14	0xbc764ad2	-0.015032487
15	0xbc5e5275	-0.013569464
16	0xbd1f0010	-0.03881842
17	0x3c102409	0.008797654
18	0x3c2aee4c	0.010432791
19	0xbd73e824	-0.05954756
20	0xbdd4e008	-0.10394293
21	0x3db3d48b	0.08780774
22	0x3c15cf71	0.009143696
23	0xbd006e92	-0.031355448
24	0xbd7cb41c	-0.061695203
25	0x3888d8aa	6.525342e-05
26	0xbce0cb34	-0.027440645
27	0xbdb7a1a1	-0.08966375
28	0xbd5c9286	-0.053850673
29	0xbdca6e89	-0.09884364
30	0x3b952a22	0.0045521418
31	0x3c5e581b	0.013570811
32	0xbd9dc287	-0.07703119
33	0xbc07d396	-0.008290192
34	0x3d18741b	0.0372201
35	0xbd91868e	-0.071057424
36	0xbe583b53	-0.2111638
37	0xbdfd5732	-0.12370147
38	0xbc366663	-0.011132809
39	0x3d96bda7	0.07360392
40	0xbc0289e0	-0.007967442
41	0xbd5e35a0	-0.05425036
42	0xbc807b90	-0.01568392
43	0xbd8dd926	-0.069261834
44	0xbd0c9f20	-0.03433144
45	0xbd0a4e36	-0.033765994
46	0xbd1e5835	-0.03865834
47	0xbdb5f225	-0.08884076
48	0x3dec6b83	0.11543944
49	0x3d61ef2e	0.05515974
50	0xbac660ec	-0.0015135086
51	0x3d6cc355	0.05780347
52	0x3d0f96ef	0.03505605
53	0xbbf92579	-0.007603344
54	0x3e0f3538	0.13985145
55	0x3da31d0d	0.07964525
56	0xbd2419e5	-0.040063757
57	0x3d110374	0.035403684
58	0xbcc61356	-0.024179142
59	0xbdc066e7	-0.09394627
60	0x3ce036a4	0.027369805
61	0x3db63614	0.08897033
62	0x3d4f6aaa	0.050638832
63	0xbd136aa2	-0.035990365
64	0xbdc67299	-0.096898265
65	0xbdd5c93e	-0.104387745
66	0x3dfc1d1f	0.12310242
67	0x3e05f394	0.13081199
68	0x3c9d76d5	0.019221703
69	0x3e3e7f27	0.18603192
70	0x3e62ff9e	0.22167823
71	0x3e033d95	0.1281646
72	0xbd9735ca	-0.07383306
73	0x3d375909	0.044762645
74	0x3be8fa38	0.0071099065
75	0x3d324b3b	0.043528777
76	0x3d605cd2	0.05477602
77	0x3cb0e6b3	0.021594381
78	0x3dcf4e59	0.101223655
79	0xbd12655b	-0.03574119
80	0xbd9b60a7	-0.07586794
81	0xbd38ccc3	-0.04511715
82	0x3d862b8b	0.06551274
83	0x3ca26c21	0.01982695
84	0x3d093162	0.03349436
85	0x3dcb3ea4	0.09924057
86	0x3df8ca80	0.12147999
87	0x3d5b4410	0.053531706
88	0x3e5ae3af	0.21375917
89	0x3e7fc3a1	0.2497697
90	0xbda6813f	-0.081301205
91	0xbe326215	-0.17420228
92	0xbe3b7a3b	-0.18308346
93	0x3d1c09da	0.038095333
94	0x3d43fef5	0.047850568
95	0x3e00fbda	0.12596074
96	0xbcc0bf8e	-0.02352884
97	0xbcef3268	-0.02919884
98	0x3d88c954	0.06679025
99	0xbd37173f	-0.044699904
100	0xbd5dc694	-0.054144457
101	0xbd1af458	-0.03783068
102	0xbd0b2b4f	-0.03397685
103	0xbc8b6486	-0.017015707
104	0xbcb1799f	-0.021664439
105	0xbe2b3d94	-0.16722709
106	0xbdd033de	-0.10166143
107	0xbdc8d895	-0.09806935
108	0x3dc6aad1	0.097005494
109	0xbccdb46b	-0.025110444
110	0xbc4fcbb9	-0.012682849
111	0xbce3d01d	-0.027809197
112	0xbcf61457	-0.030038996
113	0x3d31c3b4	0.043399528
114	0xbd7f983b	-0.062401038
115	0x3ce0eb7b	0.027456036
116	0x3e0ce68e	0.13759825
117	0x3d57a19c	0.052644357
118	0xbdd296e3	-0.102826856
119	0xbd163261	-0.03666914
120	0xbd8136f2	-0.06309308
121	0xbe013ac4	-0.12620074
122	0x3d65bbd3	0.056087326
123	0x3de03cb3	0.109490775
124	0x3dea7c85	0.114495315
125	0x3e902164	0.28150475
126	0xbc3dc641	-0.011582912
127	0xbc0142bc	-0.007889446
128	0xbd752d04	-0.059857383
129	0xbc9dbbbe	-0.019254562
130	0x3cc01f75	0.0234525
131	0xbde17763	-0.11009099
132	0x3d2f3fac	0.04278533
133	0xbd16e8e9	-0.036843214
134	0xbcd22ae4	-0.025655217
135	0x3e7c10f1	0.24615838
136	0x3e28a529	0.16469254
137	0x3d389375	0.0450625
138	0x3d9e0913	0.077165745
139	0x3d79d66f	0.060995515
140	0x3b38c9bc	0.0028196415
141	0xbce13883	-0.027492767
142	0xbd799134	-0.060929492
143	0xbdd668f8	-0.1046924
144	0xbdbeb3f5	-0.09311668
145	0x3c0aa9f2	0.00846337
146	0xbdcc25ce	-0.09968148
147	0xbd061b6b	-0.03274099
148	0xbd38b8fe	-0.045098297
149	0xbd12ec63	-0.035869967
150	0xbd1fbf9b	-0.03900109
151	0xbd85f9e5	-0.06541804
152	0xbcc210c9	-0.023689644
153	0x3c9d85df	0.019228874
154	0x3d5bfb30	0.053706348
155	0x3da9760b	0.08274468
156	0xbd6ab192	-0.05729825
157	0x3c806df4	0.01567743
158	0x3c507256	0.012722572
159	0xbd283c41	-0.041073088
160	0xbb9886c7	-0.0046547386
161	0x3b9b3722	0.004736797
162	0xbd1ddcf1	-0.038540784
163	0xbd80fc3f	-0.06298112
164	0xbbc86655	-0.0061157146
165	0xbd178e06	-0.03700068
166	0x3beb6815	0.0071840384
167	0xbd480c81	-0.04884005
168	0xbd2383a3	-0.03992046
169	0x3c9aef26	0.018912863
170	0xbcbb44a5	-0.02285988
171	0xbe0e5896	-0.1390098
172	0xbd012e64	-0.031538382
173	0x3d71f75a	0.059073783
174	0xbd628420	-0.055301785
175	0x3d0f93bd	0.035053004
176	0x3d1d77a8	0.03844419
177	0xbdd5e3b5	-0.10443822
178	0xbcd6983d	-0.02619564
179	0x3ca00cc1	0.019537332
180	0x3cfa71ae	0.030571785
181	0x3db861de	0.09003042
182	0x3ca2357f	0.0198009
183	0xbd3ae7f5	-0.045631368
184	0xbdb81fca	-0.08990438
185	0xbd2a7b3a	-0.041621424
186	0xbde77787	-0.11302095
187	0xbc808097	-0.015686316
188	0xbd4bb5f6	-0.04973408
189	0x3d11d144	0.035599962
190	0xbbdde171	-0.0067712595
191	0xbe0a13e5	-0.13484152
192	0x3c8eb2cb	0.01741924
193	0xbc94f6c7	-0.018184079
194	0xbd9cd1c6	-0.076571986
195	0x3d0fc3f9	0.035099003
196	0x3b120d52	0.0022285772
197	0x3d82becc	0.06384048
198	0x3d49910a	0.049210586
199	0xba8fb4bf	-0.0010963901
200	0xbd18aa23	-0.03727163
201	0x3c099487	0.008397228
202	0xbd352189	-0.044221435
203	0xbd7d38b4	-0.061821654
204	0xbcf8882d	-0.030338371
205	0xbcd5c570	-0.026095122
206	0xbe0e7f3c	-0.13915724
207	0x3e41bb1f	0.18919037
208	0x3e3c08f3	0.18362789
209	0xbd871970	-0.06596649
210	0x3db1ed6c	0.08687863
211	0x3d1070fc	0.035264
212	0x3d139654	0.036032036
213	0xbc6420c4	-0.013923828
214	0xbccac657	-0.024752779
215	0xbe24bcc4	-0.16087633
216	0x3c4e3c59	0.01258763
217	0xbd0c6981	-0.034280304
218	0xbd39dfa8	-0.04537931
219	0x3c7d75b4	0.015469957
220	0x3d0fdd71	0.035123292
221	0xbd7b5084	-0.061356083
222	0xbcff488e	-0.031162526
223	0xbd0cf269	-0.034410868
224	0xbd95abe0	-0.07308173
225	0x3e345a4d	0.17612572
226	0x3e02a113	0.12756757
227	0x3dd867b1	0.105666526
228	0x3df4740f	0.11936199
229	0x3dbb85b5	0.09156362
230	0xbdc4df03	-0.096128486
231	0x3d8780c9	0.06616361
232	0xbda33c14	-0.07970443
233	0xbe13ce5a	-0.14434186
234	0xbdc75e3e	-0.09734772
235	0x3d04d82d	0.032432724
236	0x3daa32ba	0.083104566
237	0xbd580ab7	-0.052744593
238	0x3d7a3126	0.061082028
239	0x3d8c3ec5	0.0684791
240	0xbdb68314	-0.0891172
241	0x3c044a1a	0.008074308
242	0x3c2a6da0	0.010402113
243	0x3cfb82d9	0.030702041
244	0xbbca28e9	-0.0061694277
245	0x3db6b964	0.08922079
246	0x3d421455	0.04738267
247	0x3db63c82	0.0889826
248	0x3d9cbb58	0.076529205
249	0x3c525dc8	0.012839742
250	0x3d189974	0.03725572
251	0x3c963638	0.0183364
252	0x3c5b265e	0.013375847
253	0xbd4e7b02	-0.05041028
254	0x3d745c0a	0.059658088
255	0x3df5904c	0.11990413

block5.1.weight f4 [16]
0	0x400cf1ce	2.2022586
1	0x3feb900f	1.8403338
2	0x40057a2c	2.0855818
3	0x4015c4a5	2.3401272
4	0x3fe05ac0	1.7527695
5	0x402110e0	2.516655
6	0x3fdaca5c	1.7093005
7	0x402268a3	2.5376365
8	0x3ff0a051	1.8798925
9	0x3ff8c449	1.9434901
10	0x400cc93e	2.1997828
11	0x3fdd45b0	1.7286892
12	0x401e769f	2.47599
13	0x40077af7	2.1168802
14	0x402ac17a	2.6680589
15	0x4000bb40	2.0114288

block5.1.bias f4 [16]
0	0x3f7b47fd	0.9815672
1	0x3f11a214	0.56887937
2	0x3f4c0b4d	0.79704744
3	0x3f7651fc	0.9621885
4	0x3f2e495b	0.6808068
5	0x3f82dc1e	1.0223424
6	0x3f04a708	0.5181737
7	0x3f7ec85f	0.9952449
8	0x3f187d0c	0.59565806
9	0x3f411b9d	0.7543276
10	0x3f80f3f5	1.007445
11	0x3f008552	0.5020343
12	0x3f66e930	0.90199566
13	0x3f4f56e9	0.8099199
14	0x3f7141f7	0.9424128
15	0x3f1513b3	0.58233184

block5.1.running_mean f4 [16]
0	0x00000000	0.0
1	0x00000000	0.0
2	0x00000000	0.0
3	0x00000000	0.0
4	0x00000000	0.0
5	0x00000000	0.0
6	0x00000000	0.0
7	0x00000000	0.0
8	0x00000000	0.0
9	0x00000000	0.0
10	0x00000000	0.0
11	0x00000000	0.0
12	0x00000000	0.0
13	0x00000000	0.0
14	0x00000000	0.0
15	0x00000000	0.0

block5.1.running_var f4 [16]
0	0x3f800000	1.0
1	0x3f800000	1.0
2	0x3f800000	1.0
3	0x3f800000	1.0
4	0x3f800000	1.0
5	0x3f800000	1.0
6	0x3f800000	1.0
7	0x3f800000	1.0
8	0x3f800000	1.0
9	0x3f800000	1.0
10	0x3f800000	1.0
11	0x3f800000	1.0
12	0x3f800000	1.0
13	0x3f800000	1.0
14	0x3f800000	1.0
15	0x3f800000	1.0
