savedmodel/NoL1_WithL2 with BN classifier.pt (torch, 48134 bytes, 36 tensors)

block1.0.weight f4 [8, 1, 3, 3]
0.29014188 -0.6379778 -0.43115252 0.26442468 -0.13104336 0.29300657 0.24334207 0.07871421
0.2928106 0.10029147 0.124358706 0.3019362 0.21551056 -0.04221408 -0.17427821 0.037158076
0.28965068 0.3516815 0.14382885 0.1652198 0.13927588 0.5450468 -0.33063522 -0.43208984
0.032690883 0.02972785 -0.15089656 0.24473877 0.34098464 -0.08865824 0.23405683 -0.30608243
-0.0881935 -0.26793256 -0.16919641 -0.106118955 0.028857764 -0.05665222 0.34524205 -0.35749808
-0.32263696 0.374142 -0.2390665 -0.039491355 0.44806895 0.039535567 0.10288207 0.3567067
-0.43559352 -0.07740896 0.16502863 -0.045081787 -0.30172926 -0.4059854 0.14008673 -0.22783756
-0.21080911 -0.2521078 -0.25954318 0.07084708 -0.11143112 0.20846547 -0.06587588 0.19958942
-0.16433112 -0.23004015 0.39194217 0.5407381 -0.3251515 -0.21071722 0.15525377 -0.005025196
00000000: 7a8d 943e 8352 23bf 06c0 dcbe ac62 873e
00000010: 3b30 06be f504 963e aa2e 793e ea34 a13d
00000020: 45eb 953e 9d65 cd3d c7af fe3d 6297 9a3e
00000030: cdae 5c3e ace8 2cbd fd75 32be 1133 183d
00000040: 184d 943e 990f b43e df47 133e 612f 293e
00000050: 569e 0e3e 3088 0b3f 0549 a9be e13a ddbe
00000060: e0e6 053d d287 f33c a184 1abe cd9c 7a3e
00000070: 8a95 ae3e 7492 b5bd 98ac 6f3e d6b6 9cbe
00000080: cb9e b4bd 752e 89be d341 2dbe e554 d9bd
00000090: 1e67 ec3c 290c 68bd 91c3 b03e fd09 b7be
000000a0: ac30 a5be 8a8f bf3e d9cd 74be b0c1 21bd
000000b0: 4b69 e53e 0cf0 213d d6b3 d23d 43a2 b63e
000000c0: 1d06 dfbe 9788 9ebd 44fd 283e aea7 38bd
000000d0: 427c 9abe 51dd cfbe e572 0f3e 404e 69be
000000e0: 58de 57be 4614 81be d8e2 84be 4618 913d
000000f0: 0036 e4bd f977 553e efe9 86bd 2b61 4c3e
00000100: 6b46 28be a58f 6bbe a5ac c83e d06d 0a3f
00000110: 427a a6be 41c6 57be d8fa 1e3e 66aa a4bb

block1.1.weight f4 [8]
1.0789162 0.6470315 0.92930955 1.0347335 1.0348767 1.1410334 1.0577779 0.94595295
00000000: ed19 8a3f dba3 253f 3be7 6d3f 2672 843f
00000010: d776 843f 620d 923f 4465 873f f929 723f

block1.1.bias f4 [8]
0.16034442 -0.047217168 0.060160767 0.093742 0.053559378 0.07746377 0.11288608 0.07374257
00000000: 5431 243e ca66 41bd 236b 763d cefb bf3d
00000010: 1461 5b3d 53a5 9e3d d130 e73d 5806 973d

block1.1.running_mean f4 [8]
0.013270119 0.036949016 0.010300705 -0.0027992649 0.017103218 -0.012087378 -0.014227938 -0.0045910287
00000000: ea6a 593c da57 173d 4ac4 283c df73 37bb
00000010: 0c1c 8c3c 230a 46bc 4c1c 69bc 5770 96bb

block1.1.running_var f4 [8]
0.51113933 0.92306656 0.41658092 0.3590027 0.6038406 0.5648454 0.44663125 0.35709983
00000000: 07da 023f 174e 6c3f 184a d53e 34cf b73e
00000010: 4c95 1a3f b599 103f daac e43e cad5 b63e

block2.0.weight f4 [8, 8, 3, 3]
-0.093770996 -0.044305753 -0.005042433 -0.097575665 -0.18061505 -0.0237565 -0.06248276 -0.11328926
-0.029231474 0.10316634 0.007921475 0.23323146 -0.022729237 0.011850824 0.14622661 -0.024705786
-0.008371706 0.05450549 0.09077713 0.11063645 -0.10378062 -0.097676225 -0.10210688 0.033669226
-0.15001771 -0.14026931 -0.045815237 -0.029179456 -0.050968982 -0.019992528 -0.10136754 -0.018201051
-0.06918216 -0.033972267 -0.0804287 -0.11796938 -0.062269993 0.07195514 0.17096725 -0.018056944
0.1378866 0.06956758 -0.064399235 -0.10758332 0.29917532 0.15079126 -0.020794747 0.13889298
-0.16417553 0.13233218 -0.062461607 -0.20414354 -0.05219704 0.12975901 -0.061594192 -0.17983133
-0.2602449 0.07522452 -0.021392692 -0.07584828 0.12248826 -0.09383798 -0.19983582 0.10919839
0.05223471 0.18150538 -0.050554786 0.0047987583 0.13668634 -0.19995812 0.021589808 0.08723288
0.047144815 0.11813224 0.00063548033 0.16105914 -0.07440173 -0.2255773 -0.124582805 -0.32273072
-0.18649603 -0.035454024 0.0070774048 -0.12211605 0.09718187 0.0766753 -0.056218147 -0.061992
0.023887578 0.06054245 0.24658836 0.13623148 0.10214161 0.14429371 0.016917573 0.117795415
-0.039369 0.056675706 0.13840263 0.16093056 0.16699076 -0.048379157 0.24997796 -0.011787386
0.042946093 -0.09714839 -0.011046318 0.14744271 0.07402297 0.23667453 -0.082232945 0.06803548
0.06121935 -0.026224798 -0.15745659 -0.18214211 -0.13609959 -0.090763904 -0.044538673 0.0794265
-0.123222135 -0.09589518 -0.027309738 -0.13196811 -0.091718435 0.05454916 -0.010123617 0.084452175
-0.015307582 -0.00026194422 0.12202468 -0.09573075 0.09152784 0.0036000025 0.04424009 0.08999705
-0.09134286 0.010462564 -0.030212898 0.0010065902 0.05736231 0.1120559 0.0631383 0.100836776
-0.14947759 0.15996288 0.018846031 -0.20001021 0.03639517 -0.018467842 -0.12983078 0.010114623
0.009780505 0.005479437 0.069493026 0.089840226 -0.023190306 -0.10133833 0.0391224 -0.11406535
-0.13247077 0.084045835 -0.14626029 0.17119525 0.100467294 0.018652719 0.13208407 0.047503453
-0.07650452 -0.003225443 -0.019840233 -0.13075402 0.0648119 -0.005757482 -0.12265708 0.074451625
0.05503495 0.12028966 -0.025310807 -0.123143405 0.04313935 0.2005273 -0.15438507 0.07719792
0.12813883 -0.14805543 -0.002337882 0.10390671 0.07356769 -0.06182168 -0.11134343 0.0027695205
0.08241836 0.10521314 -0.083894946 -0.063716404 0.20765355 0.09599379 -0.010175859 -0.12664466
0.091439076 -0.090312056 -0.022911372 -0.047202233 -0.009064538 0.020207794 0.08133409 0.008449009
0.10207887 0.0012362285 0.106343605 0.12964126 -0.03273537 0.109309256 0.007893333 -0.15016171
0.086189575 0.029546876 0.036239177 0.029411634 -0.037021846 0.3468598 0.12063384 -0.040227026
0.009370046 0.04644196 0.0130386185 -0.12460519 -0.01516933 -0.10775439 -0.10820118 -0.03485243
0.011679996 -0.10983738 -0.06525009 -0.05783051 0.2149507 -0.008915711 -0.30372763 0.039966755
0.050026514 -0.06617258 0.0032082743 -0.0043599727 -0.04166015 -0.058085144 -0.06665672 -0.13151346
-0.03773398 -0.026006809 -0.0043361466 -0.22206849 0.033783313 -0.24085486 -0.16208379 0.05197711
00000000: 020b c0bd f379 35bd fe3a a5bb c0d5 c7bd
00000010: 27f3 38be fe9c c2bc eced 7fbd 3304 e8bd
00000020: d876 efbc e048 d33d 13c9 013c 3ad4 6e3e
00000030: aa32 babc f529 423c 6ebc 153e ca63 cabc
00000040: 7b29 09bc 2641 5f3d 5ce9 b93d 5d95 e23d
00000050: ef8a d4bd 790a c8bd 691d d1bd bee8 093d
00000060: 3e9e 19be c2a2 0fbe c2a8 3bbd c109 efbc
00000070: dac4 50bd 5fc7 a3bc c999 cfbd 5f1a 95bc
00000080: 60af 8dbd 8126 0bbd cdb7 a4bd ee99 f1bd
00000090: d20e 7fbd 375d 933d 0a12 2f3e 28ec 93bc
000000a0: 2532 0d3e 7379 8e3d bfe3 83bd a554 dcbd
000000b0: 822d 993e 0669 1a3e bf59 aabc f639 0e3e
000000c0: a11d 28be 1682 073e bed7 7fbd 010b 51be
000000d0: 90cc 55bd 8cdf 043e 314a 7cbd b425 38be
000000e0: d23e 85be 500f 9a3d ba3f afbc 5856 9bbd
000000f0: 20db fa3d 202e c0bd c3a1 4cbe 68a3 df3d
00000100: 10f4 553d 8cdc 393e 8912 4fbd e73e 9d3b
00000110: 81f7 0b3e d2c1 4cbe 1cdd b03c 27a7 b23d
00000120: ec1a 413d 51ef f13d 5d96 263a b0ec 243e
00000130: ef5f 98bd bcfd 66be 4525 ffbd f63c a5be
00000140: d1f8 3ebe 3d38 11bd 93e9 e73b fb17 fabd
00000150: 4a07 c73d f107 9d3d 0045 66bd 53eb 7dbd
00000160: e2af c33c 5cfb 773d a981 7c3e 4480 0b3e
00000170: 9f2f d13d bbc1 133e b996 8a3c b93e f13d
00000180: 6341 21bd c924 683d 6bb9 0d3e fbca 243e
00000190: a0ff 2a3e 3929 46bd 39fa 7f3e e11f 41bc
000001a0: 3ee8 2f3d bcf5 c6bd 9efb 34bc 39fb 163e
000001b0: 5b99 973d cf5a 723e bf69 a8bd 3056 8b3d
000001c0: 24c1 7a3d 63d5 d6bc 4d3c 21be 7683 3abe
000001d0: b15d 0bbe 6de2 b9bd 2f6e 36bd 5caa a23d
000001e0: e35b fcbd b164 c4bd acb8 dfbc a622 07be
000001f0: e0d6 bbbd f16e 5f3d 87dd 25bc 43f5 ac3d
00000200: a7cc 7abc 8f55 89b9 13e8 f93d 7c0e c4bd
00000210: f372 bb3d 05ee 6b3b 1935 353d 6050 b83d
00000220: f711 bbbd 2d6b 2b3c 0a81 f7bc 90ef 833a
00000230: bef4 6a3d 907d e53d a74e 813d 8383 ce3d
00000240: a710 19be 4fcd 233e fe62 9a3c 7acf 4cbe
00000250: 1a13 153d df49 97bc 5cf2 04be ceb7 253c
00000260: 693e 203c d98c b33b 5c52 8e3d 27fe b73d
00000270: 99f9 bdbc 788a cfbd cf3e 203d 189b e9bd
00000280: 6ba6 07be 3920 ac3d 42c5 15be cf4d 2f3e
00000290: ccc1 cd3d 96cd 983c 0c41 073e fb92 423d
000002a0: 67ae 9cbd f461 53bb fc87 a2bc 62e4 05be
000002b0: 1abc 843d 42a9 bcbb a333 fbbd 187a 983d
000002c0: 546c 613d 6d5a f63d 9c58 cfbc 9c32 fcbd
000002d0: e3b2 303d 0757 4d3e 1f17 1ebe f119 9e3d
000002e0: d336 033e d89b 17be 2737 19bb 0bcd d43d
000002f0: a8aa 963d bb38 7dbd 0608 e4bd d880 353b
00000300: f5ca a83d fd79 d73d 1dd1 abbd bf7d 82bd
00000310: 22a3 543e 6498 c43d a5b8 26bc 23af 01be
00000320: 6944 bb3d 87f5 b8bd a1b0 bbbc 2157 41bd
00000330: 6e83 14bc d18a a53c 7d92 a63d b66d 0a3c
00000340: ba0e d13d f208 a23a adca d93d aec0 043e
00000350: 8615 06bd 88dd df3d 0a53 013c fec3 19be
00000360: 2984 b03d 4a0c f23c 886f 143d abf0 f03c
00000370: 38a4 17bd 9c97 b13e e00e f73d 18c5 24bd
00000380: d284 193c ed39 3e3d ee9f 553c 0131 ffbd
00000390: c888 78bc 55ae dcbd 9598 ddbd 6cc1 0ebd
000003a0: 745d 3f3c 6cf2 e0bd d7a1 85bd afdf 6cbd
000003b0: 091c 5c3e 3413 12bc 3082 9bbe 2eb4 233d
000003c0: 9ae8 4c3d 7d85 87bd e941 523b 1ade 8ebb
000003d0: d5a3 2abd b0ea 6dbd 5283 88bd 77ab 06be
000003e0: f28e 1abd 3b0c d5bc 3c16 8ebb ec65 63be
000003f0: 5f60 0a3d a8a2 76be 4bf9 25be f3e5 543d

block2.1.weight f4 [8]
1.0728624 0.92579234 0.9360693 0.9158474 1.1583887 1.006562 1.0741842 0.84739906
00000000: 8e53 893f ba00 6d3f 3da2 6f3f fa74 6a3f
00000010: 1546 943f 06d7 803f de7e 893f 25ef 583f

block2.1.bias f4 [8]
0.02447926 0.11274775 0.011919204 -0.035634253 0.0565307 -0.07209802 -0.04782895 0.13747144
00000000: bb88 c83c 4be8 e63d c448 433c 39f5 11bd
00000010: bc8c 673d 20a8 93bd 4ae8 43bd 50c5 0c3e

block2.1.running_mean f4 [8]
-0.41998735 0.19843502 0.10734462 -0.27595836 -0.21200603 -0.49924496 -0.65735495 -0.45778394
00000000: 9508 d7be 8d32 4b3e 7fd7 db3d 6a4a 8dbe
00000010: 1c18 59be 099d ffbe 6a48 28bf a862 eabe

block2.1.running_var f4 [8]
0.7084387 0.85757834 0.45101768 0.823851 1.3605739 0.84407276 0.7601593 0.7443089
00000000: 3d5c 353f 418a 5b3f caeb e63e e6e7 523f
00000010: 4927 ae3f 2715 583f cd99 423f 078b 3e3f

block3.0.weight f4 [12, 8, 3, 3]
0.0063802092 -0.07103789 -0.14069694 0.24269986 -0.071688786 -0.12299095 0.3441044 0.09709077
-0.09405589 -0.09226073 -0.016562136 0.22088082 -0.14810574 0.009044538 0.09261207 -0.28906962
-0.07433849 0.040197473 -0.12328954 -0.14925958 -0.0472718 0.069473684 0.02265567 -0.04565574
-0.06662995 0.16832499 0.044567086 -0.13674948 -0.020157052 -0.16786945 -0.011154218 0.10866793
0.06984691 0.06911737 0.2203907 0.000774651 -0.12418831 -0.20166326 -0.030037185 0.010835933
-0.16955778 0.042464923 -0.011951104 -0.044049952 0.03332698 -0.031128073 0.08942819 0.10387715
-0.07967699 -0.17059852 -0.01237386 -0.1722062 -0.13763902 -0.014557824 0.04298447 0.04690881
0.14587766 -0.009444232 0.11927147 -0.10801505 0.1307956 0.01334124 -0.16588105 -0.07338492
-0.010956153 -0.043780815 -0.19269842 -0.0043878583 0.14432824 -0.17209914 0.09645217 0.0947101
0.032661676 -0.1771578 -0.27225912 0.0057583232 -0.14892134 0.101384684 -0.052811593 0.026429702
0.31059033 -0.2879506 -0.0631746 -0.084080435 0.048126522 0.12782818 -0.06222078 0.15384959
0.04130566 -0.108542815 -0.12222262 -0.22257459 -0.13411433 0.22301315 0.07892433 -0.14055383
0.28069222 0.10423544 -0.16031301 0.1199022 -0.16471952 -0.17914474 0.24110821 0.017443804
-0.13983992 0.02230889 -0.036739018 -0.17447546 -0.0028641543 0.022431884 0.057918113 -0.078825675
-0.029980054 -0.10073046 0.101524435 -0.21076539 -0.19390222 -0.12870382 -0.22717287 0.017245527
-0.123529136 -0.05096394 -0.0022357053 -0.023870585 -0.10111018 0.075411685 0.06977396 -0.18774492
-0.12806721 0.25143766 -0.13750575 0.11399615 -0.05242559 -0.023351943 0.1445476 0.08142719
0.030326191 -0.061415706 0.06470379 0.10184729 -0.09704693 0.008919201 -0.0070571876 0.023918483
-0.0046994477 -0.092748985 -0.19935322 -0.061684698 0.10976006 -0.124294885 -0.07263186 0.07991556
0.27681652 -0.022213034 0.0070849997 -0.095138334 0.11219651 0.01499372 0.1103062 0.03684844
-0.18846619 -0.07646986 -0.1270945 0.04055127 -0.033972617 -0.07735789 -0.08029594 0.04953148
0.04648009 0.052806105 0.21579748 -0.11866263 -0.2022497 -0.10642754 -0.07389997 -0.13555779
-0.042309318 0.10673464 -0.114794135 -0.04008401 0.01526916 0.019466516 -0.15164912 -0.07145689
-0.051898763 0.05204951 -0.06503186 0.10141934 0.079032145 -0.12328598 0.024767503 0.13206692
-0.14375769 -0.037041344 0.06486516 -0.121618085 -0.18109682 -0.0721711 -0.13625328 -0.13347436
0.016033733 -0.07458219 0.052787498 0.28978252 -0.06546769 -0.05744555 -0.030905345 0.04217197
0.052090604 -0.13715595 -0.044645265 0.06839597 -0.12729664 -0.012992789 -0.08005183 -0.1499607
0.11811951 0.1986497 -0.111473106 -0.0057087233 -0.0061753164 -0.12182339 0.02406562 -0.14224625
-0.24976258 -0.016822461 0.051021066 0.028817363 0.062672794 0.14313525 0.104144104 -0.18104966
-0.089269705 0.02533534 -0.16657698 0.008491589 -0.040199634 0.22959498 0.19763063 0.18668088
-0.09080407 -0.19069903 -0.19348882 -0.043901317 0.078308776 0.11533 -0.0825351 -0.04939341
-0.10281197 -0.078326195 -0.18923713 -0.13607 -0.06909169 -0.11219664 -0.047327407 0.07925808
00000000: 1311 d13b 507c 91bd dc12 10be 5086 783e
00000010: 92d1 92bd aee2 fbbd 742e b03e 87d7 c63d
00000020: 60a0 c0bd 32f3 bcbd 51ad 87bc 952e 623e
00000030: 08a9 17be 8b2f 143c 66ab bd3d ef00 94be
00000040: c73e 98bd 1ba6 243d 3a7f fcbd 81d7 18be
00000050: 13a0 41bd 3848 8e3d 6298 b93c 8301 3bbd
00000060: 4975 88bd 635d 2c3e fa8b 363d 0e08 0cbe
00000070: 6720 a5bc f8e5 2bbe 2ec0 36bc 4b8d de3d
00000080: e60b 8f3d 688d 8d3d 1aae 613e f311 4b3a
00000090: 7156 febd d080 4ebe 8b10 f6bc 3289 313c
000000a0: 8ea0 2dbe b3ef 2d3d 90ce 43bc b96d 34bd
000000b0: df81 083d 4d00 ffbc 2026 b73d 8bbd d43d
000000c0: b12d a3bd 61b1 2ebe bbbb 4abc d256 30be
000000d0: 3ef1 0cbe f083 6ebc 7c10 303d 7423 403d
000000e0: f460 153e fbbb 1abc 9a44 f43d ff36 ddbd
000000f0: 48ef 053e 3795 5a3c b9dc 29be d54a 96bd
00000100: 7081 33bc 8353 33bd bc52 45be 06c8 8fbb
00000110: c8ca 133e c23a 30be b788 c53d 5ef7 c13d
00000120: 40c8 053d db68 35be 8c65 8bbe 51b0 bc3b
00000130: d67e 18be c6a2 cf3d f850 58bd 1a83 d83c
00000140: b205 9f3e 436e 93be af61 81bd 5d32 acbd
00000150: 5120 453d 64e5 023e 37db 7ebd bf8a 1d3e
00000160: 2030 293d b24b debd da4f fabd 98ea 63be
00000170: 4455 09be 8f5d 643e 14a3 a13d 58ed 0fbe
00000180: e4b6 8f3e 6479 d53d 1829 24be 498f f53d
00000190: 3cac 28be b871 37be 12e5 763e 4fe6 8e3c
000001a0: 3232 0fbe 22c1 b63c a77b 16bd b2a9 32be
000001b0: 89b4 3bbb 12c3 b73c 8b3b 6d3d 5b6f a1bd
000001c0: bb98 f5bc c54b cebd 0bec cf3d e2d2 57be
000001d0: 4e8e 46be efca 03be 01a0 68be 7e46 8d3c
000001e0: d8fc fcbd 90bf 50bd e984 12bb 3f8c c3bc
000001f0: db12 cfbd 7171 9a3d a6e5 8e3d 3440 40be
00000200: 0d24 03be 70bc 803e 4fce 0cbe d076 e93d
00000210: 37bc 56bd 934c bfbc 4904 143e 4cc3 a63d
00000220: a26e f83c 098f 7bbd 6c83 843d 5095 d03d
00000230: 8ac0 c6bd d721 123c fb3f e7bb b2f0 c33c
00000240: d3fd 99bb 2ef3 bdbd 4023 4cbe 18a9 7cbd
00000250: e2c9 e03d 518e febd 03c0 94bd c5aa a33d
00000260: e5ba 8d3e 1cf8 b5bc 4929 e83b e3d7 c2bd
00000270: 49c7 e53d 38a8 753c 38e8 e13d 64ee 163d
00000280: 48fd 40be 3b9c 9cbd 1025 02be 1719 263d
00000290: df26 0bbd d06d 9ebd 3372 a4bd 85e1 4a3d
000002a0: e861 3e3d 374b 583d 04fa 5c3e 6505 f3bd
000002b0: 8c1a 4fbe aff6 d9bd de58 97bd a9cf 0abe
000002c0: 894c 2dbd b197 da3d 3019 ebbd 222f 24bd
000002d0: 802b 7a3c 3e78 9f3c e849 1bbe fd57 92bd
000002e0: cc93 54bd de31 553d 6c2f 85bd f1b4 cf3d
000002f0: 9bdb a13d 5c7d fcbd 38e5 ca3c 8d3c 073e
00000300: 3735 13be aab8 17bd 06d8 843d e712 f9bd
00000310: 7271 39be 71ce 93bd fb85 0bbe 81ad 08be
00000320: 2d59 833c 8cbe 98bd b437 583d 605e 943e
00000330: ed13 86bd 064c 6bbd 352d fdbc 84bc 2c3d
00000340: f55c 553d 9c72 0cbe f4dd 36bd 3013 8c3d
00000350: 0d5a 02be b5df 54bc 37f2 a3bd 4c8f 19be
00000360: a4e8 f13d d46a 4b3e 034c e4bd 3e10 bbbb
00000370: 4f5a cabb 8b7e f9bd 4325 c53c 00a9 11be
00000380: c3c1 7fbe 42cf 89bc 77fb 503d 6412 ec3c
00000390: 985a 803d 0c92 123e 8149 d53d 1565 39be
000003a0: 09d3 b6bd 0f8c cf3c 2893 2abe 4e20 0b3c
000003b0: 5fa8 24bd f21a 6b3e af5f 4a3e 4629 3f3e
000003c0: 7cf7 b9bd 9b46 43be ef21 46be ded1 33bd
000003d0: 5a60 a03d 2332 ec3d 2a08 a9bd bf50 4abd
000003e0: 158f d2bd 7c69 a0bd 61c7 41be ef55 0bbe
000003f0: f27f 8dbd 5ac7 e5bd 62da 41bd 0f52 a23d

block3.1.weight f4 [12]
0.97548795 1.1226677 1.1110446 1.0539929 1.1140817 1.079271 0.9249468 0.8099568
1.0392774 0.93105227 0.88897467 0.881189
00000000: 94b9 793f 93b3 8f3f b636 8e3f 3de9 863f
00000010: 3b9a 8e3f 8d25 8a3f 50c9 6c3f 5459 4f3f
00000020: 0b07 853f 7159 6e3f d893 633f 9a95 613f

block3.1.bias f4 [12]
0.01728079 -0.06199897 -0.010622966 0.035568107 -0.06677748 -0.05785695 0.038036007 -0.1858633
-0.0069556204 0.00897284 -0.08072446 -0.051649246
00000000: 7190 8d3c a2f2 7dbd f30b 2ebc ddaf 113d
00000010: a2c2 88bd 69fb 6cbd a5cb 1b3d f352 3ebe
00000020: f9eb e3bb d202 133c de52 a5bd 298e 53bd

block3.1.running_mean f4 [12]
-0.5899175 -0.8629414 -1.015941 -0.85268325 -0.91522425 -0.52795845 0.7010016 0.8062703
-1.0519158 0.2210419 0.34116694 0.8920532
00000000: d504 17bf bae9 5cbf 5b0a 82bf 7349 5abf
00000010: 234c 6abf 4928 07bf d774 333f bb67 4e3f
00000020: 2da5 86bf cf58 623e 6fad ae3e 995d 643f

block3.1.running_var f4 [12]
2.2448149 3.1159391 1.5860049 2.2444985 2.479153 2.99264 3.4925232 1.6448807
1.7650076 1.3536882 1.5841606 2.8888502
00000000: 0cab 0f40 8c6b 4740 3502 cb3f dda5 0f40
00000010: 71aa 1e40 6a87 3f40 8085 5f40 738b d23f
00000020: c5eb e13f a845 ad3f c6c5 ca3f ece2 3840

block3.3.weight f4 [12, 12, 3, 3]
-0.2324811 -0.042559598 0.14429234 -0.25511488 -0.16883521 0.022135401 0.1384774 0.048010588
-0.12744865 0.1904528 0.048762005 0.034156736 0.11507197 -0.16617341 -0.049117547 0.03148707
-0.030154787 0.021719653 -0.036269207 0.15371376 0.20151116 -0.22958577 -0.121455595 0.007549724
0.034859423 -0.018974822 -0.062357347 0.12564583 -0.070094354 -0.109487936 0.09896202 -0.15090235
0.08209777 -0.04635644 0.01473687 0.1981477 0.07835557 -0.04867396 -0.239522 0.014875784
-0.24363317 -0.16235277 -0.028036458 -0.093984276 -0.06588381 0.087212056 -0.10253176 -0.1510221
0.111542135 0.034625325 0.012839857 0.104580835 -0.08918438 -0.04319561 0.31788284 0.08337663
0.1353746 0.0599749 -0.06759805 -0.16570891 0.25337538 0.11896932 -0.053185515 0.05997015
0.06190114 0.011571928 -0.04515969 0.026202863 0.13824843 -0.049833532 -0.10328946 -0.013880163
0.059784055 -0.068741664 -0.21900412 0.05672103 0.06322345 -0.084047325 -0.057127427 -0.058162935
-0.1758625 -0.031804826 0.041555487 0.077942654 0.0364353 0.052239537 -0.014635529 0.004716078
-0.01598296 0.07222248 0.16777894 0.045949906 -0.01748879 -0.007773853 -0.05191228 0.15974201
-0.073689416 -0.14445753 -0.026995836 0.04756092 -0.017753894 0.20071469 -0.07926636 -0.0141783245
0.026340965 0.013322654 -0.16272643 -0.16101165 -0.052585296 -0.010365769 -0.033435665 0.2786034
0.1387662 -0.17687885 0.14950494 0.13342674 -0.07544599 -0.08208843 -0.17347486 -0.0970631
-0.034898717 -0.21685451 -0.12329685 -0.008800718 -0.11533741 -0.20800589 0.01903456 0.030853882
-0.13955532 -0.10981588 -0.10259261 -0.14515615 -0.036769077 -0.08942832 -0.033924393 -0.12733248
-0.2150421 -0.005880998 0.028574694 0.00072985026 0.04064609 -0.061384946 -0.042442583 -0.01681443
0.0036010742 0.013869862 -0.28889346 0.1609959 0.050771076 0.0908786 0.05618827 0.14513515
0.21733999 -0.19993341 -0.016203288 -0.05495705 0.0020946874 -0.10399494 -0.070715964 -0.09386628
0.058448415 0.10114582 0.049412955 0.059497118 -0.013912123 0.12420276 0.06282363 0.18074937
0.23811045 0.06659262 0.28959462 0.060264524 -0.026261462 -0.0094642 0.07930069 0.063703045
0.010990267 0.06566713 0.0034070096 -0.08571687 -0.008072335 -0.08723916 -0.14138813 0.0870762
0.085867 -0.10808262 -0.17450537 -0.040584195 -0.011325616 0.2184141 0.19507405 0.14861824
0.13662235 -0.058074206 0.08184848 0.11760993 0.019393396 0.036757085 -0.0017274669 -0.16898744
-0.1348208 0.10356401 0.022160826 -0.10676857 -0.013737237 -0.027010385 0.06832574 -0.14920044
-0.0064363824 -0.068876185 0.11123721 -0.05290259 -0.08493064 0.19269451 0.1961523 0.06156745
0.011264047 0.07501156 0.024860663 0.1726715 0.023278764 -0.27207214 0.19116949 -0.0657215
-0.34984505 -0.20062305 -0.20287067 -0.20572622 0.028905706 -0.03827421 -0.092478186 0.0826852
-0.020927154 -0.12355488 0.105759926 -0.14583144 0.0045769676 0.052748796 -0.04645152 -0.11464917
-0.15426596 -0.08541478 -0.17270482 0.15168595 -0.031381097 -0.18970124 0.032070644 -0.122153305
-0.014071553 -0.060868714 -0.09962169 0.14637159 -0.013793434 0.07108755 -0.15163474 0.10562123
00000000: 870f 6ebe f952 2ebd 5fc1 133e 6b9e 82be
00000010: 23e3 2cbe 4d55 b53c 05cd 0d3e c0a6 443d
00000020: e681 02be 0f06 433e abba 473d efe7 0b3d
00000030: daaa eb3d 5d29 2abe 7b2f 49bd 96f8 003d
00000040: 2c07 f7bc 6aed b13c 058f 14bd 2467 1d3e
00000050: f158 4e3e 8818 6bbe b6bd f8bd ad63 f73b
00000060: c1c8 0e3d 1671 9bbc 6b6a 7fbd 4da9 003e
00000070: a18d 8fbd 363b e0bd 99ac ca3d 2586 1abe
00000080: e022 a83d 40e0 3dbd ea72 713c 3be7 4a3e
00000090: e378 a03d 595e 47bd 4145 75be 8fb9 733c
000000a0: f97a 79be ce3f 26be b7ac e5bc d47a c0bd
000000b0: 17ee 86bd 3c9c b23d 2cfc d1bd 8aa5 1abe
000000c0: 3470 e43d 49d3 0d3d 435e 523c 7a2e d63d
000000d0: 4da6 b6bd e1ed 30bd 8ac1 a23e 5ec1 aa3d
000000e0: a49f 0a3e 3ea8 753d d970 8abd 99af 29be
000000f0: 6bba 813e 30a6 f33d 0ed9 59bd 43a3 753d
00000100: 0d8c 7d3d 2f98 3d3c 5ef9 38bd 63a7 d63c
00000110: ff90 0d3e 3f1e 4cbd 6d89 d3bd a069 63bc
00000120: 20e0 743d 6ec8 8cbd 9e42 60be 5054 683d
00000130: 4c7b 813d 0121 acbd 73fe 69bd 423c 6ebd
00000140: 4d15 34be c745 02bd 1636 2a3d 66a0 9f3d
00000150: 2e3d 153d 20f9 553d dcc9 6fbc 5489 9a3b
00000160: b2ee 82bc 61e9 933d 3ece 2b3e f835 3c3d
00000170: a744 8fbc cebb febb f9a1 54bd 6993 233e
00000180: 7aea 96bd adec 13be 5f26 ddbc 3dcf 423d
00000190: 9d70 91bc 2788 4d3e 6756 a2bd 344c 68bc
000001a0: 02c9 d73c 4347 5a3c c2a1 26be 3de0 24be
000001b0: ae63 57bd 30d5 29bc d6f3 08bd 1ba5 8e3e
000001c0: ba18 0e3e bb1f 35be d317 193e 05a1 083e
000001d0: 6d83 9abd fb1d a8bd 65a3 31be 05c9 c6bd
000001e0: f5f1 0ebd 1c0f 5ebe 0f83 fcbd e330 10bc
000001f0: 0536 ecbd 7fff 54be 5eee 9b3c 48c1 fc3c
00000200: 97e7 0ebe 26e7 e0bd 131c d2bd d0a3 14be
00000210: 2c9b 16bd 3226 b7bd 4ef4 0abd 7263 02be
00000220: ff33 5cbe 63b5 c0bb 7a15 ea3c 6c53 3f3a
00000230: 847c 263d c86e 7bbd 46d8 2dbd 6abe 89bc
00000240: 0000 6c3b 6b3e 633c d8e9 93be 1cdc 243e
00000250: 55f5 4f3d 8f1e ba3d ac25 663d 4f9e 143e
00000260: 608e 5e3e 58bb 4cbe c2bc 84bc a51a 61bd
00000270: 0647 093b 4dfb d4bd 88d3 90bd f73c c0bd
00000280: 9b67 6f3d 8a25 cf3d 3d65 4a3d 40b3 733d
00000290: acef 63bc 045e fe3d ada9 803d 5d16 393e
000002a0: 3ad3 733e b661 883d bf45 943e efd7 763d
000002b0: 4722 d7bc bb0f 1bbc 6668 a23d be76 823d
000002c0: 8510 343c 7d7c 863d 2348 5f3b 548c afbd
000002d0: d441 04bc 72aa b2bd 0dc8 10be 0255 b23d
000002e0: 0adb af3d 6c5a ddbd 89b1 32be 9d3b 26bd
000002f0: 148f 39bc f2a7 5f3e 7ec1 473e 612f 183e
00000300: bbe6 0b3e 38df 6dbd 2da0 a73d 7add f03d
00000310: e6de 9e3c 998e 163d 2c6c e2ba 0b0b 2dbe
00000320: 770e 0abe 5e19 d43d 9f8a b53c 7ba9 dabd
00000330: 2612 61bc e244 ddbc 5eee 8b3d 00c8 18be
00000340: 4ae8 d2bb f50e 8dbd 56d0 e33d 63b0 58bd
00000350: 1ef0 adbd b651 453e 26dc 483e 272e 7c3d
00000360: d68c 383c a99f 993d 97a8 cb3c ccd0 303e
00000370: 1bb3 be3c 0a4d 8bbe efc1 433e fe98 86bd
00000380: e41e b3be 2170 4dbe 54bd 4fbe e5a9 52be
00000390: a9cb ec3c 6bc5 1cbd 3465 bdbd dc56 a93d
000003a0: 6c6f abbc 570a fdbd a998 d83d d654 15be
000003b0: 63fa 953b 1f0f 583d f343 3ebd 2fcd eabd
000003c0: e5f7 1dbe f2ed aebd 88d9 30be 9053 1b3e
000003d0: 7789 00bd 0b41 42be 825c 033d 832b fabd
000003e0: 5f8c 66bc 7951 79bd 7506 ccbd 6fe2 153e
000003f0: dbfd 61bc 5996 913d 2346 1bbe f24f d83d

block3.4.weight f4 [12]
0.9450683 0.8669613 0.945488 1.0507926 0.9628714 0.9851383 1.0080847 1.0007197
1.1528636 1.0809213 1.0416372 0.9400756
00000000: ffef 713f 2df1 5d3f 800b 723f 5f80 863f
00000010: bd7e 763f 0632 7c3f eb08 813f 9517 803f
00000020: 0991 933f a15b 8a3f 5e54 853f cba8 703f

block3.4.bias f4 [12]
-0.06841877 -0.12720695 -0.018470002 -0.06431426 -0.06617801 -0.061210856 -0.01068874 -0.04739621
0.035311334 -0.11172179 0.03446635 -0.0028670302
00000000: 241f 8cbd 8a42 02be 674e 97bc 32b7 83bd
00000010: 5688 87bd 3cb8 7abd d31f 2fbc 8722 42bd
00000020: 9ea2 103d 65ce e4bd 962c 0d3d c9e4 3bbb

block3.4.running_mean f4 [12]
-0.29431197 0.0630436 -0.5156618 0.14557737 -0.84641147 0.23477873 0.11008056 -0.604146
-0.2770517 -0.7189046 -0.16640784 -0.3254129
00000000: 0fb0 96be 011d 813d 6902 04bf 3c12 153e
00000010: 6cae 58bf d669 703e eb71 e13d 50a9 1abf
00000020: b8d9 8dbe 220a 38bf d166 2abe 859c a6be

block3.4.running_var f4 [12]
0.9573982 1.5845989 1.0129738 1.3198022 0.6897602 0.66034335 0.9029089 1.075452
1.1325155 0.9795985 1.0430825 1.0444291
00000000: 0c18 753f 23d4 ca3f 20a9 813f 47ef a83f
00000010: 2094 303f 430c 293f 0a25 673f 69a8 893f
00000020: 45f6 903f f8c6 7a3f ba83 853f daaf 853f

block4.0.weight f4 [12, 12, 3, 3]
-0.13501422 -0.046453603 -0.0952253 -0.116437905 0.010378103 -0.003488462 -0.22055687 -0.09584349
-0.06311161 -0.071407855 -0.009105791 -0.002736984 -0.11811489 0.00050162064 0.000384923 0.026138192
-0.0032150173 -0.0055415113 0.079426795 -0.05423717 -0.08072847 -0.054759357 0.020878498 -0.013457509
-0.08909728 -0.01845563 0.03421303 0.022041252 0.050498214 -0.007909459 -0.06610376 0.0624938
0.08048745 -0.0073255156 -0.12797134 -0.017674888 -0.036673047 -0.04271092 -0.08083927 0.005720764
-0.04084349 -0.037866 -0.08960149 0.020588554 0.13081989 0.08130385 0.19853815 0.029300185
0.09235051 0.061389327 -0.060788266 0.08436705 0.08954629 0.024100272 -0.077431716 0.03603922
-0.05496634 -0.04206096 -0.00094204355 0.07266533 0.07953339 0.03864734 0.1274976 0.10623541
0.15135126 0.066156104 0.17031348 0.113454916 0.030331139 -0.035681162 -0.068200976 -0.0106619615
-0.054490466 -0.13126773 -0.0028594593 -0.06809839 -0.10777852 0.004019077 -0.19372506 -0.15195078
-0.0689462 -0.123298965 -0.07578345 -0.021233296 -0.14751625 -0.112982936 0.0013640579 -0.1936904
-0.106788345 -0.057517555 0.21603458 0.13201772 0.14230414 0.101400174 0.030693896 0.022235595
0.13135605 -0.013279438 -0.059562005 -0.16158153 0.020343361 0.0939289 0.0012941784 0.004483042
-0.013535103 -0.081213385 -0.061282724 0.06504215 0.09999506 -0.121141516 -0.074571304 -0.09964868
-0.043136276 -0.18239482 -0.15668651 0.029810758 -0.02831589 -0.1475673 -0.07161606 0.09544994
-0.14909254 -0.0032767719 0.0140533745 0.019432584 0.09196559 -0.017876295 -0.04413898 -0.07107167
-0.16642192 -0.055071883 -0.0049791117 -0.16760944 0.1473164 0.081888184 -0.015107776 -0.0027268736
-0.061920464 -0.08206025 -0.113281876 -0.026736818 0.05787648 0.05026033 0.023983646 0.10197196
0.014799536 0.023025995 -0.08203035 0.15258798 -0.08144728 0.024069497 0.24607386 0.073285595
0.02354148 -0.0952106 -0.05615254 0.047209207 -0.11171658 0.002702375 -0.094363816 -0.048032198
-0.11678236 -0.09584125 -0.116596974 -0.02887723 0.006739888 0.07600076 -0.019410279 -0.010560597
0.06198579 -0.042757243 0.09103885 0.022142747 0.11579282 0.044141546 -0.092782766 0.028564034
0.114533745 0.07323628 0.064495444 0.11005973 0.26823083 0.14433998 0.107170574 0.047793116
-0.049380645 -0.06948927 -0.0059558307 -0.1671862 -0.019075625 0.054639235 0.009475347 0.035330676
0.08099122 0.067271926 0.026266627 -0.042042885 -0.030692572 -0.047243644 -0.14301586 -0.023198854
-0.009391907 -0.080600575 -0.090360396 -0.07359825 -0.055587742 -0.06703151 -0.157242 -0.08850482
-0.09661049 -0.1187415 0.02101784 -0.13770688 -0.039809555 0.09432196 0.08987029 0.056999497
-0.2548334 -0.14458244 -0.093235955 -0.116488755 -0.04958475 0.11355336 -0.09899921 0.079130135
0.13866366 -0.016230581 0.022355162 -0.10546431 -0.08701196 -0.031725142 -0.04719013 -0.011021273
-0.09045592 -0.0038132092 -0.0044405716 -0.110686466 -0.2715602 0.09361344 0.020272953 -0.075646244
0.05668869 0.056256313 0.118889235 0.097704776 0.09911832 0.06532418 -0.14290692 -0.103181906
-0.025101261 -0.13074978 -0.06781794 0.011139822 0.1486376 0.11900168 -0.022820462 0.19547391
00000000: 2b41 0abe 2246 3ebd 7b05 c3bd ff76 eebd
00000010: eb08 2a3c ae9e 64bb a9d9 61be 9749 c4bd
00000020: a940 81bd 483e 92bd 7530 15bc f95e 33bb
00000030: 38e6 f1bd 317f 033a 7ecf c939 c31f d63c
00000040: 0ab3 52bb 9195 b5bb 84aa a23d cb27 5ebd
00000050: f854 a5bd 594b 60bd 6209 ab3c e27c 5cbc
00000060: a278 b6bd 4330 97bc f622 0c3d db8f b43c
00000070: 37d7 4e3d ad96 01bc 6861 87bd 80f9 7f3d
00000080: 9bd6 a43d e10a f0bb eb0a 03be edca 90bc
00000090: 7a36 16bd a5f1 2ebd 0f8f a5bd 3f75 bb3b
000000a0: 814b 27bd 6119 1bbd fc80 b7bd 54a9 a83c
000000b0: a6f5 053e a282 a63d 964d 4b3e f106 f03c
000000c0: 4422 bd3d 6073 7b3d 1efd 78bd a2c8 ac3d
000000d0: 0c64 b73d ef6d c53c 8594 9ebd dc9d 133d
000000e0: 6324 61bd 1d48 2cbd 79f3 76ba 8fd1 943d
000000f0: 67e2 a23d ac4c 1e3d bb8e 023e f391 d93d
00000100: d3fb 1a3e da7c 873d a866 2e3e 0d5b e83d
00000110: 0279 f83c 6926 12bd f4ac 8bbd 82af 2ebc
00000120: 6531 5fbd 0c6b 06be c465 3bbb 2b77 8bbd
00000130: fcba dcbd 76b2 833b dd5f 46be fc98 1bbe
00000140: aa33 8dbd 2b84 fcbd 5a34 9bbd 73f1 adbc
00000150: 800e 17be 9963 e7bd 30ca b23a c756 46be
00000160: d9b3 dabd 8797 6bbd 2b38 5d3e a72f 073e
00000170: 2db8 113e e5aa cf3d c471 fb3c 6c27 b63c
00000180: 3382 063e 0092 59bc 4af7 73bd a175 25be
00000190: 1fa7 a63c cc5d c03d 6ca1 a93a 7be6 923b
000001a0: 56c2 5dbc 3453 a6bd 9803 7bbd d234 853d
000001b0: 36ca cc3d 0b19 f8bd d7b8 98bd 9b14 ccbd
000001c0: aaaf 30bd b5c5 3abe 6e72 20be b135 f43c
000001d0: baf6 e7bc e21b 17be 71ab 92bd 427b c33d
000001e0: b7ab 18be 1cbf 56bb 2040 663c 1531 9f3c
000001f0: 7558 bc3d 4f71 92bc 13cb 34bd 068e 91bd
00000200: 826a 2abe 0e93 61bd d127 a3bb cfa1 2bbe
00000210: 1cda 163e feb4 a73d 9b86 77bc 59b5 32bb
00000220: 50a0 7dbd 340f a8bd 5400 e8bd 2c07 dbbc
00000230: e30f 6d3d c7dd 4d3d 5a79 c43c add6 d03d
00000240: c179 723c 03a1 bc3c 87ff a7bd 0640 1c3e
00000250: d5cd a6bd 652d c53c c9fa 7b3e c216 963d
00000260: 10da c03c c6fd c2bd 3500 66bd 715e 413d
00000270: aacb e4bd 541a 313b d141 c1bd 69bd 44bd
00000280: 972b efbd 6b48 c4bd 65ca eebd f18f ecbc
00000290: 47da dc3b 49a6 9b3d 4e02 9fbc 5b06 2dbc
000002a0: d0e4 7d3d 3822 2fbd 9472 ba3d b564 b53c
000002b0: c924 ed3d c4cd 343d e404 bebd 1fff e93c
000002c0: ab90 ea3d e7fc 953d 3016 843d ff66 e13d
000002d0: 8d55 893e dccd 133e 3f7c db3d b7c2 433d
000002e0: 5c43 4abd 6450 8ebd 2129 c3bb dc32 2bbe
000002f0: 7c44 9cbc 64cd 5f3d 7c3e 1b3c e6b6 103d
00000300: bade a53d ddc5 893d 1c2d d73c 2935 2cbd
00000310: fd6e fbbc 8d82 41bd c072 12be 860b bebc
00000320: 83e0 19bc ea11 a5bd df0e b9bd aeba 96bd
00000330: f9af 63bd d147 89bd 0c04 21be 0442 b5bd
00000340: b8db c5bd be2e f3bd 9b2d ac3c 0803 0dbe
00000350: 580f 23bd df2b c13d ea0d b83d 4e78 693d
00000360: 8679 82be 6b0d 14be 7ef2 bebd a891 eebd
00000370: 6119 4bbd aa8e e83d 19c0 cabd fb0e a23d
00000380: d9fd 0d3e fff5 84bc 2c22 b73c acfd d7bd
00000390: 5433 b2bd 39f2 01bd 704a 41bd 9292 34bc
000003a0: f440 b9bd 09e7 79bb 3782 91bb 96af e2bd
000003b0: f009 8bbe 67b8 bf3d 7713 a63c 6bec 9abd
000003c0: 6632 683d 056d 663d 337c f33d 7119 c83d
000003d0: 8cfe ca3d afc8 853d 3156 12be 0951 d3bd
000003e0: 29a1 cdbc 45e3 05be 22e4 8abd cd83 363c
000003f0: 7434 183e 27b7 f33d faf1 babc 502a 483e

block4.1.weight f4 [12]
0.9121295 1.0513995 1.0717691 0.96388745 0.96350956 0.9940384 1.0354635 0.93001014
1.0379797 0.9646817 0.9559677 1.0690762
00000000: 5281 693f 4294 863f bb2f 893f 54c1 763f
00000010: 90a8 763f 4d79 7e3f 118a 843f 2515 6e3f
00000020: 85dc 843f 61f5 763f 4dba 743f 7dd7 883f

block4.1.bias f4 [12]
-0.0179722 -0.04678521 0.032982506 -0.029612577 0.051187605 0.049929317 0.11145371 0.032593273
0.23776487 -0.0042124293 0.00909346 -0.024053223
00000000: 6f3a 93bc d9a1 3fbd aa18 073d 1396 f2bc
00000010: 18aa 513d af82 4c3d d841 e43d 8680 053d
00000020: a278 733e 6b08 8abb bcfc 143c 440b c5bc

block4.1.running_mean f4 [12]
-0.4762885 -0.4195685 0.013044531 -0.7184913 -0.21785626 -1.0036685 0.18717179 -0.40417942
0.09520784 -0.59825075 -0.7097139 0.18440682
00000000: 16dc f3be afd1 d6be bbb8 553c 0cef 37bf
00000010: b615 5fbe 3678 80bf f6a9 3f3e 9bf0 cebe
00000020: 54fc c23d f626 19bf cfaf 35bf 24d5 3c3e

block4.1.running_var f4 [12]
0.51831985 0.6706162 0.8884649 0.36000606 0.7366975 0.75678056 0.6747466 0.6776386
1.0682158 1.013449 0.769484 0.9876844
00000000: 9cb0 043f 81ad 2b3f 7072 633f b752 b83e
00000010: 3598 3c3f 5fbc 413f 31bc 2c3f b979 2d3f
00000020: 4cbb 883f b2b8 813f e7fc 443f e3d8 7c3f

block4.3.weight f4 [16, 12, 3, 3]
0.07577872 0.15287025 0.08412468 -0.034559682 0.071526065 0.035186455 -0.1555617 0.033308804
0.061427627 0.09259688 -0.14496376 -0.09991179 0.046351638 -0.09769315 -0.163137 -0.08307764
-0.1225176 -0.029606614 0.07684116 -0.101164155 -0.19508214 -0.052593406 -0.15277623 -0.047881678
-0.046418246 -0.020473663 -0.026074266 0.12572752 0.13732201 -0.094324365 -0.086737305 0.04040938
-0.019188771 0.05635605 0.03404827 -0.053938642 -0.21427307 -0.06683005 -0.08922158 0.0034492516
-0.068197034 -0.08436906 -0.038025804 -0.03713883 -0.08238015 -0.024655564 0.125919 0.2367583
-0.032952 -0.041945506 0.24144718 -0.12674299 0.034489658 0.08375307 -0.0019907332 0.05067602
0.08699303 0.13133676 -0.091023095 0.056128137 0.23217697 0.0038621584 0.07320224 -0.026610417
0.061818633 0.017230473 0.10953596 -0.049113568 -0.075460985 0.08045278 0.047939945 0.0021966405
-0.035134833 -0.032924104 -0.03216585 -0.041430008 0.08914986 0.14068057 -0.122750185 0.035331953
0.1742263 0.08815332 -0.116986774 -0.13513707 0.018445961 0.05467858 -0.03676928 -0.044595875
0.0127741005 0.0017021266 -0.01387092 0.086431906 0.328268 -0.120731875 0.027522244 0.12014832
-0.061477423 0.055698283 0.13858768 -0.028571323 0.069423616 -0.05853255 0.094364256 0.076417364
-0.037454296 0.017298685 0.035057977 0.020933028 0.11783575 0.12080172 0.018007444 0.1417072
0.013203554 -0.102692135 0.101147376 -0.07120976 -0.043837838 0.16088066 0.07370971 0.039254706
0.15188381 0.07923959 -0.010397636 0.09013685 -0.09437076 -0.065210104 0.10015438 0.0542817
0.1112566 0.052034527 0.081093974 0.03911021 0.11034647 0.031100338 -0.022792758 -0.015007083
0.09779601 0.016111232 -0.01375241 0.06329446 -0.03531162 -0.07915771 -0.14198692 -0.08293553
-0.108256936 -0.041479424 0.089187056 0.00017411498 0.01037326 0.058140304 0.08693029 0.16224663
0.11944236 -0.17981665 -0.17671603 -0.11135554 -0.04075165 -0.106402524 0.008910371 -0.04805129
0.0078089414 -0.0026135885 -0.2361163 -0.0815661 -0.090813115 -0.15726736 -0.05563931 -0.0015942547
0.045473482 -0.03925455 -0.012017079 0.14042181 0.011796503 -0.009620315 -0.027669363 -0.14480324
-0.2063597 -0.14910102 -0.17658228 -0.14060304 -0.07280679 -0.07286744 -0.09406834 0.04116254
0.05885052 -0.09283843 -0.024419084 0.0131204985 0.03402098 -0.17323853 -0.10159643 -0.14056154
-0.003806271 0.09430326 -0.014867926 0.13432802 0.009526656 -0.04652974 -0.13322625 -0.14563343
0.06482987 0.04159684 -0.028798565 0.015626704 -0.018669292 -0.06981592 -0.036405638 -0.024572771
-0.116412364 -0.056933913 0.057079118 0.0015640635 -0.051964927 -0.016514748 -0.013457686 -0.025829442
-0.070955046 0.100816384 0.05028401 0.004284638 -0.080379985 0.05964297 -0.07528501 0.016139718
0.021205096 -0.07311271 -0.171277 -0.20019281 0.052212626 0.042590566 0.03267766 0.16649985
0.009666373 0.09028711 -0.10412768 -0.13580143 -0.08676123 -0.08094162 -0.1355765 -0.16672508
-0.007909039 0.010711274 -0.05164637 0.122346476 -0.003903232 -0.056627203 0.15414698 0.07717999
0.07038898 0.069835775 -0.04337032 0.027909923 0.012939768 0.06561943 -0.05503997 0.053768434
00000000: e031 9b3d 058a 1c3e 8f49 ac3d 748e 0dbd
00000010: 427c 923d ac1f 103d 914b 1fbe d06e 083d
00000020: 899b 7b3d 6fa3 bd3d 6171 14be 8d9e ccbd
00000030: 37db 3d3d 5913 c8bd 630d 27be 9c24 aabd
00000040: 82ea fabd 9289 f2bc e65e 9d3d 272f cfbd
00000050: 9dc3 47be 2f6c 57bd 5f71 1cbe 941f 44bd
00000060: 0f21 3ebd 62b8 a7bc b399 d5bc b7be 003e
00000070: 249e 0c3e 222d c1bd 54a3 b1bd 4e84 253d
00000080: c531 9dbc 9ad5 663d 3376 0b3d c4ee 5cbd
00000090: 666a 5bbe 31de 88bd ceb9 b6bd d70c 623b
000000a0: e3aa 8bbd b0c9 acbd f2c0 1bbd e31e 18bd
000000b0: edb6 a8bd 77fa c9bc e9f0 003e c570 723e
000000c0: adf8 06bd 0dcf 2bbd ee3d 773e eac8 01be
000000d0: 0745 0d3d bb86 ab3d f676 02bb a991 4f3d
000000e0: 6729 b23d 257d 063e 516a babd 9ee6 653d
000000f0: cdbf 6d3e 441c 7d3b 0eeb 953d 17fe d9bc
00000100: 8935 7d3d ec26 8d3c 6454 e03d 4f2b 49bd
00000110: 4a8b 9abd 6dc4 a43d ad5c 443d 83f5 0f3b
00000120: 8be9 0fbd 6ddb 06bd 57c0 03bd 83b2 29bd
00000130: 3494 b63d 910e 103e 7364 fbbd 3db8 103d
00000140: 6168 323e ba89 b43d c396 efbd 5f61 0abe
00000150: fc1b 973c a6f6 5f3d 629b 16bd 2aaa 36bd
00000160: 764a 513c e419 df3a db42 63bc 3603 b13d
00000170: be12 a83e 4642 f7bd 5476 e13c 5310 f63d
00000180: c0cf 7bbd e223 643d eee9 0d3e 680e eabc
00000190: f82d 8e3d d4bf 6fbd 0c42 c13d b580 9c3d
000001a0: ad69 19bd f9b5 8d3c f498 0f3d be7b ab3c
000001b0: df53 f13d e466 f73d 5984 933c b11b 113e
000001c0: b853 583c 4150 d2bd 5b26 cf3d 6cd6 91bd
000001d0: 4e8f 33bd e6bd 243e 1ef5 963d 8bc9 203d
000001e0: 6e87 1b3e 5e48 a23d d95a 2abc ab99 b83d
000001f0: 7545 c1bd e08c 85bd bd1d cd3d 7d56 5e3d
00000200: 80da e33d 2822 553d 9914 a63d 0732 203d
00000210: 54fd e13d 23c6 fe3c e1b7 babc 45e0 75bc
00000220: 4649 c83d b4fb 833c ca51 61bc 87a0 813d
00000230: eba2 10bd 701d a2bd 0565 11be 1ada a9bd
00000240: d0b5 ddbd 54e6 29bd b4a7 b63d a292 3639
00000250: 9bf4 293c 8724 6e3d 8208 b23d fb23 263e
00000260: 329e f43d db21 38be 0cf5 34be 600e e4bd
00000270: 34eb 26bd 91e9 d9bd cefc 113c 6ed1 44bd
00000280: 26e2 ff3b bd48 2bbb 79c8 71be 210c a7bd
00000290: 3afc b9bd b20a 21be 0ce6 63bd 50f6 d0ba
000002a0: 6742 3a3d 61c9 20bd 48e3 44bc bcca 0f3e
000002b0: 1f46 413c 879e 1dbc dcaa e2bc 4d47 14be
000002c0: f54f 53be f0ad 18be fcd1 34be 3efa 0fbe
000002d0: ba1b 95bd 863b 95bd e7a6 c0bd 0d9a 283d
000002e0: 3e0d 713d 1322 bebd 880a c8bc 5cf7 563c
000002f0: 9559 0b3d 7165 31be ca11 d0bd 5def 0fbe
00000300: a172 79bb 1122 c13d 9a98 73bc 498d 093e
00000310: b115 1c3c f895 3ebd 766c 08be ee20 15be
00000320: 86c5 843d 7361 2a3d f8ea ebbc 9303 803c
00000330: 58f0 98bc a6fb 8ebd 141e 15bd d64c c9bc
00000340: 9b69 eebd 8933 69bd cbcb 693d 4301 cd3a
00000350: 2dd9 54bd f049 87bc a07d 5cbc 4498 d3bc
00000360: e150 91bd d278 ce3d 9bf6 4d3d 2666 8c3b
00000370: 439e a4bd 304c 743d 072f 9abd 7137 843c
00000380: 4fb6 ad3c 1ebc 95bd 3d63 2fbe 58ff 4cbe
00000390: e8dc 553d 7273 2e3d 03d9 053d f07e 2a3e
000003a0: b55f 1e3c 73e8 b83d e540 d5bd 880f 0bbe
000003b0: dfaf b1bd b8c4 a5bd 91d4 0abe fbb9 2abe
000003c0: ea94 01bc 577e 2f3c 258b 53bd ca90 fa3d
000003d0: 5ecd 7fbb edf1 67bd b5d8 1d3e 8b10 9e3d
000003e0: 1928 903d 0f06 8f3d 14a5 31bd 5aa3 e43c
000003f0: 5201 543c 7b63 863d 9771 61bd 4a3c 5c3d

block4.4.weight f4 [16]
0.99212396 1.0481458 0.89314 1.045074 0.9403245 1.009897 1.0581956 0.96335214
1.0316281 0.95059764 1.0008825 0.9591097 0.96788096 1.0274085 0.9968406 1.0027249
00000000: d6fb 7d3f a429 863f d3a4 643f fcc4 853f
00000010: 1bb9 703f 4e44 813f f472 873f 3f9e 763f
00000020: 640c 843f 5e5a 733f eb1c 803f 3788 753f
00000030: 0cc7 773f 1f82 833f f230 7f3f 4a59 803f

block4.4.bias f4 [16]
-0.18845826 0.06418677 -0.042501353 -0.05459772 -0.06785042 -0.24741833 -0.05587341 -0.07904149
-0.01189388 -0.13002086 -0.10269536 -0.028041527 0.03091588 -0.04875412 0.07019004 -0.107788384
00000000: 34fb 40be 5a74 833d e615 2ebd dca1 5fbd
00000010: 29f5 8abd 3b5b 7dbe 84db 64bd 81e0 a1bd
00000020: 8cde 42bc 3024 05be f251 d2bd 58b7 e5bc
00000030: 4d43 fd3c 66b2 47bd ccbf 8f3d 28c0 dcbd

block4.4.running_mean f4 [16]
0.3238483 -0.7084626 -0.02797506 -0.53355 -0.105467536 -1.1804519 -0.64648914 -0.15610597
-1.1166807 -1.044621 -1.1188203 -0.547129 -0.33776107 -0.31138933 -0.84389776 -0.74967
00000000: 72cf a53e ce5d 35bf f42b e5bc bc96 08bf
00000010: 5dff d7bd 0c19 97bf 5080 25bf 3eda 1fbe
00000020: 65ef 8ebf 24b6 85bf 8135 8fbf a510 0cbf
00000030: 05ef acbe 6c6e 9fbe af09 58bf 60ea 3fbf

block4.4.running_var f4 [16]
0.9060094 0.7865305 0.590943 0.674903 0.5370952 0.69367605 0.74401087 0.44803208
0.5147677 0.65868855 0.5371822 0.6898054 0.6250085 0.65799093 0.5071673 0.5479891
00000000: 3bf0 673f 105a 493f 0a48 173f 71c6 2c3f
00000010: 127f 093f c194 313f 7f77 3e3f 7664 e53e
00000020: d1c7 033f d09f 283f c684 093f 1697 303f
00000030: 8f00 203f 1872 283f b7d5 013f 0349 0c3f

block5.0.weight f4 [16, 16, 3, 3]
0.028400809 -0.052557673 0.050571922 -0.11266071 0.0034638587 -0.005290682 -0.050710723 0.04116771
-0.008354124 0.015194241 0.03586406 -0.008837726 0.069598146 -0.010589368 -0.07405142 0.17785136
-0.0010958218 -0.021784328 -0.0776789 -0.022571774 0.010920703 -0.09888588 0.028903283 0.031085916
-0.025595345 -0.005250098 -0.022036325 0.041566674 -0.041463483 -0.051167592 0.059952423 -0.036033522
-0.088928826 0.033784725 -0.023784744 -0.12047795 -0.09274796 0.033939566 -0.07476606 -0.034068823
0.022407126 -0.06163943 -0.077153526 0.011056139 0.007602469 -0.110376686 0.0015728466 -0.0036304218
0.03591022 -0.055514343 -0.035587706 -0.062331475 0.013058533 -0.07118279 0.22702822 0.12883246
0.19053674 0.06390012 -0.01248262 0.109507106 -0.025345128 0.063558355 0.052701905 -0.057013955
-0.034172747 0.06117041 -0.025184222 0.043056335 0.029360596 -0.009156222 0.024156079 -0.058137573
0.04733531 0.10575462 -0.029749544 0.10828214 -0.020194605 -0.012846427 0.11387394 0.05854964
0.10180321 0.21343939 0.13266517 -0.07833536 0.14878054 0.008735955 0.00016940173 0.096536815
0.058091182 0.03044586 0.3058879 0.12088263 0.12969363 0.11583869 0.011173894 0.072930284
0.050903335 0.042238235 0.11842408 0.04400628 -0.05691935 -0.0055213757 0.055570975 -0.052197557
-0.06843744 0.07412366 -0.0938461 -0.09116456 -0.11679619 -0.042225886 -0.12004456 0.001678327
-0.001575363 -0.01945521 -0.057151 -0.030650318 -0.017195879 0.04457192 0.011584028 -0.09263059
0.09305289 -0.06442032 -0.06215803 -0.038006864 -0.085173555 -0.1696544 -0.022919906 -0.019008974
-0.21055005 -0.033626508 0.016797807 -0.1195004 0.015020715 0.057798382 -0.04880322 -0.111132056
-0.031090623 0.07526624 0.024327515 0.06356783 0.110443816 0.012421611 0.1508412 0.048135966
0.010734278 -0.0017211117 -0.074793704 0.011129325 -0.007913337 -0.10783101 0.0033312188 -0.0060348148
0.061625354 -0.067727454 -0.030304238 -0.058589775 -0.085486285 -0.093823954 0.023239678 -0.060161192
-0.04227419 0.067870006 0.043608934 0.0014605604 -0.0581761 0.0039048463 -0.007435853 -0.023878457
0.0033425423 0.014359017 0.01323888 0.08403231 0.044421926 -0.004849817 0.08857406 0.076275475
0.113484785 0.111024976 0.053567335 0.06349089 -0.004355003 0.023705415 -0.0003162109 -0.1119667
-0.07434837 0.034251496 -0.06939827 -0.08916192 0.029474543 -0.07571327 -0.03631399 -0.09295797
-0.091690235 -0.048102394 -0.026496986 -0.16998413 -0.037891697 -0.08293434 0.048723966 -0.02091609
0.09298206 0.011956262 -0.003232892 0.02976714 0.053730655 0.08833114 0.019646326 0.17295702
0.116967894 0.07412558 0.11821882 -0.0347619 -0.032057576 -0.0017188643 -0.025194068 0.0026042683
-0.034547955 -0.037407752 -0.012174828 0.029609438 0.05512858 0.079028 -0.014299703 0.004224527
0.00038661447 -0.15777285 -0.10304695 0.006967633 -0.12071156 -0.07215059 -0.0277856 -0.12553991
-0.10632857 -0.09855538 -0.2132078 -0.025494106 -0.05650723 -0.07562239 -0.023927372 0.016690858
0.097690694 0.049319275 -0.015385073 -0.03287882 -0.08161881 -0.009174658 -0.03614835 0.093060285
0.05903201 -0.022854455 -0.010265077 0.063576914 -0.08816856 -0.022035396 0.15161967 -0.016569134
00000000: d0a8 e83c b746 57bd 8124 4f3d a9ba e6bd
00000010: e801 633b 755d adbb 0cb6 4fbd 799f 283d
00000020: bcdf 08bc 44f1 783c 31e6 123d 1ccc 10bc
00000030: 7989 8e3d 077f 2dbc 45a8 97bd ab1e 363e
00000040: aea1 8fba 0c75 b2bc 1d16 9fbd 71e8 b8bc
00000050: c0ec 323c ae84 cabd 94c6 ec3c e4a7 fe3c
00000060: 54ad d1bc 0409 acbb 8685 b4bc d141 2a3d
00000070: 9dd5 29bd 1c95 51bd ac90 753d e397 13bd
00000080: 5120 b6bd da61 0a3d 39d8 c2bc 25bd f6bd
00000090: a4f2 bdbd 3704 0b3d f31e 99bd c08b 0bbd
000000a0: 268f b73c a079 7cbd ab02 9ebd cf24 353c
000000b0: 221e f93b 2c0d e2bd f927 ce3a 5fec 6dbb
000000c0: 9816 133d 0263 63bd 6ac4 11bd 4a4f 7fbd
000000d0: 75f3 553c 48c8 91bd 167a 683e a8ec 033e
000000e0: 101c 433e 11de 823d e783 4cbc 4345 e03d
000000f0: 96a0 cfbc e22a 823d f4dd 573d 7787 69bd
00000100: b9f8 0bbd d38d 7a3d 244f cebc d75b 303d
00000110: a285 f03c fb03 16bc f8e2 c53c aa21 6ebd
00000120: ace2 413d e195 d83d 51b5 f3bc 07c3 dd3d
00000130: 286f a5bc d279 52bc be36 e93d bfd1 6f3d
00000140: 347e d03d db8f 5a3e 61d9 073e 4a6e a0bd
00000150: ed59 183e 4021 0f3c 6ea1 3139 18b5 c53d
00000160: 05f1 6d3d 9969 f93c 579d 9c3e 5091 f73d
00000170: 68ce 043e d63c ed3d b512 373c 795c 953d
00000180: 0480 503d 0002 2d3d 5388 f23d ee3f 343d
00000190: 4424 69bd a8ec b4bb 649e 633d 1bcd 55bd
000001a0: ee28 8cbd 25ce 973d 6232 c0bd 7cb4 babd
000001b0: d732 efbd 0df5 2cbd ecd9 f5bd 4ffb db3a
000001c0: 697c ceba 8860 9fbc 2b17 6abd 6016 fbbc
000001d0: 5fde 8cbc 0c91 363d efca 3d3c 1bb5 bdbd
000001e0: 8392 be3d cdee 83bd 6b99 7ebd 16ad 1bbd
000001f0: 796f aebd e2b9 2dbe 87c2 bbbc b5b8 9bbc
00000200: 6f9a 57be f3bb 09bd 8e9b 893c a0bc f4bd
00000210: 7219 763c ffbd 6c3d e3e5 47bd 3499 e3bd
00000220: c3b1 febc 3025 9a3d 7f4a c73c da2f 823d
00000230: 5e30 e23d 0384 4b3c 1e76 1a3e 382a 453d
00000240: d3de 2f3c ed96 e1ba 712d 99bd c657 363c
00000250: f1a6 01bc 81d6 dcbd 9450 5a3b b2bf c5bb
00000260: de6a 7c3d b1b4 8abd 9840 f8bc d5fb 6fbd
00000270: 6f13 afbd c626 c0bd 2361 be3c 956b 76bd
00000280: b327 2dbd 6eff 8a3d 489f 323d 4670 bf3a
00000290: 104a 6ebd 73e8 7f3b 75a8 f3bb c19c c3bc
000002a0: 8e0e 5b3b 1542 6b3c e3e7 583c 2219 ac3d
000002b0: c4f3 353d 37eb 9ebb 5166 b53d 5136 9c3d
000002c0: b66a e83d 1061 e33d 6c69 5b3d 8307 823d
000002d0: 6ab4 8ebb dc31 c23c 1cc9 a5b9 cc4e e5bd
000002e0: f543 98bd 4c4b 0c3d ae20 8ebd 869a b6bd
000002f0: 9974 f13c 8f0f 9bbd fabd 14bd c060 bebd
00000300: 17c8 bbbd 0407 45bd 3510 d9bc 5210 2ebe
00000310: 5334 1bbd 7bd9 a9bd c892 473d 3858 abbc
00000320: 616d be3d 33e4 433c edde 53bb 38da f33c
00000330: ad14 5c3d f5e6 b43d 55f1 a03c a51b 313e
00000340: dd8c ef3d 27cf 973d b51c f23d 7e62 0ebd
00000350: ce4e 03bd 844b e1ba ca63 cebc 5fac 2a3b
00000360: 2882 0dbd df38 19bd ee78 47bc 7e8f f23c
00000370: 82ce 613d 6fd9 a13d 4d49 6abc e76d 8a3b
00000380: 84b2 ca39 358f 21be 480a d3bd be50 e43b
00000390: 9f37 f7bd b0c3 93bd a09e e3bc 898d 00be
000003a0: cbc2 d9bd 67d7 c9bd 2553 5abe 04d9 d0bc
000003b0: 2074 67bd e9df 9abd 5603 c4bc 44bb 883c
000003c0: 0f12 c83d 0203 4a3d ac11 7cbc f1ab 06bd
000003d0: c327 a7bd 4e51 16bc 4b10 14bd 6496 be3d
000003e0: 8dcb 713d 4439 bbbc db2e 28bc 9d34 823d
000003f0: b891 b4bd 9383 b4bc 3042 1b3e febb 87bc

block5.1.weight f4 [16]
2.0462527 2.1661208 2.062042 2.0364 1.8834463 1.9459531 2.0942543 2.3912563
1.6897441 1.9805896 2.1475656 1.9959215 2.0020962 2.047192 1.8667778 1.8429364
00000000: cef5 0240 b9a1 0a40 7ff8 0340 6154 0240
00000010: c514 f13f fe14 f93f 4308 0640 580a 1940
00000020: 8949 d83f f683 fd3f b771 0940 5b7a ff3f
00000030: 5822 0040 3205 0340 93f2 ee3f 57e5 eb3f

block5.1.bias f4 [16]
0.6059232 0.6880966 0.69828016 0.7001797 0.73177105 0.61431634 0.48658845 0.95095205
0.5294455 0.6266049 0.7119701 0.6681079 0.5465629 0.6324754 0.6551551 0.5007905
00000000: c81d 1b3f 1927 303f 7dc2 323f fa3e 333f
00000010: 5955 3b3f d643 1d3f 1f22 f93e 9871 733f
00000020: be89 073f 2e69 203f ac43 363f 1f09 2b3f
00000030: 8ceb 0b3f e8e9 213f 3fb8 273f ce33 003f

block5.1.running_mean f4 [16]
0.43882677 -0.44389895 0.5403775 0.38514295 -0.061672248 0.8460386 -0.65909857 -0.86008525
-0.030182583 0.1398734 -0.045553245 0.4033244 -0.85554373 -0.5113149 0.62323797 0.6074452
00000000: e7ad e03e b946 e3be 2e56 0a3f 7531 c53e
00000010: 0a9c 7cbd fc95 583f afba 28bf 8c2e 5cbf
00000020: 7741 f7bc f93a 0f3e 0a96 3abd 8980 ce3e
00000030: ea04 5bbf 89e5 02bf 868c 1f3f 8781 1b3f

block5.1.running_var f4 [16]
0.7001977 0.7526754 0.66682243 0.695236 0.58566576 0.5509742 0.4991532 0.8791007
0.4151554 0.6501919 0.5606578 0.69909203 0.5488547 0.80787194 0.7076041 0.5828691
00000000: 2840 333f 56af 403f e0b4 2a3f fdfa 313f
00000010: 31ee 153f a50c 0d3f 0291 ff3e be0c 613f
00000020: 408f d43e fa72 263f 4587 0f3f b2f7 323f
00000030: be81 0c3f b2d0 4e3f 8b25 353f e936 153f
