savedmodel/WithL1_WithL2 with GhostBN classifier.pt (torch, 50566 bytes, 36 tensors)

block1.0.weight f4 [8, 1, 3, 3]
00000000: 6432 d7be 2156 693e e47f a43e df51 013f
00000010: 3283 9c3d 161d 33be 6a93 e23c d7a1 013d
00000020: 8908 8abe 109c c83d fe0d bf3e 824d da3e
00000030: eaaa 16bd 21e1 35be 7b50 31be 7895 9dbd
00000040: a635 aebe b9d4 a6be 60d3 5dbc b0e7 b63e
00000050: 2516 b83a 3c8f 91be fbc2 af3d a44d f73e
00000060: d06a 8cbe 97b8 b8be 19d4 fbbd a92a 5e3e
00000070: 1107 4dbd 490a 12ba 4950 d13e 3722 c9be
00000080: fd77 dcbe da6c cb3e 01e0 80be bf0e 553d
00000090: 8bcf 87be e611 cc3d 9b6a 80bb 9c76 22bf
000000a0: c971 393e d153 b03e 456c 77be aa43 f93e
000000b0: 345f 473d 8cf0 25ba 9fe7 03bf a07e 4c3e
000000c0: a570 973e 7119 0ebf 548f c7be 6273 e43e
000000d0: 7ab8 bf3e 301c 393e 5318 043e f6fd 26be
000000e0: 1f22 0b3f ac37 bc3d 962b 873d 5d41 9b3d
000000f0: e3a4 4dbe 0599 39be 73dc e83c a515 b2be
00000100: 171b d7be b5c0 ba3c 9d0e 4e3d 759b 04be
00000110: 9289 12be 1911 723d b140 893e 3a0a 183f
-0.42030632 0.22786762 0.32128823 0.5051555 0.07642211 -0.17491564 0.027658183 0.031648483
-0.26959637 0.097953916 0.37315363 0.4263726 -0.03678409 -0.17761661 -0.17315857 -0.076945245
-0.34025306 -0.3258417 -0.013539165 0.3572364 0.0014044686 -0.28429592 0.085821114 0.48301423
-0.2742524 -0.3607833 -0.12296314 0.21695961 -0.050055567 -0.00055709906 0.40881565 -0.39283916
-0.43060294 0.39731485 -0.251709 0.052016016 -0.2652553 0.09964351 -0.0039189584 -0.63462234
0.18109812 0.34438947 -0.24162395 0.48684436 0.048674777 -0.0006330095 -0.515253 0.19970179
0.29578128 -0.5550757 -0.38976538 0.4461928 0.37445432 0.18077159 0.12899904 -0.16307816
0.5434894 0.09190306 0.0660011 0.075808264 -0.2008243 -0.18124779 0.02842543 -0.34782138
-0.42012855 0.022796968 0.050306905 -0.12949927 -0.14310291 0.059098337 0.26807168 0.59390604

block1.1.weight f4 [8]
00000000: a7ab 633f e9e7 853f 2572 8b3f 783a 733f
00000010: 5154 873f 3276 8c3f a339 3b3f 65b9 803f
0.88933796 1.0461398 1.0894209 0.9501109 1.0572606 1.097357 0.7313482 1.0056578

block1.1.bias f4 [8]
00000000: f432 45bd f1a7 b73d a1ee 06be 81bf 4a3c
00000010: fac9 5dbc 9e97 abbd fe18 7b3d 5ea2 fcbd
-0.048144296 0.08967579 -0.13176967 0.01237476 -0.0135369245 -0.08378528 0.06130313 -0.123356566

block1.1.running_mean f4 [32]
00000000: b4df 0eb9 d8f6 ea38 acec 1ebc 3817 723c
00000010: 7e1d 17bc bdca ad3c c07f 5d3c 37e6 c23b
00000020: b4df 0eb9 d8f6 ea38 acec 1ebc 3817 723c
00000030: 7e1d 17bc bdca ad3c c07f 5d3c 37e6 c23b
00000040: b4df 0eb9 d8f6 ea38 acec 1ebc 3817 723c
00000050: 7e1d 17bc bdca ad3c c07f 5d3c 37e6 c23b
00000060: b4df 0eb9 d8f6 ea38 acec 1ebc 3817 723c
00000070: 7e1d 17bc bdca ad3c c07f 5d3c 37e6 c23b
-0.00013625511 0.00011203968 -0.009699982 0.014776044 -0.00922334 0.021214837 0.0135192275 0.005947854
-0.00013625511 0.00011203968 -0.009699982 0.014776044 -0.00922334 0.021214837 0.0135192275 0.005947854
-0.00013625511 0.00011203968 -0.009699982 0.014776044 -0.00922334 0.021214837 0.0135192275 0.005947854
-0.00013625511 0.00011203968 -0.009699982 0.014776044 -0.00922334 0.021214837 0.0135192275 0.005947854

block1.1.running_var f4 [32]
00000000: 4c27 963e a7a4 113f 2e12 b63e d66a f33e
00000010: 8433 243f 4dce f33e 018a 893e 0cfd 293f
00000020: 4c27 963e a7a4 113f 2e12 b63e d66a f33e
00000030: 8433 243f 4dce f33e 018a 893e 0cfd 293f
00000040: 4c27 963e a7a4 113f 2e12 b63e d66a f33e
00000050: 8433 243f 4dce f33e 018a 893e 0cfd 293f
00000060: 4c27 963e a7a4 113f 2e12 b63e d66a f33e
00000070: 8433 243f 4dce f33e 018a 893e 0cfd 293f
0.29326856 0.56891865 0.35560745 0.47542447 0.64141107 0.47618333 0.268631 0.66401744
0.29326856 0.56891865 0.35560745 0.47542447 0.64141107 0.47618333 0.268631 0.66401744
0.29326856 0.56891865 0.35560745 0.47542447 0.64141107 0.47618333 0.268631 0.66401744
0.29326856 0.56891865 0.35560745 0.47542447 0.64141107 0.47618333 0.268631 0.66401744

block2.0.weight f4 [8, 8, 3, 3]
00000000: 0cac 653c 20ad acbd 5705 413a 10fa dcbd
00000010: ec88 72bd 08a1 a23c 6201 06be a153 0f3e
00000020: 5eef 903d 7a02 f2bc a0f4 15be 943f 57bd
00000030: 238c 97bd b67b 33bd 1a91 89bb 968a 38bd
00000040: b935 a5bd 6978 b6bd 2858 123e 7a8b 523d
00000050: af96 d7bd 9bd8 a63d feca c7bd 2be5 20be
00000060: dd78 853d 2e3e a73d fd09 2fbe 319b 00bd
00000070: 4136 04bd 36e9 223e 412e a8bc 5a75 2ebd
00000080: 809a c53d 905a 95bd 7833 6a3d 808d 0d3e
00000090: 7d29 b53d 670a 513d d9b4 1b3e 0a54 8d3e
000000a0: 159b 963e b5a0 463e 62da 2c3e e002 2a3e
000000b0: cfc2 833e 26b7 72bd 2bad 49bb 3ef2 e13c
000000c0: a9a1 65be 1497 c7bd 7407 4cbd 4a13 5c3d
000000d0: de04 21be e133 6ebd 556c 363e 809d 073e
000000e0: aad8 01bc 4732 6dbd 5333 8d3c a58f d03d
000000f0: be32 1abd 006c 8c3d 1237 bbbd c03a 70be
00000100: 3562 313c a0ec 993c 6347 02bc adf4 b3bd
00000110: 7c9a b6bd 203e 783d cea9 4f3d ca39 23be
00000120: aa3c 9bbd dfce 0a3e 0055 c13d 7a54 f3bd
00000130: 57c7 393c 23c2 443c c4a0 763b 3a82 b4bd
00000140: 2b83 c0bd 4382 033e 9a79 b63c 7a4d 253e
00000150: 2aa3 9abd ad59 80bc a9e7 2a3d 0435 b23d
00000160: 00ac 7ebd 3fd8 c33c 066a 393e 5687 8f3e
00000170: 9cb6 e33d 8f2b 493d 82ef 56bd 187c 9abd
00000180: 9e2e 2c3e 27a5 f7bb c6ec d7bd 963d 9b3b
00000190: d2ed 6bbc 57d3 b03d 7e97 05be 3fd2 f0bd
000001a0: c275 96bc 739a 9cbc 2136 6cbe e231 4dbd
000001b0: e12b 8b3d 6600 8dbd 7eb6 9abd df3a f6bc
000001c0: 0398 b9bd a696 0fbd f97b cfbd 427b 263d
000001d0: 22b4 113e d8a7 60bd 465f b6bd cc07 aabd
000001e0: ec09 733c 7746 40bd 3733 d53c 3c83 69b9
000001f0: 29f4 95bc 361f 59bd 0c11 453d 29ec 903d
00000200: 5ec7 893a ae8b 8abd 627a b4bd f7cd 6dbe
00000210: a373 ccbd 27b9 6cbd 81e7 1cbe 2300 3cbd
00000220: 74be e4bd 9d7a b53c 2cf2 4dbc 32e8 e3bc
00000230: f71b 5f3d cfd1 c5bd 383d 163e 0636 053e
00000240: cd7f d4ba 8506 3bbd f570 5cbe 7de0 39be
00000250: d0dc 453d ac38 4e3e ed8f bc3c f4cf 47bc
00000260: ea4c 913d 0e05 413d d8f9 ba3d 042d 91bd
00000270: f474 d5bb 6549 903c 0965 14bc 1ea3 fe3d
00000280: ed7f 183d 5b5a 923a 1832 60bc 2246 403e
00000290: fbbf cb3d a02b 453d 48cc e4bc db45 f2bc
000002a0: 759d 293e 8a14 23bd db09 aa3d 42f7 8bbc
000002b0: 9292 4bbd 51bf 0fbe 8c27 5bbe 0fd9 50be
000002c0: 78e3 d5bd 9dc8 61bc 42b6 82bb 58ba 6dbd
000002d0: 3ae7 1bbe 4281 05bd bfb9 943e 6bd3 05be
000002e0: 19a3 41be 41f0 963b f9eb fdbd a052 a9be
000002f0: 658b 7bbd a2c0 223e 1f37 8d3e 7f89 023e
00000300: 3651 3c3e 8989 ebbd 3346 83be 5f6c 16be
00000310: 8fe0 84bd 679b 04bd a75d 46bc f1d2 fd3d
00000320: 849a edbd 7bba adbd 6433 2d3e 99ef 053e
00000330: 25f4 223e 4b28 993a 9fdd 003d fa8e 143e
00000340: a182 123d 9dca 9abc c093 e6ba e5eb 17be
00000350: fc38 d3bd 39f3 09be bdfc f23c bb37 0c3d
00000360: 98ee 4f3d 6fc6 6f3d 7fe3 9dbc b463 b1bd
00000370: 109a c73d c862 f43c a085 8cbd 1aca fb3c
00000380: 8563 803e 2549 1a3e d42f fcbb a6b8 0c3e
00000390: 8409 613e 47a9 8e3e def9 243e dd61 373c
000003a0: 41c2 e43d 2a59 b83e 940c 013e 9fd0 4d3e
000003b0: 9388 57bd 5cf7 a1bd 21c1 053e c114 573e
000003c0: d06a d73d 96a9 d6bd f8d8 e8bd c26b 7cba
000003d0: 7e07 ff3d 54d8 1dbd 9c6b a3bc 79be 00bd
000003e0: 431d 85bd 6247 8ebd 0524 dfbd 09dd 05bd
000003f0: 316c ef3b 722d 403a 788c cdbc a3e5 1bbd
0.01401807 -0.084314585 0.00073631614 -0.10789883 -0.05921261 0.019852176 -0.13086465 0.13996746
0.07076906 -0.029542197 -0.14644098 -0.052550867 -0.07399776 -0.04381915 -0.0041982057 -0.04505404
-0.080668874 -0.08909685 0.14291441 0.051402546 -0.105267875 0.08146783 -0.097555146 -0.1571242
0.065171935 0.08166157 -0.17093654 -0.031398002 -0.032278303 0.15909275 -0.020529868 -0.042592384
0.09648609 -0.07292664 0.05717799 0.13823509 0.08845804 0.05103531 0.15205707 0.2760318
0.29415193 0.19397242 0.16880181 0.16602659 0.25734565 -0.059256695 -0.0030773382 0.02758133
-0.2242495 -0.09745613 -0.049811795 0.053729333 -0.15724513 -0.058154944 0.17814763 0.13243675
-0.007925192 -0.057909276 0.017236387 0.10183648 -0.037646048 0.06856537 -0.09141363 -0.23459911
0.010826637 0.01878959 -0.00795159 -0.087869026 -0.08916184 0.060606122 0.050699048 -0.15940014
-0.0757993 0.13555478 0.094400406 -0.11881347 0.01133903 0.012009176 0.0037632445 -0.08813901
-0.09400018 0.1284266 0.022274781 0.16142836 -0.07550652 -0.01566776 0.041724835 0.08701518
-0.06217575 0.023906825 0.18106851 0.2803294 0.11118814 0.049113806 -0.052474506 -0.075432
0.16814658 -0.0075575295 -0.10543208 0.004737566 -0.0143999625 0.0863406 -0.13046071 -0.11758851
-0.018366698 -0.019116616 -0.23067524 -0.0500964 0.067954786 -0.068848416 -0.07554339 -0.030057369
-0.09062197 -0.03505578 -0.10131068 0.04064489 0.14228871 -0.05484757 -0.08904891 -0.083022684
0.0148339085 -0.0469422 0.026025398 -0.000222695 -0.018304901 -0.05300828 0.04811196 0.07076294
0.0010511687 -0.06764923 -0.08812405 -0.232231 -0.099829935 -0.057793763 -0.15322687 -0.045898568
-0.111691386 0.022153193 -0.012569945 -0.02782068 0.05447003 -0.096591584 0.1467179 0.1300889
-0.0016212404 -0.045660514 -0.21527465 -0.18152042 0.048306286 0.20138806 0.023017848 -0.012195576
0.07094748 0.04712396 0.09129685 -0.07088664 -0.006514186 0.017613122 -0.009057292 0.12433456
0.037231375 0.0011165844 -0.013683818 0.18776754 0.09948727 0.048137307 -0.02792944 -0.029574325
0.16563971 -0.03981451 0.08302661 -0.017085675 -0.049700327 -0.14037825 -0.21401805 -0.20395301
-0.10443777 -0.01378074 -0.003989012 -0.05803904 -0.15224925 -0.032593973 0.29047963 -0.13068931
-0.18909873 0.004606277 -0.12398524 -0.3307085 -0.061412234 0.15893796 0.27581117 0.12747763
0.18390355 -0.11500842 -0.25639495 -0.14689778 -0.06488144 -0.032374766 -0.012107289 0.123937495
-0.11601737 -0.08482834 0.16914135 0.1307968 0.15913446 0.0011684982 0.031461354 0.14507666
0.03576911 -0.018895442 -0.001759164 -0.1483608 -0.10313603 -0.13471688 0.02966153 0.034232836
0.05076465 0.05853885 -0.019273518 -0.08661595 0.09746182 0.029832259 -0.068614244 0.030736018
0.25075927 0.15066965 -0.0076961312 0.13742313 0.21976286 0.27863523 0.16110942 0.011192766
0.111698635 0.36005527 0.12602454 0.20099114 -0.05262048 -0.07908508 0.13061954 0.2100401
0.1051842 -0.10481565 -0.113695085 -0.0009629094 0.12452601 -0.038536385 -0.019948773 -0.03143165
-0.06499722 -0.06947209 -0.10895542 -0.0326815 0.0073065986 0.00073309906 -0.025091395 -0.038060796

block2.1.weight f4 [8]
00000000: 60cb 813f 6454 833f 9d15 823f 8dd5 663f
00000010: 3019 8a3f 2dbf 483f 48f8 803f 7ce0 893f
1.014019 1.0260129 1.0162846 0.901696 1.0788937 0.7841671 1.007577 1.0771632

block2.1.bias f4 [8]
00000000: 7315 553c 3b70 e2bd 4fc6 2abe 2a84 5c3d
00000010: 20b8 0cbc 2dee 3b3d f3f9 453d d63b 6c3c
0.013005602 -0.110565625 -0.16677211 0.05383698 -0.008588821 0.04588144 0.048334073 0.014418563

block2.1.running_mean f4 [32]
00000000: f91a 0f3d 89c3 2cbe 842c ffbd 4c14 4c3f
00000010: 4c40 743e 325f 18be 6d46 363e fcd9 a3bd
00000020: f91a 0f3d 89c3 2cbe 842c ffbd 4c14 4c3f
00000030: 4c40 743e 325f 18be 6d46 363e fcd9 a3bd
00000040: f91a 0f3d 89c3 2cbe 842c ffbd 4c14 4c3f
00000050: 4c40 743e 325f 18be 6d46 363e fcd9 a3bd
00000060: f91a 0f3d 89c3 2cbe 842c ffbd 4c14 4c3f
00000070: 4c40 743e 325f 18be 6d46 363e fcd9 a3bd
0.034937833 -0.16871466 -0.124596626 0.7971847 0.23852652 -0.14880064 0.17800303 -0.080005616
0.034937833 -0.16871466 -0.124596626 0.7971847 0.23852652 -0.14880064 0.17800303 -0.080005616
0.034937833 -0.16871466 -0.124596626 0.7971847 0.23852652 -0.14880064 0.17800303 -0.080005616
0.034937833 -0.16871466 -0.124596626 0.7971847 0.23852652 -0.14880064 0.17800303 -0.080005616

block2.1.running_var f4 [32]
00000000: ddaf 883f adef 2c3f 6036 593f 72ae 9d3f
00000010: d09a ab3f 5c17 003f 6ecf 543f 0c83 7e3f
00000020: ddaf 883f adef 2c3f 6036 593f 72ae 9d3f
00000030: d09a ab3f 5c17 003f 6ecf 543f 0c83 7e3f
00000040: ddaf 883f adef 2c3f 6036 593f 72ae 9d3f
00000050: d09a ab3f 5c17 003f 6ecf 543f 0c83 7e3f
00000060: ddaf 883f adef 2c3f 6036 593f 72ae 9d3f
00000070: d09a ab3f 5c17 003f 6ecf 543f 0c83 7e3f
1.0678669 0.67553216 0.84848595 1.2318861 1.340662 0.50035644 0.8312901 0.9941871
1.0678669 0.67553216 0.84848595 1.2318861 1.340662 0.50035644 0.8312901 0.9941871
1.0678669 0.67553216 0.84848595 1.2318861 1.340662 0.50035644 0.8312901 0.9941871
1.0678669 0.67553216 0.84848595 1.2318861 1.340662 0.50035644 0.8312901 0.9941871

block3.0.weight f4 [12, 8, 3, 3]
00000000: 6c03 4d3d 643c bd3d e4c0 08bd 9c9e 61be
00000010: c8de 27be 5a1d dcbd d6be 243d 00f3 853d
00000020: 5aa8 53bd 924f 15bd f2e3 ea3d ef79 5a3e
00000030: 38f2 9e3d 1c90 853d 5e3d 143e ccd2 7b3e
00000040: 7fbd e23d 8b6f e63b e7a2 183d bb3d 013e
00000050: c4ce 0fbd ed1c 2a3e e4f6 003e 4372 5abd
00000060: 7c7e 323e 59d4 a03a 144e 27be 2f24 64bd
00000070: abac 343e 2cd5 323e 6c2a b73d f81b 323e
00000080: bb4c 46bc 929f 9d3e 6b2a 0d3e 6648 86bd
00000090: f691 82bd b0d2 823d 082a bdbc 2bc8 45be
000000a0: 8ac6 b43d b622 243c cba5 e4bc f527 debc
000000b0: e6ac fa3c ef87 7d3e 6e2c 7e3e afe0 f53d
000000c0: ac6a 27bd d74f 51bd 2270 013d c70b b5bd
000000d0: b96b 02be ec90 b3bc 69a5 823d 9079 563e
000000e0: a8de fabb 0193 7dbd 386a 3abb 0968 05be
000000f0: bd1f 31be ca4f 49be 56d8 fbbd fa6a df3c
00000100: 89f5 4c3c 67f7 efbd e73c d53e 535f 4cbb
00000110: 8f1c 4cbe b0a4 423e 591a 013c 7168 37be
00000120: dfee 173d 8136 8b3d f2ce 493d ed06 6a3b
00000130: 1ac8 163d 184e 1c3d 6f52 7fbd 59bb 883d
00000140: 817d c3bd 61ac 723d 510f 62bd ce66 a73d
00000150: 9298 6a3d 9fb4 653d e647 ab3d 6abc 48bc
00000160: 69a3 68bc 7c1d 4ebe 664c ddbd 1ab1 c5bd
00000170: d6fd f8bd 4b5f 65bd 7fd3 03be 3a52 1f3d
00000180: 9a88 49be 1588 24be db27 973d bdf6 c93c
00000190: 6235 08be 0a25 99bd 55f4 ad3d ca95 babd
000001a0: d2f7 fcbc aad9 e9bd 8d6b 28be 4df2 243c
000001b0: f1f9 2cbe 794d e9bd a7d3 8c3e c1b6 81bd
000001c0: 175e 2d3e b1d7 f33d df1c 38be 7142 35bd
000001d0: 4262 883c 6dc8 69bc 5d3d 07be c2a7 36bd
000001e0: 9902 dbbc bc21 ff3c fb88 a83d 3b87 82bd
000001f0: ab7d f73d 8be0 ae3d bf95 8d3d 648f e13c
00000200: 024d d3bd 6705 063d 140a 8f3c c509 ed3d
00000210: a5c3 0e3d ac9f 533d 4206 c9bc 0a17 103e
00000220: 9651 513b 924a 2ebe 756c da3d 7cae a1bd
00000230: f789 44be 1693 4dbe 06fe 12be 07ad b5bd
00000240: b9c6 663e b4ce 963a e6a4 d2bd abd1 2bbd
00000250: 3fcd 7cbd b6ed 17be 1161 c5bd 6bc3 fdbc
00000260: 47f0 5dbe 686c 05be 2324 e9bd b494 1a3d
00000270: e53d d6bd e832 823d a0ee 9fbd 0e6d 01be
00000280: 8bb1 763d 07b9 91bc c75b 4dbd 6a71 abbc
00000290: 8a1a bdbd 674f 793d 354e 96bd 7f8a c93d
000002a0: f584 203d 3890 21bb b1cc f33d 6f2a 00be
000002b0: e0d9 50bd 96d5 383e 4713 91bd 3c33 fbbd
000002c0: 9bbc 3abd b915 3ebd f6c8 fd3c 21e3 ea3c
000002d0: b70b bcbd dca7 a9bd b9a0 4f3d e313 b7be
000002e0: deca 64bd 84d2 1abd fc76 083d 0000 20bc
000002f0: f1ee 6b3d 4775 503e 80a1 173e 2236 8fbd
00000300: 8a69 383e 04cb 3abd 9153 85be 9e84 1abe
00000310: 5fe3 36be 0e3a 51be fe42 123d 4550 ad3d
00000320: ab27 963e c5e5 333e d89e 133e eea3 f6bd
00000330: aea9 07bd c642 033e 1c0c 8e3b 1b75 efbc
00000340: 2b3a 7f3d 6048 dbbc 6b56 12be 546f c73d
00000350: f016 603d cded 2f3d 82d8 3c3e 87e8 1c3d
00000360: e99c 41be 75c7 33be 422d 23be da45 f33d
00000370: df47 07bd 2946 dd3d 802a 803e 02b8 753d
00000380: c2c5 0c3e 8f42 9bbc 3697 c5bd 5eed 28bc
00000390: 5cef f63d 3c0d c6bd db23 cdbd 6891 553e
000003a0: bbfd d73d 4bdf 2c3c 27d7 193e cb80 593e
000003b0: 3038 4d3e cbfc 223b 176e 19bc bd58 5e3d
000003c0: bf66 abbe 0f8f 07be ccc2 7cbc 8a6e 263e
000003d0: 267e 243c 3433 163d 1717 823e b970 5e3c
000003e0: b1b8 9e3c 55dd 60bc c99d 433d 6452 c43d
000003f0: db91 80bd cc41 33be 7012 d7bd 52b5 ec3c
0.05005209 0.09240034 -0.03338708 -0.22033161 -0.16393578 -0.10747786 0.040221058 0.06540489
-0.051674224 -0.036452837 0.11469258 0.21335576 0.07761043 0.06521627 0.14476535 0.24592131
0.110713 0.00703234 0.03726473 0.12621205 -0.035109296 0.16612597 0.12594181 -0.053331625
0.17431062 0.0012270316 -0.16338378 -0.05569857 0.17643993 0.17464131 0.08943638 0.17393482
-0.012103255 0.30785805 0.13785712 -0.06556778 -0.06375496 0.06387842 -0.023091331 -0.1931464
0.08826931 0.010018041 -0.027911087 -0.027118662 0.030600023 0.24758886 0.24821636 0.120057456
-0.040873215 -0.05110153 0.03160108 -0.08840137 -0.12736405 -0.02191969 0.06379206 0.2094481
-0.007655937 -0.061907772 -0.002844466 -0.13027968 -0.17297263 -0.19659343 -0.12297122 0.02727269
0.012509712 -0.1171711 0.41648027 -0.0031184747 -0.19932769 0.19008136 0.007879817 -0.17910935
0.03709304 0.06797505 0.049269624 0.0035709694 0.036811925 0.038160414 -0.062334474 0.06676359
-0.09545422 0.059246425 -0.055190388 0.08173905 0.05727441 0.056080457 0.08363323 -0.012251953
-0.014199116 -0.20128435 -0.108055875 -0.0965292 -0.1215779 -0.05599908 -0.12873648 0.038896777
-0.19681016 -0.16067536 0.07380649 0.024653787 -0.13301614 -0.07477768 0.08493868 -0.09110601
-0.030879889 -0.11418469 -0.16447277 0.010067535 -0.1689222 -0.1139173 0.27505228 -0.06333686
0.16930424 0.11906374 -0.17979763 -0.044252817 0.016648415 -0.014268977 -0.13207002 -0.04459358
-0.026734637 0.031144015 0.08229252 -0.063734494 0.12084516 0.08538922 0.069133274 0.027534194
-0.103174224 0.032719996 0.01746086 0.11574129 0.03485455 0.051665947 -0.024539117 0.14071289
0.0031939498 -0.17020634 0.10665218 -0.078946084 -0.19193254 -0.2007564 -0.14354715 -0.08870893
0.22536744 0.0011505694 -0.10285358 -0.041948 -0.061719175 -0.14836773 -0.096376546 -0.030976972
-0.2167369 -0.13029635 -0.11383846 0.03773947 -0.10461024 0.06357366 -0.07809186 -0.12639257
0.060227912 -0.017788423 -0.050136354 -0.020928103 -0.092335775 0.06086674 -0.073391356 0.09840869
0.039189298 -0.0024652611 0.11904276 -0.12516187 -0.05098903 0.18050227 -0.07083755 -0.122656316
-0.045590024 -0.046407435 0.030979615 0.028672757 -0.09181922 -0.0828397 0.050690386 -0.3575736
-0.05585753 -0.03779842 0.033316597 -0.009765625 0.05760092 0.20357238 0.14807701 -0.06992747
0.1800901 -0.045603767 -0.2604032 -0.15089652 -0.17860173 -0.20432302 0.03570842 0.08462576
0.2932714 0.17568119 0.14416063 -0.12042986 -0.033120804 0.12818441 0.0043349396 -0.029230645
0.062311333 -0.02676791 -0.14290778 0.09738031 0.054709375 0.042951394 0.18441966 0.038307693
-0.18907513 -0.17556556 -0.15935233 0.118785575 -0.033027526 0.108043976 0.25032425 0.059989937
0.13747314 -0.018952636 -0.09647982 -0.010310499 0.12057373 -0.09670493 -0.100166045 0.2085625
0.10546442 0.010551284 0.1502348 0.21240537 0.20040965 0.0024869915 -0.009364626 0.054283846
-0.33476827 -0.13238166 -0.015427303 0.16253105 0.010039842 0.036669925 0.2540824 0.01357668
0.019375177 -0.013724645 0.047757898 0.09586027 -0.0627782 -0.17505568 -0.105015635 0.028895054

block3.1.weight f4 [12]
00000000: 923b 423f 057e 863f a072 763f 332a 703f
00000010: c7af 7b3f a43e 813f fa2e 873f 341e 963f
00000020: c63a 9f3f 7b3f 4c3f 01c5 703f a679 683f
0.7587215 1.0507208 0.96268654 0.9381439 0.9831509 1.0097241 1.0561211 1.1727967
1.2439811 0.79784364 0.94050604 0.9081062

block3.1.bias f4 [12]
00000000: c220 013e 99c4 8ebd 548d 943d 803f 0bbd
00000010: 8e34 4ebe b8a0 453c 72f7 2cbd eb05 fc3c
00000020: f0a4 8a3b 97ea a53d 912e d2bd 348e e3bc
0.12610152 -0.06971092 0.07253519 -0.033996105 -0.20137236 0.012062244 -0.04222817 0.03076454
0.004231088 0.08101385 -0.10262788 -0.027777769

block3.1.running_mean f4 [48]
00000000: 4118 5e3f 82a9 3ebf 9697 fabe 0a79 0c3f
00000010: 2285 233e 2c77 57bf 2c4b 80bf e051 9cbf
00000020: a7bd 9cbf fe6f e23e d857 28bf 4eb5 333e
00000030: 4118 5e3f 82a9 3ebf 9697 fabe 0a79 0c3f
00000040: 2285 233e 2c77 57bf 2c4b 80bf e051 9cbf
00000050: a7bd 9cbf fe6f e23e d857 28bf 4eb5 333e
00000060: 4118 5e3f 82a9 3ebf 9697 fabe 0a79 0c3f
00000070: 2285 233e 2c77 57bf 2c4b 80bf e051 9cbf
00000080: a7bd 9cbf fe6f e23e d857 28bf 4eb5 333e
00000090: 4118 5e3f 82a9 3ebf 9697 fabe 0a79 0c3f
000000a0: 2285 233e 2c77 57bf 2c4b 80bf e051 9cbf
000000b0: a7bd 9cbf fe6f e23e d857 28bf 4eb5 333e
0.8675576 -0.744774 -0.48943776 0.5487219 0.15968755 -0.84166217 -1.0022941 -1.2212486
-1.2245377 0.44226068 -0.6575904 0.17549631 0.8675576 -0.744774 -0.48943776 0.5487219
0.15968755 -0.84166217 -1.0022941 -1.2212486 -1.2245377 0.44226068 -0.6575904 0.17549631
0.8675576 -0.744774 -0.48943776 0.5487219 0.15968755 -0.84166217 -1.0022941 -1.2212486
-1.2245377 0.44226068 -0.6575904 0.17549631 0.8675576 -0.744774 -0.48943776 0.5487219
0.15968755 -0.84166217 -1.0022941 -1.2212486 -1.2245377 0.44226068 -0.6575904 0.17549631

block3.1.running_var f4 [48]
00000000: af9e 3840 6e99 dc3f 758b 4e40 b7d2 9540
00000010: fe4f 5740 2559 d53f 6350 db3f 8a57 5640
00000020: 5a4c 1a40 cbce 2940 f493 1440 2068 6f40
00000030: af9e 3840 6e99 dc3f 758b 4e40 b7d2 9540
00000040: fe4f 5740 2559 d53f 6350 db3f 8a57 5640
00000050: 5a4c 1a40 cbce 2940 f493 1440 2068 6f40
00000060: af9e 3840 6e99 dc3f 758b 4e40 b7d2 9540
00000070: fe4f 5740 2559 d53f 6350 db3f 8a57 5640
00000080: 5a4c 1a40 cbce 2940 f493 1440 2068 6f40
00000090: af9e 3840 6e99 dc3f 758b 4e40 b7d2 9540
000000a0: fe4f 5740 2559 d53f 6350 db3f 8a57 5640
000000b0: 5a4c 1a40 cbce 2940 f493 1440 2068 6f40
2.8846853 1.7234323 3.2272618 4.681972 3.3642573 1.666783 1.7133907 3.349093
2.4109101 2.6532466 2.3215303 3.7407303 2.8846853 1.7234323 3.2272618 4.681972
3.3642573 1.666783 1.7133907 3.349093 2.4109101 2.6532466 2.3215303 3.7407303
2.8846853 1.7234323 3.2272618 4.681972 3.3642573 1.666783 1.7133907 3.349093
2.4109101 2.6532466 2.3215303 3.7407303 2.8846853 1.7234323 3.2272618 4.681972
3.3642573 1.666783 1.7133907 3.349093 2.4109101 2.6532466 2.3215303 3.7407303

block3.3.weight f4 [12, 12, 3, 3]
00000000: 4b9a 5bbc 115b 383e 24c3 b93d fd35 093e
00000010: 3422 e4bb 430e a53d 358b 283e 9cbc a2bc
00000020: 75e8 61be e508 c6bd a384 d2bd 2d13 3bbd
00000030: 2eec d3bd af82 16bc 8d88 703d 6009 bfbd
00000040: 4e01 e8bd dd8d 3fbd dc7a 913d 433f 81bd
00000050: 7452 103d e8d8 b13d 8030 ebbc 5bf2 bfbc
00000060: a7f6 49bd 9b7b 9e3b 130d 20bd fcf2 f3bd
00000070: 8da4 c8bd cb59 bfbd 9e91 203d ab10 ac3c
00000080: 277b 67bd 3c9b 883e 04c0 5f3d 301d 023c
00000090: cef5 43be 940e 0abc 7e86 1abe a0f8 c0bd
000000a0: bb3a 02be c39e 413d 6c1e e4bd 2535 283d
000000b0: eea5 333d 48f1 603d e287 c53d 1aab 063e
000000c0: 8e10 5ebd b18e f43c 3ede 4d3c b8d3 12bd
000000d0: e993 863b ebfe 923d f72d e6bd 57ef 333d
000000e0: e45a a73c 846a 433c fb56 4dbd e55b ed3c
000000f0: 4d1f 85bc 4d9e 3b3d 49e2 c63d 36d9 dbbd
00000100: 222d cbbd 818b 65be cd71 24bd 7c61 5c3d
00000110: b50f 263e bf8a fc3d 283c d13d b453 483e
00000120: c1d2 10be 4785 aa3a 5632 a93b 3515 c0bb
00000130: 01b8 a43c bb61 793e 62db 8cbb 8e51 903c
00000140: bde2 1d3e a33a d23b 9423 21be 39a3 1cbe
00000150: bdd9 cbbb cff8 30bd f5f4 8dbd 9f92 2d3e
00000160: c295 ed3d effc d83b d43a b5bc 5222 013e
00000170: 0442 a03d 93d3 3b3d 7234 c83d b30d 03be
00000180: 78ed 79bc 0dc1 18be 38c4 43be 5798 0d3e
00000190: 49d1 903c 9234 89bd 6a20 7bbe 78d9 7fbe
000001a0: 4ba4 5abd 9bdd 14be 2f14 763b 71d4 9d3d
000001b0: f097 5a3d e513 4cb9 7781 34be 2611 073d
000001c0: 8a55 05be 8588 8fbe e45b 2fbe b69a 28be
000001d0: 4eff 36be 7314 95bd 0188 04be 3b51 9abd
000001e0: 531c 09bc d0d2 bdbd 54c4 d6bc 92dc 4c3d
000001f0: a72c 183e c730 323c 9795 6f3d c605 1fbe
00000200: a887 413e 831f 1e3d 6490 bbbd 990c c63d
00000210: 2c94 53be c72c a8bb c3d9 ffbb c47e b4bd
00000220: d6e8 7abd 1ef9 293d 6451 143d 4dbd cf3d
00000230: f866 283e 216d a93e ffc7 453b e35d 92bc
00000240: 7869 763d 5b6f 6e3b 3b57 f93d 47d1 dd3d
00000250: 3956 48bb 6fc4 f23d 11a5 823d 256f d1bc
00000260: 6d80 f83c c137 d8bb d5d3 88bd a370 32be
00000270: ed12 db3c 6f87 11bd 8fbf 30be 82b0 1abd
00000280: abf3 87bd 9c34 18bd 47eb 1a3c 027b a13b
00000290: 7404 b7bd 7d90 3dbc d109 c43c 4f4d 1dbe
000002a0: d818 313e 30a9 423d c598 0bbe 7b96 60bd
000002b0: 1e23 5fbd ba28 01be 1679 63bd c81a a63b
000002c0: ffb0 10bd 09d5 853d e084 b13d bca5 eebb
000002d0: d1f8 d13d d4eb 42bd d602 89be 158a 2d3e
000002e0: 74d9 cabd 06ad 3abe 014c fd3d 115a cebd
000002f0: 20e4 37be e707 3f3c 7a36 5cbd f8c3 59bc
00000300: b2ac eb3d 5bf4 74bd 79e5 cfbd 8254 b8bd
00000310: 0fbb 38be d960 ccbd 8d05 6bbb c21d 203c
00000320: aaaf 063d 0af2 debb 9115 69bd 7fca 523d
00000330: 1332 c73d 6c78 323e edbc 7e3e 8d33 d9bd
00000340: d945 8ebc ff05 d0bd 81a7 9abd 5cf9 433d
00000350: c8e0 74bc 8f06 123e 2a0d 093d 7d8a ffbd
00000360: ec5b cebc a795 a2bd ebd9 09be 4493 08be
00000370: 4292 d2bc 41bf 42bd 4810 cdbb 2c7c 1ebe
00000380: cc85 a93c 27ce 253c 939e bf3d 4373 c13c
00000390: 7484 223d 51c6 43bd da27 dd3b 39fd 4fbb
000003a0: 5267 a73d 0a9c 6dbc 141c cfbd 860a 8cbd
000003b0: 1164 453d 88ad a8bd 0d62 babd 1831 36bd
000003c0: e1e1 42be 39af 88bb 9e26 b2bd c606 b4bc
000003d0: 5715 02bb 583b 28bd 63d6 c1bc cbee e1bc
000003e0: 0e11 35bc 766d 323a 5e7f 9dbc 19ca a2bd
000003f0: f6ff cd3b fc4d 3fbd 1cf1 36be d14f 58bc
-0.0134034855 0.18003489 0.09070423 0.13399501 -0.006962085 0.08059361 0.16459353 -0.019865327
-0.22061332 -0.09669665 -0.10279205 -0.045672584 -0.10347782 -0.009186431 0.058723975 -0.0932796
-0.11328374 -0.04676615 0.07103512 -0.06310894 0.035234883 0.0868395 -0.02870965 -0.023430994
-0.04930749 0.0048365123 -0.03907497 -0.1191158 -0.097970106 -0.093432985 0.03920137 0.021004042
-0.05651393 0.26680934 0.05462648 0.007941529 -0.19136736 -0.008426327 -0.15090367 -0.094224215
-0.12717716 0.047270548 -0.11138615 0.041066308 0.043859415 0.054917604 0.09645058 0.13151208
-0.054215007 0.029853197 0.012565194 -0.035846442 0.0041069877 0.07177528 -0.11239236 0.043929424
0.020429082 0.011927251 -0.05013178 0.028974483 -0.016250277 0.045805264 0.09711129 -0.10734789
-0.09920718 -0.22416498 -0.04014759 0.053803906 0.1621693 0.12331151 0.10216552 0.1956318
-0.14142896 0.001300969 0.005163471 -0.005861903 0.020107271 0.24353687 -0.0042986134 0.017617013
0.15418525 0.0064156814 -0.15736228 -0.1529664 -0.006221025 -0.043206032 -0.069314875 0.16950463
0.1160083 0.006621949 -0.022122778 0.12610748 0.078250915 0.04585607 0.09775628 -0.12798195
-0.015254371 -0.14917393 -0.1911782 0.13827644 0.01767792 -0.0669948 -0.24524084 -0.24985301
-0.05337934 -0.14537661 0.0037548651 0.077065356 0.053367555 -0.00019462367 -0.17627512 0.03297534
-0.13020912 -0.28033844 -0.17124897 -0.16465268 -0.17870829 -0.07279291 -0.12942506 -0.07535025
-0.008368569 -0.09268725 -0.026216663 0.05001504 0.14860784 0.010875887 0.05849227 -0.15529546
0.18899405 0.03860427 -0.091584 0.096703716 -0.20661992 -0.005132291 -0.0078079416 -0.08813241
-0.061257206 0.041497342 0.036210433 0.10143528 0.1644553 0.3309107 0.0030179021 -0.017867034
0.060159177 0.003638229 0.12174841 0.10830932 -0.003056897 0.11853873 0.0637914 -0.025565693
0.030334676 -0.0065984433 -0.06681029 -0.1742578 0.026742423 -0.03552955 -0.17260574 -0.037765987
-0.06638273 -0.037159547 0.009455509 0.0049279938 -0.08936396 -0.011570093 0.023930462 -0.15361522
0.17294633 0.04752463 -0.13632496 -0.05483101 -0.05447685 -0.12613192 -0.0555354 0.0050691105
-0.035325047 0.06534774 0.08667922 -0.0072829407 0.10252536 -0.047588184 -0.26759976 0.16947205
-0.09904757 -0.18230066 0.12368012 -0.100757726 -0.17958117 0.011659599 -0.05376289 -0.0132913515
0.115075484 -0.059803348 -0.1015119 -0.090004936 -0.18040107 -0.0997941 -0.0035861463 0.00977272
0.03288237 -0.0068037556 -0.056905333 0.051462647 0.09726348 0.1742875 0.24876757 -0.10605536
-0.01736729 -0.10157394 -0.0755148 0.04784523 -0.01494617 0.14260314 0.03345982 -0.124775864
-0.025190316 -0.079387 -0.13462035 -0.13337427 -0.025704507 -0.047545675 -0.0062580444 -0.15477055
0.020693682 0.010119951 0.093564175 0.023614531 0.0396771 -0.04779655 0.0067491354 -0.0031736626
0.08174004 -0.014502535 -0.10112777 -0.06837945 0.048191134 -0.082362235 -0.09100733 -0.044480413
-0.19031478 -0.004171279 -0.08698772 -0.021975886 -0.0019849145 -0.04107222 -0.023661798 -0.027579686
-0.011051429 0.0006806472 -0.019225772 -0.07948703 0.0062866164 -0.04670523 -0.17865413 -0.013202623

block3.4.weight f4 [12]
00000000: 7b58 813f c2aa 753f cdff 873f 41f2 903f
00000010: 3510 7c3f 8f7d 553f 3236 813f d423 7c3f
00000020: abf4 723f 413f 6e3f cd2c 8b3f 8b73 753f
1.0105127 0.9596368 1.0624939 1.132393 0.9846223 0.8339471 1.0094664 0.9849217
0.94904584 0.9306527 1.0873047 0.9587943

block3.4.bias f4 [12]
00000000: 0381 2c3c 668b 5a3a bda3 ff3b 7161 bb3c
00000010: 77f1 20bc bbea 02be bcb2 e3bc a769 07bd
00000020: f105 593c 9d38 803d 8d54 7e3d d669 07bd
0.010528806 0.0008336812 0.0078015015 0.022873612 -0.009823195 -0.12784855 -0.027795188 -0.033059742
0.013246045 0.06260798 0.062092353 -0.033059917

block3.4.running_mean f4 [48]
00000000: e82e 64be eab2 56bf b011 f4be ec0c a2be
00000010: a85f 32bf 241d 69be 735d 8dbd c206 f6be
00000020: ea1e 28bf dc22 78be 35bf 61bf 5aa6 22be
00000030: e82e 64be eab2 56bf b011 f4be ec0c a2be
00000040: a85f 32bf 241d 69be 735d 8dbd c206 f6be
00000050: ea1e 28bf dc22 78be 35bf 61bf 5aa6 22be
00000060: e82e 64be eab2 56bf b011 f4be ec0c a2be
00000070: a85f 32bf 241d 69be 735d 8dbd c206 f6be
00000080: ea1e 28bf dc22 78be 35bf 61bf 5aa6 22be
00000090: e82e 64be eab2 56bf b011 f4be ec0c a2be
000000a0: a85f 32bf 241d 69be 735d 8dbd c206 f6be
000000b0: ea1e 28bf dc22 78be 35bf 61bf 5aa6 22be
-0.22283518 -0.8386675 -0.47669744 -0.31650484 -0.6967721 -0.22765023 -0.0690259 -0.4805203
-0.6567217 -0.24232048 -0.88182384 -0.1588377 -0.22283518 -0.8386675 -0.47669744 -0.31650484
-0.6967721 -0.22765023 -0.0690259 -0.4805203 -0.6567217 -0.24232048 -0.88182384 -0.1588377
-0.22283518 -0.8386675 -0.47669744 -0.31650484 -0.6967721 -0.22765023 -0.0690259 -0.4805203
-0.6567217 -0.24232048 -0.88182384 -0.1588377 -0.22283518 -0.8386675 -0.47669744 -0.31650484
-0.6967721 -0.22765023 -0.0690259 -0.4805203 -0.6567217 -0.24232048 -0.88182384 -0.1588377

block3.4.running_var f4 [48]
00000000: 1200 853f f78e 463f 4afb 193f b43b c03f
00000010: 6e3d 723f e802 123f 511c 663f 29fa 113f
00000020: 7cba 513f 3222 b13f 8467 293f 9cf6 203f
00000030: 1200 853f f78e 463f 4afb 193f b43b c03f
00000040: 6e3d 723f e802 123f 511c 663f 29fa 113f
00000050: 7cba 513f 3222 b13f 8467 293f 9cf6 203f
00000060: 1200 853f f78e 463f 4afb 193f b43b c03f
00000070: 6e3d 723f e802 123f 511c 663f 29fa 113f
00000080: 7cba 513f 3222 b13f 8467 293f 9cf6 203f
00000090: 1200 853f f78e 463f 4afb 193f b43b c03f
000000a0: 6e3d 723f e802 123f 511c 663f 29fa 113f
000000b0: 7cba 513f 3222 b13f 8467 293f 9cf6 203f
1.0390646 0.775619 0.6014906 1.501822 0.94624984 0.57035685 0.8988696 0.5702234
0.8192518 1.383856 0.6617358 0.62876296 1.0390646 0.775619 0.6014906 1.501822
0.94624984 0.57035685 0.8988696 0.5702234 0.8192518 1.383856 0.6617358 0.62876296
1.0390646 0.775619 0.6014906 1.501822 0.94624984 0.57035685 0.8988696 0.5702234
0.8192518 1.383856 0.6617358 0.62876296 1.0390646 0.775619 0.6014906 1.501822
0.94624984 0.57035685 0.8988696 0.5702234 0.8192518 1.383856 0.6617358 0.62876296

block4.0.weight f4 [12, 12, 3, 3]
00000000: 9e13 45be e95c f3bd 9728 19be f739 ffbd
00000010: 94d3 c5bd de63 c83d 8ee3 063d 152c 153e
00000020: cf0c b23d b13d a7bd 23a0 0b3d b715 053d
00000030: e5c4 0fbd cee5 6abd d7a1 f7bd a18c a13d
00000040: fe7f e43d 5849 f3bc 9fda 973d c155 1b3e
00000050: 58b1 c53d d005 0fb8 f156 30bd 785a a1bd
00000060: ac87 8bbc 73c9 10bd 6242 24bd c9eb 003d
00000070: 5156 f23d a92c bd3e 37d5 63bd 2a11 00bd
00000080: a66e 1f3d 9100 00bd e8f5 10be 2181 6dbe
00000090: 7c27 25be b021 72bd abef e93d 4b3b e2bd
000000a0: 804b 9b3d 5343 203e 5bca 263d 52e3 bb3d
000000b0: 123d 7d3e 36d6 053e abd4 5a3d 8a6d 003c
000000c0: 9e5c 2cbc 796f 0dbd 2e64 dfbd 8fdf b63b
000000d0: d1cf fe3c 447e b13d c4f0 7bbc 7d3c 2a3d
000000e0: 41b0 5e3d 3105 bf3d 082b ff3d 81a2 443e
000000f0: e0c5 463d dcda 0d3e 0001 3d3e 01ef b33d
00000100: 5e9a 2d3d 3bb6 143e df33 5bbc 59a8 2b3d
00000110: 908c 7abd 48ae 3b3d 74ad 7e3c ef2c 46be
00000120: 1349 cb3d 6e3c f83c 4348 a4be a028 4c3e
00000130: 0131 af3b 6e59 40be 89d8 903d 02e6 b0bd
00000140: 2e13 88bd 849e 70bd 42a3 b9bd eed7 933d
00000150: d5c2 44bd f1d6 b13d d2e0 38ba a186 063d
00000160: 417b 123e 67ab 633e 81a2 b6bd a6e1 2bbd
00000170: eb15 66bc 653d 603d a709 4abd 7232 993c
00000180: 6635 dc3d b334 1ebd 9b83 7abd d6fd 1cbd
00000190: b2e1 ca3d 4b25 83bc 6b97 c1bc f874 6c3d
000001a0: 0373 e23b 6be8 323d f3ba 013c cd16 3d3e
000001b0: 5b71 3b3d 91cb 2b3d 6a8d 84be 3c41 ad3d
000001c0: 9888 edbc 34ca 62be e9b9 383e 6da3 cc3d
000001d0: 4e48 15ba d50f 7fbd 07d3 72b9 d387 c03c
000001e0: 0e93 62bc c732 e93c b844 863d 4dfd 45be
000001f0: b309 a2be 7caf 72be 6ee6 0e3e 2069 ad3d
00000200: f722 4f3b b52e ce3d e3bf bb3b 6688 16bd
00000210: 633f 663d 3331 88bd 7e6b a3bd 7d8c bcbc
00000220: 8156 9c3d efb6 1c3e d155 0abe b538 efbd
00000230: 6457 a1bc 4a2b 893c 7659 17be 925f 4abd
00000240: c90a a13d d317 09be ebac 4bbd d80b 15be
00000250: de39 a73d 0e41 d63d 8002 583d f72f 3c3e
00000260: a94f cd3e 3ef5 183d 204a ab3d c382 b2bb
00000270: 7515 28bd 4e89 45bb 2ceb dc3d 8234 543d
00000280: 7f75 b03d 5bf0 523e aefa 0cbe b2eb 5fbc
00000290: a1d7 fa3d 9db6 9e3d c07b 8abd 9f1f 43bd
000002a0: fc07 29be 3280 27be 7cb3 e2bd 577c 66bd
000002b0: e3f9 a8bd 0305 b33c 502d bebb 19f4 893c
000002c0: 7ca1 483a b8b3 61be e50d 1dbe cde6 833d
000002d0: 6286 7d3c 3934 a0bc abba a53c 4f6b 41bc
000002e0: eb57 423d 29ba 84bd 227f be3d 8a83 c23c
000002f0: ffe7 0cbd 9f5e 0ebe 238b 0dbe 8be3 e3bc
00000300: 0ed5 4b3e 210b 4e3d abce 783e 388d 153d
00000310: 08cd 133e 3c77 693e bdb4 e03c cc52 24bc
00000320: d291 53bc 6d86 0d3d f322 a7bb 3290 ef3c
00000330: 64e6 3bbd 3957 dabc cd73 a6bd 036b b53d
00000340: 592e a9bd 4115 32be f783 c5bd 70bd 5c3d
00000350: 86b3 963c aabd eebd 5333 a33d 7815 983d
00000360: c313 dbbc 49f2 cbbd 9798 d6bc 08bd 3abc
00000370: c3ed 2c3c 3413 40be f597 cbbc dd67 bdbd
00000380: 3b04 85bd 449d 243e f0ee 1d3d e42e e73d
00000390: a038 103e 4197 5b3d 4de8 dabc 42fb c93c
000003a0: f59f c1bd 93a7 8fbd 9317 4a3d 1a3a d73c
000003b0: 3052 65bc a3c4 023e f3e5 2f3d 01f0 76bc
000003c0: 98fb 0d3d 00d1 fa3d b93a 06bd 175f 92bd
000003d0: f247 14be 2bd2 8ebe 133d 663c 5d28 1fbe
000003e0: 4b24 36bd 4916 babb ea98 893d 46a1 8d3d
000003f0: 3cdd 993c a7e5 093e c294 4e3e a84a 55bc
-0.19245765 -0.118829556 -0.1495689 -0.12462228 -0.09659496 0.09784673 0.032931857 0.14567597
0.08693849 -0.081660636 0.034088265 0.032491412 -0.035099883 -0.057348065 -0.120914154 0.07888151
0.11157225 -0.029698059 0.074147455 0.15169431 0.09652966 -3.409927e-05 -0.043051664 -0.07878584
-0.017032467 -0.035348367 -0.04010237 0.031474862 0.1183287 0.36948135 -0.05562326 -0.03126637
0.038923882 -0.03125054 -0.14156306 -0.2319379 -0.16128343 -0.05911416 0.11422666 -0.110464655
0.0758276 0.15650682 0.040720325 0.09174217 0.24730328 0.13069996 0.053425472 0.007838616
-0.0105201285 -0.034530137 -0.1090778 0.0055808495 0.031104954 0.086666614 -0.015377227 0.041561592
0.054367308 0.09327162 0.124593794 0.19202615 0.048528552 0.1385302 0.18457413 0.08785821
0.042383544 0.1452264 -0.013379066 0.041908596 -0.061169207 0.045820504 0.015544284 -0.19353078
0.09926047 0.030302253 -0.3208638 0.19937372 0.005346418 -0.18784115 0.07072551 -0.086376205
-0.06644283 -0.058744922 -0.09064342 0.0721892 -0.04803737 0.08683575 -0.0007052544 0.032843236
0.1430483 0.22233354 -0.08917714 -0.041963242 -0.014043312 0.05474605 -0.04932561 0.018700812
0.107523724 -0.038624477 -0.061160665 -0.038328014 0.09906329 -0.016008994 -0.023631772 0.057728738
0.006910683 0.043678682 0.007918107 0.18465729 0.0457624 0.041942183 -0.2588914 0.08459708
-0.028995797 -0.22147447 0.18039669 0.099921085 -0.0005694673 -0.062270958 -0.00023157532 0.023502266
-0.013829006 0.028466595 0.06556076 -0.19334908 -0.31648025 -0.23699754 0.1395509 0.08467317
0.0031606534 0.100675024 0.005729662 -0.036751173 0.056212794 -0.06650009 -0.07979487 -0.023016209
0.07633687 0.15304159 -0.13509299 -0.11680738 -0.019694991 0.016744275 -0.1478022 -0.04940755
0.07863385 -0.13387994 -0.049725454 -0.145553 0.08165334 0.10461627 0.05273676 0.18377672
0.40099838 0.037343256 0.083637476 -0.005447717 -0.041036088 -0.0030141654 0.10787043 0.051807888
0.086161606 0.20599501 -0.13767502 -0.013667034 0.12248159 0.077496745 -0.06761885 -0.047637578
-0.16506952 -0.16357496 -0.1106939 -0.056270923 -0.08250787 0.021852976 -0.0058037415 0.016840028
0.00076534576 -0.22041214 -0.15337332 0.06440506 0.015473934 -0.019556152 0.020230612 -0.0118053695
0.047447126 -0.0648082 0.093015924 0.023744363 -0.034400936 -0.13903283 -0.13822608 -0.027818462
0.19905493 0.050303582 0.24297588 0.03651163 0.14433682 0.2279939 0.027429933 -0.010029506
-0.012913184 0.034552027 -0.005100602 0.029243562 -0.045874014 -0.02665292 -0.08127556 0.088583015
-0.08260793 -0.1739092 -0.09644311 0.0538916 0.01839615 -0.11657269 0.07968774 0.0742597
-0.026742822 -0.099583216 -0.026195807 -0.011397608 0.010554734 -0.18757325 -0.024852732 -0.09248326
-0.064949475 0.16075617 0.038557947 0.112882406 0.140841 0.053611044 -0.026722098 0.024655942
-0.094543375 -0.07014384 0.04933889 0.026272822 -0.013996646 0.12770323 0.042943906 -0.01507187
0.034663767 0.12246895 -0.032770846 -0.07147043 -0.1448057 -0.2789472 0.014052647 -0.15542741
-0.044468205 -0.005678926 0.06718619 0.06915526 0.01878225 0.13466512 0.20173934 -0.013018288

block4.1.weight f4 [12]
00000000: 3049 763f 8253 6f3f 472d 833f 2202 8c3f
00000010: e59e 6d3f 1fe4 713f 06f7 913f 8a1a 6d3f
00000020: fdda 6a3f 4cce 843f f8cb 733f c85d 803f
0.96205425 0.934868 1.0248193 1.0938151 0.9282058 0.9448871 1.140351 0.9261862
0.917404 1.0375457 0.95233107 1.002862

block4.1.bias f4 [12]
00000000: 4dee 24bc e156 7fbd c173 25be f300 1c3c
00000010: f004 bbbc 6bb4 f2bd 7e6d 94bd 6df2 16be
00000020: 0dac 1cbd 9921 11bd 7cd7 dd3d 0172 a4bd
-0.010066581 -0.062338714 -0.16157438 0.009521711 -0.022829503 -0.11850818 -0.072474465 -0.14740916
-0.038250018 -0.03543243 0.10832116 -0.08029557

block4.1.running_mean f4 [48]
00000000: 131f 273f 5022 90bd 7025 9ebd 597c 64bf
00000010: 6271 0abf 8ccf 61be 1686 a0be aae7 bdbe
00000020: 8e2a 88bd 426a 063f 0f28 b33e 14e1 dbbf
00000030: 131f 273f 5022 90bd 7025 9ebd 597c 64bf
00000040: 6271 0abf 8ccf 61be 1686 a0be aae7 bdbe
00000050: 8e2a 88bd 426a 063f 0f28 b33e 14e1 dbbf
00000060: 131f 273f 5022 90bd 7025 9ebd 597c 64bf
00000070: 6271 0abf 8ccf 61be 1686 a0be aae7 bdbe
00000080: 8e2a 88bd 426a 063f 0f28 b33e 14e1 dbbf
00000090: 131f 273f 5022 90bd 7025 9ebd 597c 64bf
000000a0: 6271 0abf 8ccf 61be 1686 a0be aae7 bdbe
000000b0: 8e2a 88bd 426a 063f 0f28 b33e 14e1 dbbf
0.6528179 -0.070377946 -0.077219844 -0.8925224 -0.5407926 -0.22051829 -0.313523 -0.37090808
-0.06648742 0.52505887 0.349915 -1.7178063 0.6528179 -0.070377946 -0.077219844 -0.8925224
-0.5407926 -0.22051829 -0.313523 -0.37090808 -0.06648742 0.52505887 0.349915 -1.7178063
0.6528179 -0.070377946 -0.077219844 -0.8925224 -0.5407926 -0.22051829 -0.313523 -0.37090808
-0.06648742 0.52505887 0.349915 -1.7178063 0.6528179 -0.070377946 -0.077219844 -0.8925224
-0.5407926 -0.22051829 -0.313523 -0.37090808 -0.06648742 0.52505887 0.349915 -1.7178063

block4.1.running_var f4 [48]
00000000: 48fc 723f 5b32 363f 5c02 293f 0eb2 433f
00000010: de19 1c3f dedf 353f 38e2 453f 21bc 5a3f
00000020: 35f3 283f 6bb1 933f 3d5d a43f c680 113f
00000030: 48fc 723f 5b32 363f 5c02 293f 0eb2 433f
00000040: de19 1c3f dedf 353f 38e2 453f 21bc 5a3f
00000050: 35f3 283f 6bb1 933f 3d5d a43f c680 113f
00000060: 48fc 723f 5b32 363f 5c02 293f 0eb2 433f
00000070: de19 1c3f dedf 353f 38e2 453f 21bc 5a3f
00000080: 35f3 283f 6bb1 933f 3d5d a43f c680 113f
00000090: 48fc 723f 5b32 363f 5c02 293f 0eb2 433f
000000a0: de19 1c3f dedf 353f 38e2 453f 21bc 5a3f
000000b0: 35f3 283f 6bb1 933f 3d5d a43f c680 113f
0.949162 0.71170586 0.66019225 0.76443565 0.6097697 0.7104472 0.7729831 0.8544331
0.65996104 1.1538519 1.2840954 0.5683712 0.949162 0.71170586 0.66019225 0.76443565
0.6097697 0.7104472 0.7729831 0.8544331 0.65996104 1.1538519 1.2840954 0.5683712
0.949162 0.71170586 0.66019225 0.76443565 0.6097697 0.7104472 0.7729831 0.8544331
0.65996104 1.1538519 1.2840954 0.5683712 0.949162 0.71170586 0.66019225 0.76443565
0.6097697 0.7104472 0.7729831 0.8544331 0.65996104 1.1538519 1.2840954 0.5683712

block4.3.weight f4 [16, 12, 3, 3]
00000000: c19b 59bd 8eea 1cbd cb42 22bd db49 043d
00000010: 89b2 23bd 7377 6f3b 09f9 62bc 8709 0a3d
00000020: 50dd 12bc 4ea0 6ebd a326 4ebd 0cbb ca3d
00000030: 1f68 193d f2c3 273d 6a5b b93d 7bd1 233d
00000040: b955 23bb 4662 333e 622c 9abc 40da f13b
00000050: 4b7e d4bd 8c6c 9abd 3412 2abe d6ed 17be
00000060: 6de4 603d c667 a0bd 2ebc 8abc 40aa 87bc
00000070: c5d0 33bd 60de fcbd ab42 14be c10c e93b
00000080: 15b4 6d3d 50f4 d2be c319 1bbe ebff 5dbe
00000090: 6262 a3bd 6305 e23c 32b1 a13d 6995 b9bd
000000a0: 4cb8 e8bc e78e 1a3e 1ec1 493d e641 033d
000000b0: f796 3f3e 5399 8bbc 140b 3f3a c092 cfbd
000000c0: 547c 243d e735 9bbc 402c 33be 696e c63d
000000d0: 3410 ac3c e91f 61bc e4df 153e e920 62bd
000000e0: da99 30bd 2bab 13bd fa73 01bd f8fb 26be
000000f0: f23b 84bb c691 563d d6fb 2e3b 5db6 1f3e
00000100: 9696 c13d b8a7 f6bd d030 b03d 78d8 31bd
00000110: a2b8 713d f98f b8bd 4754 18bd 7760 b23b
00000120: 3231 ddbd 4ffd 2cbe 0177 ddbd 96ee b23d
00000130: 99b4 243d df12 dbbd 010f 943c a456 98bc
00000140: b2f0 cbbb 358b 693d 5fe4 42bd 9387 e1bd
00000150: ba9e 173e 8c64 8dbd 0b1d dbbd 9bbe 243e
00000160: 6aa5 ee3d 62a9 42bd c98d d93d ff38 b13d
00000170: edd7 203e bdb0 cc3c a0e3 cd3c e094 953d
00000180: 5f7b febd bcda 3abe 1008 95bd bfd4 e73d
00000190: 3364 ef3d a1b5 d93d 095b 0d3d d852 fa3b
000001a0: 7da9 2fbe 5f8d edbd 8cfa 0cbe 87b6 4dbe
000001b0: c2b9 eebc e714 5ebd e3f2 73b9 a217 64bd
000001c0: 9544 05bb a2f1 603d 4eae ca3c f176 dcbc
000001d0: 0654 2b3e 5e13 8a3a bb80 1abd 6f96 29bc
000001e0: bc95 bfbd 4b8c 3bbc 0d3e 4e3d 10b9 c1bc
000001f0: 9d8a 513d 8d48 203e 799f 5dbd 5ca9 99bb
00000200: 5606 fcbd cc52 f8bd 4636 0ebe 45e7 83bd
00000210: 1282 94bd c29b 04bd ad7a 6e3d ca40 d3bd
00000220: aa16 afbd 430a 163e fbb3 3fbd 0698 a3bc
00000230: 1154 df3b 0cf5 5f3d 7f77 b2bc e3f4 94bc
00000240: 19b5 5bbd 6494 7b3d 4d7f 013e 4a06 c83d
00000250: daec 45bc 3726 b63d 7dcb b03d 3958 8b3d
00000260: 7ef0 11be 472d 963b b0a3 e03d e36a e93c
00000270: 6518 24bd f251 063c 4109 9f3d 09e0 f2bd
00000280: f662 37be aa7b a1bd 166a 6dbd 890c f7bd
00000290: 9f10 80bc 8670 473e cb64 3cbd 037b 9d3d
000002a0: 0dce 273e 7058 59bd ee06 8bbb 6615 47be
000002b0: 36b9 2fbe e3bc b6bc c586 ebbd feb5 56bd
000002c0: e0cb f23d dcfc e9bd d601 76bc 3781 ab3d
000002d0: d146 763d 2f41 1d3c d93c 1bbd a4ec 00be
000002e0: 012a 9fbd 646b 973d 191f 16bd f81d ca3d
000002f0: 4b89 8d3e bf30 383e 1a25 1d3e 95f8 053e
00000300: 722c d83c b33f d5bd 2d98 04bd a920 843c
00000310: 08c9 f1bc 8afb 46bd cb94 c7bc c44c e23c
00000320: c384 f3bd 9d24 91bd bb88 14be c1c9 aabd
00000330: 1a08 9abd 3ce1 2cbe b9ca 76bd e46a 103e
00000340: d4f7 593d f0f7 c93d b1a3 e43d a86f 9dbc
00000350: 0c61 efbd 67b2 b33d 1e72 8639 c24b 21be
00000360: 2d23 76bd ebd9 15bd 8509 debc d0fa 083e
00000370: 7ec2 9b3c 50a6 b33c 0e13 303e e253 85bc
00000380: 56ae 463d 18e1 97bd 7e33 b53c 7113 4abd
00000390: 9a49 0dbd 61ea d23b ee16 eb3d 5da7 9fbb
000003a0: ff02 dfba d9e3 e23d 6d25 853b e9d7 543c
000003b0: a652 abbc c069 ec3c dfdb debb 9394 4d3d
000003c0: fe8a f63d 6517 063e 5dc4 523e 3fcf 233d
000003d0: a8bd 173d 2b27 82bc e1f7 a83d 57e2 74bd
000003e0: dd19 3a3d 787c 4fbb f5db a43c fe4a 913b
000003f0: 174e 12bb 5a9e d33b 861e 90bd 9613 4ebe
-0.053127054 -0.038309626 -0.03961448 0.032296997 -0.039965186 0.0036539703 -0.01385332 0.033700492
-0.008963898 -0.058258347 -0.050329816 0.098989576 0.037452813 0.040958352 0.09050639 0.039994698
-0.002492292 0.17517957 -0.018819991 0.0073807538 -0.10375651 -0.07540235 -0.16608506 -0.14836821
0.054905344 -0.07832293 -0.016935434 -0.016560674 -0.04390027 -0.12347102 -0.14478557 0.007112116
0.058033068 -0.4120202 -0.15146546 -0.21679656 -0.079777494 0.02759046 0.078951254 -0.09061701
-0.028408192 0.15093575 0.049256437 0.032045268 0.18709932 -0.017040884 0.00072877225 -0.10135412
0.04015763 -0.018946601 -0.17497349 0.09689028 0.02100382 -0.013740518 0.14636189 -0.055207167
-0.043115474 -0.03605191 -0.031604744 -0.16307056 -0.0040354664 0.052385114 0.00267004 0.1559691
0.0945255 -0.120437086 0.0860306 -0.04341933 0.05901397 -0.090118356 -0.03718975 0.0054436284
-0.10800399 -0.16893505 -0.10813714 0.08736913 0.040211294 -0.10696959 0.01807356 -0.018596001
-0.0062237615 0.057017524 -0.047581073 -0.11012187 0.14806643 -0.069039434 -0.10698899 0.16088335
0.11652644 -0.047524817 0.106227465 0.08653449 0.15707369 0.02498662 0.025132954 0.07303786
-0.12425875 -0.18247503 -0.072769284 0.11319875 0.11689033 0.10630346 0.034510646 0.0076392703
-0.17154498 -0.1159923 -0.13767451 -0.2008916 -0.02914131 -0.054219153 -0.00023264768 -0.0556866
-0.0020335068 0.05491794 0.024741318 -0.026912184 0.16731271 0.0010534336 -0.037720423 -0.010350808
-0.093547314 -0.011447023 0.050352145 -0.023647815 0.051157583 0.15652676 -0.054107163 -0.0046893787
-0.12305896 -0.12125167 -0.13887891 -0.064405955 -0.072513714 -0.032375105 0.05822246 -0.10315092
-0.08549245 0.14652352 -0.046802502 -0.019969951 0.0068154414 0.054677054 -0.021785496 -0.018183177
-0.053639505 0.061420813 0.12646218 0.097668245 -0.012080396 0.08894008 0.08632562 0.068039365
-0.14251897 0.004583034 0.10968721 0.02849335 -0.040062327 0.008198248 0.07765437 -0.118591376
-0.17908844 -0.07884915 -0.0579625 -0.12062938 -0.015632926 0.19476518 -0.04599456 0.07689478
0.16387196 -0.053062856 -0.0042427694 -0.19441757 -0.17160496 -0.022306865 -0.115003146 -0.052419655
0.11855292 -0.11425182 -0.015015086 0.08374255 0.06012613 0.0095980605 -0.037899826 -0.12590271
-0.077716835 0.0739353 -0.03665075 0.09868997 0.2764381 0.17987345 0.15346184 0.13083108
0.02638838 -0.1041254 -0.03237169 0.016128855 -0.029514804 -0.04857973 -0.024362942 0.027624495
-0.11890557 -0.070870616 -0.14505284 -0.08339263 -0.075210765 -0.16882795 -0.060251925 0.14103276
0.053214863 0.098617435 0.11164034 -0.01921828 -0.11688432 0.08774262 0.00025643496 -0.15751556
-0.06009214 -0.036584776 -0.027104149 0.13376927 0.01901364 0.02192989 0.17194769 -0.01627535
0.048506103 -0.0741598 0.02211928 -0.049334947 -0.03449402 0.0064366315 0.11478983 -0.004872246
-0.0017014443 0.11078615 0.0040632994 0.01299093 -0.020913433 0.02885902 -0.006801113 0.05019052
0.120382294 0.13094862 0.20582719 0.039992567 0.037046105 -0.015887817 0.08250404 -0.059786167
0.04543482 -0.0031659883 0.020124415 0.0044339886 -0.0022324377 0.006458086 -0.07037072 -0.20124659

block4.4.weight f4 [16]
00000000: 5cbe 843f 91b5 7a3f edc1 613f 52f2 843f
00000010: 2dd5 823f 29b9 793f b2f3 703f ab80 7b3f
00000020: 22bd 823f 265a 7f3f 00e1 713f 4d06 743f
00000030: fe37 853f 389f 833f 26cf 833f 5081 713f
1.0370593 0.979333 0.8818653 1.038645 1.0221306 0.97548157 0.9412185 0.98243207
1.0213969 0.9974693 0.9448395 0.95322114 1.0407712 1.0282965 1.0297592 0.9433794

block4.4.bias f4 [16]
00000000: 5f3f 88bd 76f1 7ebd 0759 0b3d 51d7 f03c
00000010: 0393 a5bd 96fd 98bd 951c 09be 7505 af3d
00000020: cae6 cabd f9b4 c63d ac9d 87bd bc13 463c
00000030: 99d1 edbd a744 363d 56e1 90bd 40e7 ea3c
-0.06652712 -0.062241994 0.03402045 0.029399546 -0.08084681 -0.07470243 -0.1338981 0.08545963
-0.09907301 0.097024865 -0.066218704 0.012089666 -0.11612243 0.044499066 -0.070742294 0.028674722

block4.4.running_mean f4 [64]
00000000: d6a2 24bf cea7 c5be 436f 5ebe 59eb 0ebf
00000010: cae2 d2bd 7c13 0dbf c888 fc3d e825 a3be
00000020: cc94 793f e36e 2ebf 9cba 723d 1ccc ddbe
00000030: 4c7a 7dbf 498d bc3e 70dd 76bf 52c6 82bf
00000040: d6a2 24bf cea7 c5be 436f 5ebe 59eb 0ebf
00000050: cae2 d2bd 7c13 0dbf c888 fc3d e825 a3be
00000060: cc94 793f e36e 2ebf 9cba 723d 1ccc ddbe
00000070: 4c7a 7dbf 498d bc3e 70dd 76bf 52c6 82bf
00000080: d6a2 24bf cea7 c5be 436f 5ebe 59eb 0ebf
00000090: cae2 d2bd 7c13 0dbf c888 fc3d e825 a3be
000000a0: cc94 793f e36e 2ebf 9cba 723d 1ccc ddbe
000000b0: 4c7a 7dbf 498d bc3e 70dd 76bf 52c6 82bf
000000c0: d6a2 24bf cea7 c5be 436f 5ebe 59eb 0ebf
000000d0: cae2 d2bd 7c13 0dbf c888 fc3d e825 a3be
000000e0: cc94 793f e36e 2ebf 9cba 723d 1ccc ddbe
000000f0: 4c7a 7dbf 498d bc3e 70dd 76bf 52c6 82bf
-0.6431097 -0.38604587 -0.2172213 -0.5582786 -0.10297163 -0.55107856 0.123307765 -0.31864858
0.9749267 -0.6813795 0.059259996 -0.43319786 -0.99014735 0.36826542 -0.96431637 -1.0216773
-0.6431097 -0.38604587 -0.2172213 -0.5582786 -0.10297163 -0.55107856 0.123307765 -0.31864858
0.9749267 -0.6813795 0.059259996 -0.43319786 -0.99014735 0.36826542 -0.96431637 -1.0216773
-0.6431097 -0.38604587 -0.2172213 -0.5582786 -0.10297163 -0.55107856 0.123307765 -0.31864858
0.9749267 -0.6813795 0.059259996 -0.43319786 -0.99014735 0.36826542 -0.96431637 -1.0216773
-0.6431097 -0.38604587 -0.2172213 -0.5582786 -0.10297163 -0.55107856 0.123307765 -0.31864858
0.9749267 -0.6813795 0.059259996 -0.43319786 -0.99014735 0.36826542 -0.96431637 -1.0216773

block4.4.running_var f4 [64]
00000000: 1171 753f 60e7 f83e 9e23 b33e ffa3 103f
00000010: 0a72 513f 9add 043f 91dc 2b3f fab1 343f
00000020: 00ed 673f 98a3 523f 57e0 063f f62d 223f
00000030: 3034 233f 1ebc 773f e81b 303f e20a 013f
00000040: 1171 753f 60e7 f83e 9e23 b33e ffa3 103f
00000050: 0a72 513f 9add 043f 91dc 2b3f fab1 343f
00000060: 00ed 673f 98a3 523f 57e0 063f f62d 223f
00000070: 3034 233f 1ebc 773f e81b 303f e20a 013f
00000080: 1171 753f 60e7 f83e 9e23 b33e ffa3 103f
00000090: 0a72 513f 9add 043f 91dc 2b3f fab1 343f
000000a0: 00ed 673f 98a3 523f 57e0 063f f62d 223f
000000b0: 3034 233f 1ebc 773f e81b 303f e20a 013f
000000c0: 1171 753f 60e7 f83e 9e23 b33e ffa3 103f
000000d0: 0a72 513f 9add 043f 91dc 2b3f fab1 343f
000000e0: 00ed 673f 98a3 523f 57e0 063f f62d 223f
000000f0: 3034 233f 1ebc 773f e81b 303f e20a 013f
0.9587565 0.48614025 0.3498811 0.5650024 0.81814635 0.5190064 0.6713343 0.7058407
0.9059601 0.82280874 0.52686065 0.6335138 0.63751507 0.9677142 0.6879258 0.5040723
0.9587565 0.48614025 0.3498811 0.5650024 0.81814635 0.5190064 0.6713343 0.7058407
0.9059601 0.82280874 0.52686065 0.6335138 0.63751507 0.9677142 0.6879258 0.5040723
0.9587565 0.48614025 0.3498811 0.5650024 0.81814635 0.5190064 0.6713343 0.7058407
0.9059601 0.82280874 0.52686065 0.6335138 0.63751507 0.9677142 0.6879258 0.5040723
0.9587565 0.48614025 0.3498811 0.5650024 0.81814635 0.5190064 0.6713343 0.7058407
0.9059601 0.82280874 0.52686065 0.6335138 0.63751507 0.9677142 0.6879258 0.5040723
