savedmodel/WithL1_WithL2 with BN classifier.pt (torch, 48134 bytes, 36 tensors)

block1.0.weight f4 [8, 1, 3, 3]
00000000: b18a dc3e 779a 943d 45b0 92be 81f9 303e
00000010: 02d3 0c3e 43cd b8be f206 a13d 2b3d ab3e
00000020: 10d3 92be 77c0 a3be 67ab b23d 25b2 8c3e
00000030: 1d9a 86be 0d10 cb3e 129d 863d 4d45 14be
00000040: 9b31 643e 350f 77be 6eae 68be beaa 8fbe
00000050: 6313 08be ef1c 92be 997b 99be 93b8 c33e
00000060: bd2b 83be 846a cfbd 8f99 de3c 0984 8bbd
00000070: 781e 833e 5bfb 563e 50ab 1abe 9be3 7f3e
00000080: d304 e93d 198d cfbe 2504 73bd eca3 a43e
00000090: c99a eb3d ff42 233e 26e2 803e 384f 623d
000000a0: feb7 673d 3873 0b3f ed5b babe 8bf9 07bf
000000b0: 176a ccbd fbb6 943e 8309 53be 92a4 68be
000000c0: fac6 bb3e 9588 23be 9c56 66be e410 5b3e
000000d0: 95c0 9bbe 41fe cbbd 0f2d 1a3e 7f20 1fbe
000000e0: 8ca7 bb3e 76e1 4d3e 7c41 f43e 346c c03d
000000f0: fdbe 263b d2fe d6be a5fc d3bd d115 f2be
00000100: c8f6 d53d 2271 b73c a11f 7b3e 049c c53e
00000110: 8097 5cbd a177 c33e a021 0ebf c86f cbbb
0.43074563 0.07256024 -0.28650108 0.17282678 0.13752368 -0.36094102 0.07862653 0.33445105
-0.28676653 -0.31982777 0.08724099 0.27479663 -0.26289454 0.39660683 0.065729275 -0.14479561
0.22284548 -0.24126895 -0.2272279 -0.28059953 -0.13288645 -0.285377 -0.2997711 0.38226756
-0.25619307 -0.10127738 0.027172832 -0.06812293 0.25609183 0.20994322 -0.15104413 0.24989168
0.11377873 -0.40537336 -0.059330124 0.32156312 0.11504132 0.15943526 0.25172538 0.05525133
0.056571953 0.54472685 -0.3639826 -0.5311515 -0.099811725 0.29045853 -0.20609097 -0.22719029
0.36675245 -0.1597007 -0.22493976 0.21393162 -0.30420366 -0.099606045 0.15056251 -0.1553974
0.36651266 0.20105538 0.4770621 0.09395638 0.0025443428 -0.41991287 -0.103509225 -0.4728227
0.104474604 0.022392813 0.24523784 0.38595593 -0.05385542 0.38177207 -0.5552006 -0.0062083937

block1.1.weight f4 [8]
00000000: 2d74 6d3f 8269 6d3f d893 9d3f 276e 5a3f
00000010: 8cd1 823f fed1 8d3f 6724 583f 5c69 5f3f
0.92755395 0.9273912 1.2310743 0.8532433 1.0220199 1.107971 0.84430546 0.8727014

block1.1.bias f4 [8]
00000000: 8a93 753d e0e9 d5bc eb67 ad3e ec78 1dbe
00000010: ece8 4b3d c4a4 b53d 0e8c 183e 592c 8abd
0.059955157 -0.026112497 0.33868346 -0.1537816 0.04978268 0.08869317 0.14897177 -0.0674674

block1.1.running_mean f4 [8]
00000000: 9c4e bbb9 a363 3ebc 9609 73bc 7453 ad3a
00000010: 8885 1eba 66f4 ec3a 500f 923b 4d12 d3bb
-0.00035725988 -0.011620435 -0.014833828 0.0013223724 -0.00060471194 0.0018078208 0.004457392 -0.0064413906

block1.1.running_var f4 [8]
00000000: cb98 0e3f 14ba 823e 94d7 9b3f 96c5 ed3e
00000010: eade 093f 9dda 073f 55ee f23e f6a9 243e
0.55701894 0.2553259 1.2175164 0.4643981 0.53855765 0.5306795 0.47447458 0.1608046

block2.0.weight f4 [8, 8, 3, 3]
00000000: b8f7 82bd 387c 123d 8316 023e dc2b ee3c
00000010: a288 883d 2446 8e3d da01 623d eaa0 413c
00000020: f803 3d3a b410 7a3e b358 9c3d b222 d3bc
00000030: 1c8d e4bc 8e02 87bc d2d7 7bbb 6f79 2abb
00000040: 4fcc ddbd 1e7d 30bd 3644 ee3d 284f 2fbd
00000050: 9a05 f4bb e31f aa3d 0872 85bd d72e a43c
00000060: da71 0abe f1a4 a3bd e20c 90bb 5679 293e
00000070: 37c4 343d ba14 9b3d 91b5 3bbe d44e 693c
00000080: 6524 26bd c8f1 4b3c 9b96 6dbd b26c 80be
00000090: f6cb 8fbe 58b8 45be 8ea2 a93c 1860 f4bc
000000a0: e245 ae3d 8d6a 06be 3269 b5bd 5666 aebd
000000b0: 2720 40bd f04c b9bd 1fea 073e aa56 093d
000000c0: 3196 a3bd 47d4 003e 1dc2 8e3c e9aa ea3c
000000d0: 8b91 4fbe cae5 ad3d 45f4 863e d6ab 7d3e
000000e0: 7151 493e 0d14 4e3e 6639 5a3e 5eec 58bb
000000f0: 3830 3abd 6c9b d8bd d8c2 01be 9448 d93d
00000100: 5768 583d 377f 903d 7b89 773e a657 ea3d
00000110: 27de d9bd fde0 9b3b 5cf6 44be 8c5f 9cbd
00000120: c57e f13d 8ade 063e 95e3 d73d 2a79 74bd
00000130: bcd5 023d d539 393d a5c1 29be 3c72 49be
00000140: ff67 58be 8f7d da3c f549 d63d 8767 883c
00000150: 0742 083e 0e3b 363e 0936 8d3d 5180 86be
00000160: 88fe d2bd bff3 55be 3f5a e23d b06a 30bc
00000170: 1b10 8abd f940 7f3d 852b cdbd 8929 193e
00000180: c1da b4bd 62bb 063d 3b34 a43d 74da 1abb
00000190: 1d50 653e 540f e73d 2049 0b3d 9124 b13d
000001a0: be90 883d 9b54 1abe 0e47 fabd 1012 d0bd
000001b0: 03b6 01bd 40c1 533c 1475 b1ba 853c db3d
000001c0: 63b7 1f3e 6cd4 473e f23a a3be c5e9 82be
000001d0: e557 83be 0c8d f83c 1ee1 013d e89c 623d
000001e0: 7900 85bd 5dbd 9c3c fefa 453d 7f89 7cbe
000001f0: 5acb 04be 66c2 81bd 5a0c 2e3d 9c53 fc3d
00000200: 13c5 4b3d b59e cd3c 28d7 de3d 0852 0d3e
00000210: a328 31be 8674 c5bd f324 0cbe 2fdd 863c
00000220: e2cd bebd 44cb 04bd e6cd 6bbd bbcc d1bd
00000230: 567a 6bbe bb9d 933c 1a0c 3c3e ea4e e43c
00000240: b6e2 963d dee4 7abd acbb 1fbd 1853 3a3e
00000250: e2f5 ea3d 6ded 50bc 49e4 01bd 0ef9 943e
00000260: 1d3e e73d cf88 9b3d 0e6e b5bd 4192 f93d
00000270: 75c0 bbbd f122 ffbd 1704 cd3c 0c9c bdbd
00000280: c13e dfbd f687 ffbc 26ba ecbd 96a3 0abe
00000290: c57f f13b e087 20be 0e02 dcbd 39c6 51be
000002a0: 9b97 87be caa5 55be 74b3 8cbe 8654 99bd
000002b0: 4abe 3cbe 33a4 99be b820 213e 9d5d 28bd
000002c0: 5f8b 4cbe edf8 653e 2366 323e 7b6e 943d
000002d0: 761b 74bd fb73 09be b49a 40be 13af ac3d
000002e0: 3a68 0a3e d4c8 ffbc b246 2f3d 51bb f83d
000002f0: a00a e73c 3e4a cfbd 4990 b0bd dfee 7abd
00000300: 5b63 32bc 60e6 833c 1c87 83be 3724 48be
00000310: 49c2 abbd 4bde d9bd 66fc 84bd bfc9 33be
00000320: d923 85be b90b bd3b 9012 283d 34bb 0fbe
00000330: bf47 703c 5e45 5abc a23f 1bbd a80c 42bd
00000340: 634b 883d 8024 bfbd 97ba 7ebe 4c7e 963c
00000350: b1c4 163e 27a9 05be 69cb 0bbe 4b18 f2bc
00000360: 5d90 2fbe f72b 4bbd d098 f23d 6556 e7bd
00000370: f94c 95bd fc39 97bc 3add 39be 5876 48be
00000380: c4f1 3bbb 46c5 123d 409f 1e3e 278e 30be
00000390: 7418 c3bd 60d4 803e 6e14 313e 3e5e 5c3c
000003a0: 588c cd3d e435 93bd 4522 07be 71a2 1bbe
000003b0: dd6e 073b 69ed 56be 83c0 33be 3dcf 7cbe
000003c0: 4e3d 0ebe 5d48 84be 3c85 90be 49fd 93bd
000003d0: 0722 1c3c fa61 b5bd 3471 72be f973 edbd
000003e0: 4a16 8dbd 72bb 11be 3c34 bebd 92eb 12bc
000003f0: ae32 53bd 34be 823c 4f79 afbd 8c39 27be
-0.06394905 0.035762995 0.127039 0.029073648 0.06666686 0.06946972 0.055177547 0.01181815
0.0007210369 0.24420434 0.076341055 -0.02577338 -0.027899317 -0.01648071 -0.00384282 -0.0026012321
-0.108299844 -0.04308807 0.11634104 -0.0428001 -0.007446957 0.08306863 -0.0651589 0.020041866
-0.13519993 -0.079904445 -0.004396067 0.16550192 0.044132438 0.07572313 -0.18330981 0.0142399855
-0.040562052 0.012447782 -0.058004957 -0.25082928 -0.28085297 -0.19308603 0.020707395 -0.029830977
0.08509423 -0.13126583 -0.08857955 -0.08515613 -0.046905663 -0.09047878 0.13272904 0.033529915
-0.07987631 0.12580977 0.017426545 0.02864595 -0.20270364 0.084910944 0.26358238 0.24772581
0.19659974 0.20124836 0.21310958 -0.003309987 -0.04545614 -0.10576519 -0.12671983 0.10609546
0.05283388 0.07055514 0.24173538 0.11442499 -0.10638075 0.0047570453 -0.19234604 -0.076354116
0.117917575 0.1317083 0.10541455 -0.059685864 0.031942114 0.04522117 -0.16577776 -0.19672483
-0.21133421 0.0266712 0.10463325 0.016650928 0.13306437 0.17795965 0.06895072 -0.26269773
-0.10302454 -0.20893763 0.11052369 -0.010767624 -0.06741353 0.062317822 -0.10018066 0.1495725
-0.088307865 0.032893546 0.08017775 -0.0023628743 0.22393842 0.112822205 0.034005284 0.086495526
0.066682324 -0.15071337 -0.12220584 -0.10159695 -0.03166772 0.012924492 -0.001353892 0.107049026
0.155973 0.19514626 -0.3188091 -0.25568977 -0.25652996 0.030340694 0.03170883 0.05532542
-0.06494231 0.019133264 0.048335068 -0.24661826 -0.12968197 -0.06335907 0.042492248 0.12320635
0.04974849 0.025100091 0.108808815 0.13800824 -0.17300658 -0.09641366 -0.1368597 0.01646289
-0.09316613 -0.03242041 -0.057569407 -0.10244127 -0.22995886 0.018019548 0.18363991 0.02786966
0.073674604 -0.06125342 -0.038997337 0.1819576 0.1147268 -0.012751919 -0.03171185 0.29096264
0.11291144 0.075944535 -0.08858882 0.12186099 -0.09167568 -0.124578364 0.025026364 -0.09258279
-0.10900641 -0.03119276 -0.115589425 -0.13538966 0.0073699676 -0.15676832 -0.107425794 -0.20485772
-0.26482853 -0.20864025 -0.27480662 -0.07486825 -0.18431965 -0.30008087 0.15735137 -0.0411049
-0.19975041 0.22458239 0.17421775 0.07247635 -0.0595965 -0.1342315 -0.18809015 0.0843183
0.13516322 -0.031223692 0.04279203 0.12145103 0.028203309 -0.101215824 -0.0862127 -0.06126296
-0.010887946 0.016101062 -0.25689018 -0.19545065 -0.08386666 -0.10638102 -0.06493454 -0.17557429
-0.26003912 0.0057692197 0.041033328 -0.14036256 0.014665543 -0.0133222025 -0.03790248 -0.04737535
0.06655004 -0.09333134 -0.24875866 0.01837077 0.1472347 -0.13052808 -0.13651814 -0.0295526
-0.17144914 -0.049602475 0.11845553 -0.11295775 -0.07290072 -0.018460266 -0.18150797 -0.19576395
-0.002867804 0.035832666 0.15490437 -0.17241727 -0.095261484 0.2516203 0.1729295 0.013450203
0.10036534 -0.07188013 -0.13196667 -0.15198685 0.0020665445 -0.20989002 -0.17553906 -0.2468843
-0.13890573 -0.2583646 -0.2822665 -0.07226045 0.009529597 -0.08856578 -0.23675996 -0.11594386
-0.06889017 -0.14231661 -0.09287307 -0.008967297 -0.051562004 0.015959837 -0.0856806 -0.16330546

block2.1.weight f4 [8]
00000000: 09d1 783f 4c5e 8f3f 06fb 823f 9220 773f
00000010: 22b5 353f 4244 923f 383d 7e3f cc7a 6e3f
0.9719396 1.1200652 1.0232856 0.96534073 0.7097951 1.1427081 0.9931216 0.93156123

block2.1.bias f4 [8]
00000000: 9906 f1bd e155 38bd 1de4 413d 81e2 ccbc
00000010: 3a69 5b3e 449b ba3d 4798 23bc f5d8 fdbc
-0.117688365 -0.045003776 0.047336686 -0.02501035 0.2142686 0.09111646 -0.009985036 -0.030987242

block2.1.running_mean f4 [8]
00000000: fc7a c73d 59ce 29be 9a7d c4bf 71b4 c1bf
00000010: c4ef 70bf a376 f3be 27b7 c7be 5a2e b13e
0.09740254 -0.16582622 -1.535083 -1.5133191 -0.94115853 -0.4755145 -0.39006922 0.34605676

block2.1.running_var f4 [8]
00000000: 09ea 913f cff1 743f 9381 543f 17cb 533f
00000010: 1392 6b3f 6549 bb3f ec36 983e fa05 613f
1.1399547 0.9568147 0.83010215 0.82731766 0.92019767 1.4631773 0.29729402 0.87899745

block3.0.weight f4 [12, 8, 3, 3]
00000000: 65e0 b4bd 2793 af3d a4af 093e 97e1 72be
00000010: a6b3 02bd c5f6 2cbd 6010 62bd 9b8f f2bc
00000020: ef8f b2bd 109d c43d b146 23bd e3fb 3a3e
00000030: 25ca 273e 11c4 133e 1d29 ac3e 47d3 81bd
00000040: 07bf 6c3b d850 4fbd f3e9 34bd fc39 00be
00000050: 1219 e1bd 1d01 abbd 59bc 1abe f9ac cabc
00000060: e5c7 0b3e cdf7 733e e322 4f3e eef0 01be
00000070: 450e 50bd c4a9 07be a8da e93d 8c16 8ebd
00000080: e9c5 29be d5b4 183e f0f2 8e3d 0872 6d3d
00000090: 065f 75bc b3f4 80bd 2c6c 133d 517c 903c
000000a0: 1dc6 80bd 7c48 8f3d f77a aa3c d3de 073c
000000b0: 6784 0ebe f6e4 a33c 97a8 afbd b7fd 30ba
000000c0: 289d ce3d 1ea3 7c3d 7255 873d 3d04 d13b
000000d0: 0da5 46bc c482 023e ec28 61bd 2947 0e3e
000000e0: df03 17bb 0869 1a3e c665 103d 3cd2 263e
000000f0: cb66 9ebd 98b4 843d a937 513d c157 12bd
00000100: 98ad 48bc bab8 f93c d922 4dbe 4733 ebbd
00000110: b7bc 0dbe 0ab9 673c e9ef 0b3d a94c 09be
00000120: eb66 0cbe 8f53 933d b719 853e 6f75 3abe
00000130: 6144 40ba 70fd f03d 0c34 97be 7fab 72bc
00000140: 6e83 a93c 6154 40bd d4c0 bbbd 0b09 25be
00000150: 1844 963e e4ef 7e3e e4be 433e a2a0 4fbd
00000160: bf26 34be da19 a3bc e395 2d3e 7357 3f3d
00000170: 51a1 1dbe 6fd1 fd3a 14d4 aabd 31e2 47be
00000180: a282 53bb fe54 2fbb c244 d93c 8725 0c3c
00000190: 0c7a cc3c 799d 74bc aee8 b8bc bad5 5ebd
000001a0: 1160 163d 54d3 bbbc 7912 743d 7dc5 963c
000001b0: cb36 afbd 0aec da3d 9ffd e0bd e801 4abd
000001c0: 891d 883d 954b 2ebe 685a e6bc 3b24 82bc
000001d0: 129d 0bbe 1796 e03c 141f 353d 0b05 473e
000001e0: 5266 9d3d 141f 8e3d 20bb cd3d 37d3 c23d
000001f0: 2faa 403d d003 91bc 9727 a2bd 0bbb d63d
00000200: 1c19 603c f826 a93d 97d0 f43b 3d92 d23b
00000210: f411 5abd 6772 bcbd 88f9 62bd 2727 3fbc
00000220: 050b eb3d 893c b2bd d46f a1bd df78 e7bd
00000230: 7eeb 70be 8209 1bbe 799a 073b b1c8 a4bd
00000240: 0f00 033e 8dfc d23c 697c ccbd 61ff e5bc
00000250: a33f 83be 6e35 ffbc df61 6fbc 131b d8bd
00000260: 6b9c 803e 2a17 e4bd ef86 85bd 2944 28be
00000270: 7c3d 263c f25a ba3d a342 993d 60f2 c83d
00000280: 877c 65bd e903 653c c5cb 8b3c 2d04 6f3d
00000290: 652a bcbd c0a2 1b3e 2bef adbb f346 06be
000002a0: 3cde 453d b73c fe3c d881 f2bd a644 48bc
000002b0: f94e 12be 5105 3dbe 9ec2 f6bd ffe0 e5bb
000002c0: 9649 8e3d d844 1dbe c337 893d 0a37 d93e
000002d0: e205 383d 1037 b03d 4491 99bd c1d5 2abd
000002e0: 3bdb 94bc 7ccb 18bc c0f1 6c3d d8a8 253a
000002f0: ddf1 383d 124b 66bd d156 98bc e4fc 38bd
00000300: f5ee 6ebd 05a4 6dbd 2924 b1bd 0956 ff3c
00000310: 2b29 9b3d 1f62 b03d 9706 a43d a9a6 d8bc
00000320: bb1a 633d f182 a4bb a3e6 a93a 23a1 fcbc
00000330: 0d08 0b3d c5aa af3d 37af d73c 6c4f 003e
00000340: ed12 e63d f38c 593b 2e25 15be de17 a4bd
00000350: a1dc fdbd 1ed2 08be 5ae2 11be 159f 9dbc
00000360: a43a a53c 4dba a33d 8d5a 903d c3bb 94bc
00000370: f6a3 86bb 84b3 c2bd c7df e1bd c16f f1bb
00000380: 4215 32bd 4c44 8dbd 264d ee3c aba3 3abb
00000390: 65e5 1dbd 8cc1 5dbd d4bb 153a d73c 053c
000003a0: e91c a53d fcab dabd 0abd 293b ea7c d8bd
000003b0: b5a0 53bc 588c 423d 662c cabc 329e 3ebc
000003c0: b528 143e f46f f1bd 0e70 a7bd 89e9 babc
000003d0: c8b9 873d 9fbe b9bc fcb0 09be 8dad 8ebc
000003e0: d992 a03d 0b31 6e3d df69 00bc 09a5 123d
000003f0: d4f2 28bd 7bca 633d 2c35 c4bd 940c 97bd
-0.08831862 0.08572989 0.13445908 -0.23718868 -0.031909607 -0.042227525 -0.055191398 -0.029609492
-0.087188594 0.0960027 -0.03986234 0.1826015 0.16385706 0.14430262 0.33625117 -0.06339126
0.0036124603 -0.050614208 -0.044168424 -0.1252212 -0.1099111 -0.08349822 -0.15110911 -0.024740683
0.13650472 0.23824997 0.20228152 -0.12689564 -0.05079486 -0.13248354 0.114186585 -0.06937894
-0.16579403 0.14912732 0.069799304 0.057970077 -0.014976269 -0.06296673 0.035991833 0.017637404
-0.06287787 0.06996247 0.020810587 0.0082928715 -0.13917695 0.020006638 -0.08577078 -0.00067516736
0.10088569 0.061679 0.06608094 0.006378679 -0.012124312 0.12745196 -0.054970667 0.13894333
-0.002304308 0.15079129 0.03525331 0.16291136 -0.0773445 0.06479758 0.051078472 -0.03572822
-0.012248419 0.030483592 -0.20032825 -0.1148439 -0.1384152 0.014143238 0.034164343 -0.1340815
-0.13711135 0.07193672 0.2599618 -0.1820886 -0.0007334408 0.11767089 -0.29531896 -0.014811396
0.020692553 -0.04695547 -0.091676384 -0.16116731 0.29348826 0.24896199 0.19115788 -0.0506903
-0.17592905 -0.019909788 0.16951708 0.046714257 -0.15393569 0.0019364784 -0.08341232 -0.19519879
-0.0032273908 -0.002675354 0.026522044 0.008553869 0.02496054 -0.0149301225 -0.022571888 -0.054403044
0.03671271 -0.022927918 0.05958793 0.018404717 -0.08555373 0.10689552 -0.109858744 -0.049318224
0.066462584 -0.1702102 -0.028119281 -0.015886417 -0.13634136 0.027415318 0.04421909 0.19435517
0.07685532 0.069395214 0.10045457 0.09512942 0.0470373 -0.017702013 -0.079177074 0.10484894
0.013677862 0.08259386 0.007471155 0.0064261244 -0.053239778 -0.09201508 -0.055413753 -0.0116670495
0.11476711 -0.087029524 -0.07882658 -0.11302351 -0.23527333 -0.15140346 0.0020691438 -0.08046091
0.12792991 0.025755191 -0.09984667 -0.028075876 -0.25634488 -0.031153407 -0.014610737 -0.10552039
0.25119337 -0.11137231 -0.06519877 -0.16432251 0.010146495 0.09099378 0.07483413 0.09811854
-0.05602696 0.013977983 0.017064938 0.05835359 -0.091877736 0.15198803 -0.005308052 -0.13113002
0.048307642 0.03103481 -0.11841172 -0.012223398 -0.14287938 -0.1845906 -0.12048839 -0.007015347
0.06947629 -0.15358293 0.06700089 0.42424804 0.044927485 0.08604252 -0.0749841 -0.041707758
-0.018170943 -0.009325858 0.05784774 0.000631941 0.045152534 -0.056223936 -0.018596085 -0.04516305
-0.058333356 -0.05801775 -0.08649475 0.031168954 0.075762115 0.08612465 0.080090694 -0.026446657
0.055445414 -0.0050204922 0.0012962412 -0.030838555 0.033943225 0.085774936 0.026328666 0.12530297
0.112340786 0.0033195585 -0.14564964 -0.08012365 -0.12395597 -0.13361403 -0.14246503 -0.019240895
0.020169564 0.079945184 0.07048521 -0.018155938 -0.004108901 -0.09506896 -0.1102901 -0.0073680584
-0.043477304 -0.06897792 0.029089522 -0.0028478901 -0.038548846 -0.05413966 0.00057118875 0.008132181
0.08062155 -0.10677335 0.002590003 -0.105707005 -0.0129167335 0.047497123 -0.024679374 -0.011634396
0.14468654 -0.117889315 -0.081756696 -0.022816436 0.06627232 -0.022673903 -0.1344642 -0.01741674
0.07840509 0.05815224 -0.007837742 0.03580192 -0.041247204 0.055613022 -0.09580454 -0.07375446

block3.1.weight f4 [12]
00000000: 8f80 8a3f 666a 8c3f e5ee 833f 9e50 843f
00000010: e924 7a3f 7fde 803f ceeb 743f c821 5c3f
00000020: 0afd 8d3f dba8 683f 579f 523f ca37 743f
1.0820483 1.096997 1.030728 1.0337102 0.9771257 1.00679 0.9567231 0.85989046
1.1092846 0.90882653 0.82274383 0.9539763

block3.1.bias f4 [12]
00000000: bc51 aabb 3977 d9bd 6a6c 433d 2a3c 4e3d
00000010: 64ee 2b3d c28f 09be a14d 413b cb94 dabd
00000020: aed9 493d 456c 2a3d 0a4b aa3c 9378 14bd
-0.005197732 -0.10618443 0.047710814 0.050350346 0.041975394 -0.13433746 0.0029495733 -0.10672911
0.04927986 0.04160716 0.020787735 -0.0362478

block3.1.running_mean f4 [12]
00000000: c2f9 cf3d fd97 a8be 7458 a6be 60db 3ebf
00000010: bb3d 523e dce3 14bf 9182 16bf 258b 02be
00000020: 8b51 8dbe 5c6f d0bc fabf 113f 1454 243f
0.101550594 -0.32928458 -0.3248936 -0.7455349 0.20531361 -0.58160186 -0.5879298 -0.12748392
-0.27601275 -0.025443725 0.5693356 0.64190793

block3.1.running_var f4 [12]
00000000: 5b8f c33f 5614 9d3f 2e6e b23f 40a8 463f
00000010: 5a29 1540 642a ad3f 9a6f c33f a784 963f
00000020: 1363 d93f 4e8f bf3f 0f46 903f 7ae1 ed3f
1.5278124 1.2271831 1.3939874 0.7760048 2.330649 1.3528562 1.5268433 1.1759232
1.698336 1.4965608 1.127138 1.8584435

block3.3.weight f4 [12, 12, 3, 3]
00000000: 607f aebd 9211 38bd 1e1b 513d 5458 e2bd
00000010: 8577 853d 6965 5d3e 6fcf dbbc 8213 233d
00000020: 8bc8 153d 343a 27bd d4a7 363e 0fe0 543e
00000030: 831b a23b 94d7 233e ac63 e83d e597 d7bd
00000040: ce36 af3c c4c4 77bd c20e 10bc 94e2 6ebc
00000050: d2d0 87bd 8f95 ecbd fa4a 55bd 444c 81bd
00000060: e7d0 90bc e6ed 60bc 74fb 02be 2ad5 08be
00000070: b867 a1bc 77e4 163e ab80 8cbd 19b3 abbd
00000080: d4fb 0c3e 0a42 42be 8ad8 c6bc 3356 163d
00000090: a0ac 093e 6baf b03d 40ad a33d 6855 6c3b
000000a0: 743e debd c225 84bc b9ff b73b 159f 183a
000000b0: 8d62 a2bd f6be 863d bafb 84bd 6b0e 5abd
000000c0: 4c72 55bd ae0d 88bc e1dd f7bd 70e0 c1bd
000000d0: 230e fbbd e6c3 e0bd 1c61 48bc fd29 47bd
000000e0: bc18 07be 80b7 cdb9 b03f 2abe 72c8 a6bd
000000f0: 2052 afbd 725e 9abd c8e9 ca3d 3f55 dfbc
00000100: a470 be3d cd43 1c3e 00bd 633d 8cb1 96bc
00000110: 350c b83d f463 69bc 7444 47bd 1b1b 2b3c
00000120: b34e dc3d e13b eb3b 540e 923e d578 b0bd
00000130: 3e56 e9bd 4cf5 51bc 77d3 7cbe 1a5f 2cbe
00000140: 8710 66bd b9d3 e13d 8836 1cbe ca57 89be
00000150: 2314 aabc 0219 6bbd 3b44 42be 372d 38bd
00000160: 72cb 903c b897 2dbe 8e86 4c3c 3230 ffbd
00000170: 1523 59bd 22cd 8337 a6bf cdbb 14ab abbc
00000180: 8b27 04bd 8a84 d0bd c452 03be be9e 10be
00000190: 302f 223e 4b53 563b 97af 013e 6bf2 fe3b
000001a0: 9cae 98bd dc1f 143e 14d0 e2bb 93b1 06be
000001b0: 302a a4bd dc26 14bd 9cf6 593d 379b 12bd
000001c0: f2d1 8a3d ddb7 f63d 9051 febd db7c 35bc
000001d0: e148 0f3b dd5d 413c a616 aebd 50c2 30bd
000001e0: 7342 02be 668c 753c 31dd 18be a191 88be
000001f0: 355d bdbd a3c2 babd f7a2 f5bc 9054 b9bc
00000200: 991a 2b3d f92b 10bd 4ba2 10be c440 a43c
00000210: 525c 17bd 2984 023c 7a6d 993e acdd b0bb
00000220: 4c10 13bc 781c 78bd d045 99bc 911a 483d
00000230: fab9 883b 81d2 fcbd 7ff6 61bb 721a 1ebd
00000240: 0c19 213d 37fb 303d 617a e4bc 6c99 94bb
00000250: 6cda d1bc d0e6 353d 341d 06bd 5596 f0bd
00000260: 3ea4 08be f4e5 443e df55 7d3d 3508 913d
00000270: 537a 473e 116c b43d f1b7 c8bd 5a7a bc3d
00000280: 53b7 fcbc 246a 273d d449 b33d 77cc b33d
00000290: f06f 3b3e 0f47 7e3d 132b 0cbd cd41 28be
000002a0: 2ca2 e8ba 8460 d13d e911 1cbc 1533 cabc
000002b0: babe 513c 4d45 143e 0b21 473e e439 12be
000002c0: 7d66 d0bd 2a0b c63d ac99 a63d 3c6a a5bd
000002d0: 3ebd 1b3e e350 683e 4369 8d3e 5ee8 a1bd
000002e0: 5f71 10bb a68f c4bc 3b8f abbe 7e80 50be
000002f0: dff6 92ba c0e0 e73d 464e 973d ca93 853d
00000300: fe14 05bd 9d5e 8c3c 94c5 f6bd 9fde 633c
00000310: 5bf8 d63c ca80 853d 56f7 9dbd c55c c93d
00000320: 8e86 293e ed8b 2b3d a662 d63b 854f 0bbd
00000330: 2a83 053e fe89 373e caf0 a43d d95f 013d
00000340: 6e69 113c b7d7 ecbc 402e 713d 2163 4dbb
00000350: c9c2 1f3e a46a 1bbb 86e6 523a 46fe 943e
00000360: f61d 5fbe f420 81bd 98fe 873d 3306 ad3d
00000370: b39e 81bd ac5c 253d 6ee4 163d c4f2 c6bc
00000380: 64df 4b3d ba52 a6bd d344 26bd 1dc7 90bc
00000390: 3666 4c3d 84e1 5b3d 1aa2 cd3d 644d a73d
000003a0: eb78 0c3e de24 643e a235 e8bd 65bb 13bd
000003b0: d2a8 643d 2f8d 483d 58ee 523c bbf1 c13d
000003c0: b698 043d 1823 493b 4f2f eebb f67a ecbc
000003d0: ce3f ab3d 3a5e d63d 4026 033d 7753 1abc
000003e0: acf1 4fbb db14 003e 5ef3 a63d 502a e43d
000003f0: 033d 0ebe b7b5 17be 3571 72be 56be 02bc
-0.085203886 -0.04493863 0.05105125 -0.110520035 0.06516937 0.21620716 -0.02683231 0.039813526
0.036568206 -0.04082699 0.17837459 0.20788597 0.0049471273 0.16000205 0.11347136 -0.105270185
0.021388438 -0.060490385 -0.008792581 -0.014580388 -0.06631626 -0.115519635 -0.052073456 -0.06313375
-0.017677737 -0.013728594 -0.12791234 -0.13362566 -0.019702777 0.1473559 -0.06860479 -0.083837695
0.1376794 -0.18970504 -0.024273176 0.0367033 0.13444757 0.08627208 0.07992029 0.0036061648
-0.10851756 -0.016131286 0.0056152013 0.0005822045 -0.07928953 0.06579392 -0.064933255 -0.053236406
-0.052110955 -0.016608085 -0.12102867 -0.09466636 -0.12258556 -0.10974865 -0.012230184 -0.048624028
-0.13193029 -0.00039237365 -0.16625857 -0.08143701 -0.08560586 -0.07537545 0.099078715 -0.027262328
0.09298828 0.15260239 0.055600166 -0.018395208 0.08986703 -0.014245022 -0.048649266 0.010443474
0.10757198 0.007178769 0.28526556 -0.08616797 -0.113934025 -0.012814831 -0.24690042 -0.16833153
-0.056168105 0.11026711 -0.15255177 -0.2682479 -0.020761555 -0.057396896 -0.1897134 -0.044964995
0.017675135 -0.16952407 0.012483252 -0.124603644 -0.053011972 1.571194e-05 -0.00627895 -0.0209556
-0.032264274 -0.1018153 -0.12824541 -0.14123055 0.15838313 0.0032703455 0.12664638 0.0077803633
-0.07455179 0.14465278 -0.0069217775 -0.13153677 -0.08015859 -0.03616987 0.0532137 -0.035792556
0.06778325 0.12046788 -0.124179006 -0.011077131 0.0021863508 0.011802164 -0.085004136 -0.04315406
-0.12720661 0.014987087 -0.14928128 -0.26673606 -0.092462935 -0.09119155 -0.029984934 -0.02262333
0.041773412 -0.035198186 -0.1412441 0.020050414 -0.036953278 0.00796608 0.29966336 -0.005397519
-0.008976053 -0.060574025 -0.018710047 0.04885346 0.0041725608 -0.12344838 -0.0034479199 -0.03859944
0.039330527 0.043208327 -0.027890386 -0.004534891 -0.025616847 0.044409573 -0.032742694 -0.117474236
-0.13343903 0.19228345 0.06184947 0.070816435 0.19480257 0.088096745 -0.09800709 0.09203024
-0.030849135 0.040872708 0.08754316 0.08779233 0.1830442 0.062079486 -0.034220766 -0.16431351
-0.0017748526 0.10223487 -0.0095257545 -0.024682561 0.01280182 0.14479561 0.19446199 -0.14279896
-0.10175798 0.09670098 0.08134779 -0.08076903 0.15208909 0.22687106 0.2761937 -0.07905649
-0.002204023 -0.023994278 -0.33507714 -0.20361516 -0.0011212489 0.113221645 0.07387976 0.06522329
-0.032490723 0.017134959 -0.12049404 0.0139080575 0.026241472 0.06518705 -0.07713191 0.098321475
0.16555235 0.04188149 0.0065425215 -0.034011383 0.13038316 0.17923734 0.08053739 0.031585548
0.008875234 -0.028911455 0.058881998 -0.0031339603 0.15601648 -0.0023714686 0.0008045215 0.29100245
-0.21788773 -0.063051134 0.06640357 0.08448448 -0.063290976 0.040371582 0.03683894 -0.024285682
0.04977359 -0.081212476 -0.04059298 -0.01767307 0.049902163 0.053681865 0.10040684 0.08169058
0.13718002 0.22279689 -0.11338355 -0.036067385 0.055825062 0.04896277 0.012874208 0.094699346
0.0323722 0.0030691084 -0.007268823 -0.028867226 0.08361779 0.10467191 0.0320189 -0.009419314
-0.003172974 0.12507956 0.08151887 0.11140883 -0.13890462 -0.14815412 -0.23675998 -0.00797995

block3.4.weight f4 [12]
00000000: 088c 8a3f 5414 4b3f a427 8c3f 7f0e 673f
00000010: ed1a 743f 061a 923f 9f6d 833f 080a 833f
00000020: 0a8c 7a3f 73cb 863f bc96 6a3f a81a 673f
1.0823984 0.79327893 1.0949597 0.90256494 0.95353585 1.1414192 1.0267829 1.0237436
0.9786993 1.0530838 0.9163625 0.9027505

block3.4.bias f4 [12]
00000000: 62de fbbc d842 933c 1e63 97bc 3e16 06be
00000010: a521 57bd f324 6fbd d952 a83c 3197 5b3d
00000020: 80e7 5dbd a3c3 833d b323 d6bd 3888 88bc
-0.030745689 0.01797621 -0.01847988 -0.13094422 -0.05252232 -0.058384847 0.020547317 0.053610984
-0.054175854 0.06433799 -0.10456028 -0.016666517

block3.4.running_mean f4 [12]
00000000: b9e2 8abf 5bd7 c93e 810a a73e 95dc 9d3f
00000010: e040 20bf 4972 2dbf 1ed3 45bf 02b8 36bf
00000020: a15c c8be a20f 2b3c 9ede 703e 49f8 083e
-1.085044 0.39422116 0.326252 1.2332941 -0.6259899 -0.6775251 -0.77275264 -0.71374524
-0.3913317 0.010440739 0.23522422 0.13375963

block3.4.running_var f4 [12]
00000000: 9a4e 933f 79f0 863f a385 803f 4ca0 8e3f
00000010: 3cbd 4f3f 9b3d 423f 3c5f 963f 7631 593f
00000020: c1dc 9a3f f83d 3b3f b185 893f 2611 843f
1.1508362 1.0542136 1.0040783 1.1142669 0.81148124 0.7587525 1.1747813 0.84841096
1.2098619 0.7314143 1.0743924 1.0317733

block4.0.weight f4 [12, 12, 3, 3]
00000000: 5fcd 76bd 1226 323d b70b 7d3e 69cb da3c
00000010: 4067 ba3d beb8 543d 2918 94bd f6dd 73bc
00000020: 086c 31be 4d79 583d 476f 94bb e07b 20bd
00000030: 5f84 c43d 1faa c7bd 462c aabc cffd 133e
00000040: 97c1 0ebd 3e93 d53d bc8e dc3b e83e c53b
00000050: df22 c13d ad62 65bd 7616 11be 87a6 7cbd
00000060: 15b6 52bd 8d1f 3d3e d21c a13d 45b6 c2bd
00000070: e25b edbd dfcd 3ebc 264e 59bd ab12 05bd
00000080: cb0f 883d 5a81 4abe bc10 843d eb7d 853e
00000090: b04d 28bd bc2d 91bc 0ef4 edbd d31c 993c
000000a0: ffcb 1cbe 2750 b8bd e0b3 a33c 1811 a7bb
000000b0: 49c5 763c ea8f d1bd 133d debc 2552 883d
000000c0: c094 98bd 64ee c8bc bd02 3d3e 488a 2ebe
000000d0: ca96 533d 1696 333c 2c56 73bb f53e 94bd
000000e0: 8e62 d4bd 9abb 483e 864f 373c e23d c93d
000000f0: 18bc 5a3d a52b cc3d 58ba 4b3e 2a67 763d
00000100: ccc7 c83c 0e69 5a3d 349a 6fbd c5f7 85bc
00000110: e04f 62bd 5cfa 5c3d 6330 b0bd 719e 89be
00000120: 2060 d83b 25c3 f73d 9f21 2b3e bb8b 7b3d
00000130: 175f 483e a4b3 223e 6336 523d 8e1c e93c
00000140: 98d9 55bb 3944 03bc 4c8f 0b3e d6bb 733e
00000150: a0aa 313d 6e4c 6bbd fe56 be3b edb7 853c
00000160: ec90 b0bd 746b 4a3d d45c bfbd 3363 13be
00000170: dbfd 003e d69e a93d 6581 87bd a92f 313e
00000180: a1d4 593e ae5b 263d 2db3 1f3e 6b95 b03d
00000190: 1087 0d3d ce19 2e3d 222c b9bc b089 183c
000001a0: c6d1 d6bd a84c 27bd 3680 79bc 5137 07bd
000001b0: f25f 49bd c342 9dbd e577 2fbe a62e 423d
000001c0: 9140 b63d cbdf eebb 6cd7 353e ba20 ae3d
000001d0: 1664 2b3d 6c1c bcbd bd0a 52bc 7ab8 23be
000001e0: 8b8d 60bd a4df 923d dbb8 1fbd bf68 62bc
000001f0: 54d4 783d f1ab 393e ce43 d1bd f6ec 8dbd
00000200: 1d1b 90ba bdf0 30be 8952 07be 0b43 923d
00000210: 1eae 8dbc 5f6e b33d b042 523d 3e3c 29be
00000220: 8a96 3dbe fc89 99be 3bb7 ba3d 2ac7 dc3b
00000230: 0329 13bd a1b6 573d 5ebd aa3d e944 753c
00000240: efc7 293e 0351 283e c60b 4a3e 2449 743e
00000250: 332b 453d 96d0 623d 531f 133d 90b0 e73c
00000260: f20d ad3c a691 2dbe e664 a2bc ef72 a2bd
00000270: 2be1 c2bd e02b 58bd 85bd 1bbd 55af 4cbd
00000280: de01 12be d6c9 0fbe 5ca9 243e 3f3e 7c3d
00000290: e0c3 fc3c afa8 db3d cb53 4cbb 58ef dd3c
000002a0: ed52 293e 03a8 a43d ddba 533d f3fc 9e3d
000002b0: 6b6f 503e 6422 683e 3ef6 04bd 49e2 92bd
000002c0: 4c98 2c3d be26 12be d845 1ebe 178c 44bd
000002d0: 341f 4d3d 1ebc 92bd b3b9 aebd 0e07 353e
000002e0: e34e 633d 8c15 99bd 32ee 463e 8e47 363d
000002f0: 0dc0 f13c 0fd0 c7bd 3538 c5bd 7cdc 4739
00000300: 4e70 07be 7a0e 14bd 9286 643d 9b3e 4fbd
00000310: f2bf 25bd ca54 993d 803f 1ebe 1d58 7f3c
00000320: eb72 5e3d d508 46be b464 73bd ca6e 0bbc
00000330: cec6 71be d9b9 67be 8baf eb3b bc08 a0bd
00000340: ddd1 95bc de23 1a3e cb96 10bd d887 b7bd
00000350: 4361 cc3d 5988 debc 96ad 0e3d 5488 8f3d
00000360: 9bdb 57bd 46bc cbbd 6db3 19bd ebd3 b3bc
00000370: 2566 84bd 559e 053c 983c 15be db7a 93bc
00000380: f160 54bb d310 c43d a696 303e 6281 2e3d
00000390: 93c2 b3bc 22c2 54bc 48d7 0f3c eb89 74be
000003a0: 7509 80be daef 07be a3a4 363e d374 5c3d
000003b0: e125 983d 7697 113e e9a9 1cbd e055 99bb
000003c0: 794c 803d af64 26bd 3f5c c8bc ccd7 bbbc
000003d0: 8a87 67bb 8443 0dbd 2307 b8bc c421 bcbc
000003e0: 5c87 30bd bc05 23be 6642 13bd 249b 45bd
000003f0: 5db4 38be 90ac 15be 9851 5dbd 66a5 c0bd
-0.06025445 0.043493338 0.247115 0.026708322 0.091017246 0.051933996 -0.07231171 -0.014884463
-0.17326367 0.052850056 -0.004529867 -0.039180636 0.0959556 -0.09749245 -0.020773064 0.14452289
-0.03485259 0.10428475 0.0067308825 0.006019462 0.09430479 -0.056002308 -0.14168724 -0.06168225
-0.05144318 0.18469067 0.07866825 -0.095074214 -0.11589791 -0.011645763 -0.053053044 -0.032488506
0.06643637 -0.19775906 0.06448504 0.2607263 -0.041089714 -0.017722003 -0.11618815 0.018690502
-0.15312193 -0.08999663 0.019983232 -0.0050984733 0.015061685 -0.102325276 -0.027128732 0.06656293
-0.07450247 -0.024527736 0.18458076 -0.17044938 0.051657476 0.010961076 -0.003713022 -0.072385706
-0.1037036 0.19602814 0.011188393 0.09826256 0.053402036 0.09969262 0.19895303 0.06015698
0.024509333 0.053322844 -0.05849667 -0.016353497 -0.055251956 0.0539497 -0.08602979 -0.26878694
0.006603256 0.12097768 0.16712044 0.061412554 0.19567524 0.1588884 0.0513214 0.028455999
-0.0032630917 -0.008011871 0.13628882 0.23802122 0.04337561 -0.057445936 0.00580871 0.016323054
-0.08621392 0.04941888 -0.093438774 -0.1439331 0.12596838 0.08282249 -0.06616477 0.17303337
0.21272518 0.040614776 0.15595694 0.08622249 0.034552634 0.042505078 -0.022604052 0.009310171
-0.1048923 -0.04084459 -0.015228322 -0.03301174 -0.049163766 -0.076787494 -0.1713558 0.04740777
0.08899034 -0.007289862 0.17757958 0.08502336 0.041843496 -0.091851085 -0.012819943 -0.15988341
-0.054822486 0.07171562 -0.03899465 -0.013818919 0.060749367 0.18131997 -0.10218011 -0.06929962
-0.0010994409 -0.17279334 -0.13215078 0.07141694 -0.01729494 0.08761286 0.05133313 -0.16526887
-0.18514457 -0.29988086 0.0911698 0.0067376094 -0.035927784 0.052664403 0.083369 0.014970043
0.16580175 0.16437154 0.19731054 0.23856026 0.0481369 0.055374704 0.035918545 0.028282434
0.021124814 -0.16950092 -0.019823503 -0.07932078 -0.09515604 -0.052776217 -0.038022537 -0.049971897
-0.14258525 -0.14041838 0.1608023 0.0615828 0.03085512 0.10725533 -0.0031177874 0.027091667
0.1653554 0.08039858 0.05169188 0.0776309 0.20355003 0.22669369 -0.032461397 -0.07172067
0.04213743 -0.14272591 -0.15456331 -0.047985163 0.050078586 -0.07164787 -0.08531513 0.17678472
0.055495154 -0.07474813 0.19426802 0.044501834 0.029510522 -0.09756481 -0.09629861 0.00019060256
-0.13226435 -0.03614662 0.0557924 -0.050596815 -0.040466256 0.07486875 -0.15453911 0.015584973
0.054308813 -0.19339307 -0.05942221 -0.008510301 -0.23610994 -0.22629489 0.007192557 -0.07814166
-0.018288547 0.15052745 -0.035300057 -0.08961457 0.09979489 -0.027164625 0.034833513 0.070084244
-0.052699666 -0.0994802 -0.03752463 -0.021951636 -0.06464795 0.008155425 -0.14573896 -0.018002918
-0.0032406414 0.095735215 0.17244968 0.042603858 -0.021943366 -0.012985738 0.008779354 -0.23880737
-0.25007215 -0.1327509 0.17836241 0.05382235 0.074291 0.14217934 -0.038247976 -0.0046794266
0.06264586 -0.040623363 -0.024458049 -0.022930048 -0.003532859 -0.034488216 -0.02246434 -0.02296532
-0.04309784 -0.15920156 -0.035951994 -0.048243657 -0.18037553 -0.14616609 -0.054032892 -0.09406547

block4.1.weight f4 [12]
00000000: bcf9 843f 8589 803f f2f2 833f a758 8a3f
00000010: 3f30 613f d357 703f 7c35 803f 8583 773f
00000020: cead 763f 6e1d 743f 3f06 833f 1652 743f
1.0388713 1.0041968 1.0308516 1.0808305 0.8796424 0.9388401 1.0016322 0.9668506
0.96358955 0.95357406 1.0236281 0.95437753

block4.1.bias f4 [12]
00000000: dc05 3ebd 0b98 043e 9dbc 99bc c162 f2bd
00000010: c668 18be 7c84 303e 9009 8dbd d414 673d
00000020: cef5 a7bd ad0b 3abd 8d4e b6bd 1648 14be
-0.046392307 0.12948625 -0.018766696 -0.11835242 -0.14883718 0.17238039 -0.068865895 0.056416348
-0.082011804 -0.04542129 -0.08901701 -0.14480624

block4.1.running_mean f4 [12]
00000000: bb0d 183f 316d 67bd 33da 95bf f3a8 0bbf
00000010: ec84 10bf 0ebd 4bbc 0049 82be 7840 21bf
00000020: 9c97 11bf 82e8 f3be 14a6 7dbf c88a 6fbe
0.5939595 -0.056500617 -1.1707214 -0.5455467 -0.5645282 -0.012435211 -0.2544632 -0.62988997
-0.5687196 -0.47638327 -0.9908154 -0.23392785

block4.1.running_var f4 [12]
00000000: 169f 413f cf41 5c3f 9a14 263f 4e25 873f
00000010: e92f fc3e b1b7 193f c26f 003f 7819 2a3f
00000020: 92da 023f 4518 313f 670c 1f3f 76a9 183f
0.7563337 0.86037916 0.64875185 1.055826 0.49255303 0.60045916 0.5017053 0.6644511
0.5111476 0.6917766 0.621283 0.59633577

block4.3.weight f4 [16, 12, 3, 3]
00000000: 5077 e6bd d9c8 3cbd 6fda 6dbe e144 cbbd
00000010: a9ef 4abd 6756 f4bd c9f1 bcbc 75ac 97bc
00000020: b110 dcbc 0e4e 4c3c 6a8a 00be 497a f7bd
00000030: 48cf a03d acac 903d d802 24be 6e99 5e3e
00000040: ad60 c2bb 6f13 51bd 80ac 6c3d 930e dc3d
00000050: 0a0f 863c f35a e839 8a5c 3abc 273e 723d
00000060: d56f cebc 4755 2bbd bc94 923c d92e fb3b
00000070: 486c 443d 3010 52ba 8729 8d3d cb73 7c3d
00000080: 4aca c4bb 08da 3bbc 279b 1fbc 31ac a3bd
00000090: 4ecf 8a3d f378 b43c ba16 973c 941a 7a3c
000000a0: 2edf a0bd 7039 23bd 890f 5bbd c9ae 0bbd
000000b0: 14ce c2bd 9a68 613d 6fa3 df3d b626 a839
000000c0: 1f82 ccbc 199d 9f3d 1f19 dcbd ace1 8a3d
000000d0: 6e94 8e3a c205 8dbc fe69 373b 6dac d9bd
000000e0: 296b f6bd b6d8 803b 01f3 63bc ea47 60bc
000000f0: 424d a73c 804c f2bd feb0 3d3c 580e bbbd
00000100: bde4 33bc 0216 68bd 3a58 6dbd c670 ba3c
00000110: 0009 993d 99a5 9d3d c561 e13d e89a 8d3d
00000120: 2047 613d d6c6 b93c 2a9b a8bd dd2a f33d
00000130: a563 49bc 8c47 34bc c24b 993d d5dd de3d
00000140: fc45 efb9 3f19 9fbd 5422 083a e8b7 86bc
00000150: 2920 8dbb 9e3f e5bc 710d a43d 52de e4bd
00000160: 3ff0 ae3d 9b01 6ebd af32 783d 7433 a6bc
00000170: c18d afbd f4fd b43d 7edf 9cbd 2a10 a4bd
00000180: 8ace a2bd 73fb 813d 1197 9ebd 6131 7e3d
00000190: 1842 7b3c 985f dc3b 986f 973d eeee 893d
000001a0: 0878 6f3d 92e7 d23d bca0 333c 1bd3 343d
000001b0: 686b be3d 8ee3 993d 5c30 cbbd 3b7d eabd
000001c0: 1ada b1bd 146d c33c 4c88 a23d 7256 8e3c
000001d0: 2353 33bb ea5f 2fbd c11f 8cbd e02a dbbd
000001e0: b34a 9cbc 31bc 283d 2fba af3d 9336 91bd
000001f0: 7f52 813a aa48 cc3d 807a 72bc c8d1 d1bd
00000200: e244 61be 9e2f 7d3e f144 74bc ca06 3bbe
00000210: 76f2 a13e 072d c93d a012 f4bc 1926 85bb
00000220: 9124 063d fcb8 33bd 3edf 0f3e 2ff1 223e
00000230: d087 a73d a6ac 973e a9c8 fe3d ad50 623d
00000240: 1789 2b3e 67db f439 2517 debc 11cc 7a3d
00000250: d448 f43d a862 1cba 38f5 a23d d296 0a3a
00000260: 0f27 b63d 8256 003a 9327 b03d 8ccd d23b
00000270: b1ec bc3c 541f 3eba 460e ab3a 6ec2 06bd
00000280: 46c3 4ebe 5065 a7bd be4d c3bd f3f3 8dbd
00000290: cbd1 61bd 8841 793c 4d46 823c a03e b0bd
000002a0: 95bc b93d 5e68 9cbd 7aa1 20be 8566 bfbb
000002b0: b5c8 013c b4f5 103d 41fc 34bd 893c cebd
000002c0: 6dba b9bc cddd 0bbe c510 03be b11d 2cbd
000002d0: 0161 5f3e 2577 c03d 0d68 5a3d a498 7b3d
000002e0: e784 bbbd 0b42 0bbe 10e0 82be 40f9 5bbe
000002f0: 5285 8abd 6f2d a7bd 059e 1abe 453d b7bc
00000300: cfed db3c 6125 08bd 3d4c 06bd 3fe1 73bd
00000310: 0eb9 883d ab85 c93b d38e 243d 5c84 de3c
00000320: 5077 34bd 9525 d63b 3a5c 283c abd4 4bbc
00000330: c070 403d 3d2c 6c3d 9dde ac3d babb 56bd
00000340: 91a1 5e3c 2f04 5abd 3da0 063d 0925 88bd
00000350: 7818 0abd b309 0a3e 108d c33d 0e2d d8bd
00000360: 0b3f dd3c debc f0bd 73a0 ffbd db2d 583c
00000370: 3340 d33b fa57 1abe 9159 3dbe 1daa 93bd
00000380: 4be4 07be c60f 9dbc 7a9b e8bc 8272 d63c
00000390: 9457 ddbd ce5d 063d a66d de3d cd83 913b
000003a0: 58a9 113b 97bf 443e 28ad 593d 8ed2 9dbc
000003b0: e27d 1abe d3d3 ad3b b413 4cbc e3d3 5dbd
000003c0: 7ffa 593c 0f84 77bd 969d a0bd 1c69 8bbd
000003d0: f919 ee3b e8de 63bd 1c11 9abc bf53 773c
000003e0: 28df d33c 2b20 40bc 0188 cbbb 1ec7 543d
000003f0: 4833 043e b53f 1f3e 9348 533d 37f3 333d
-0.11253226 -0.04608998 -0.23227857 -0.09925247 -0.049544964 -0.119305424 -0.02306451 -0.018514851
-0.026863428 0.012469782 -0.12552801 -0.12083871 0.07852036 0.070641845 -0.1601671 0.21738216
-0.005931935 -0.051043924 0.057781696 0.10744967 0.016364593 0.0004431825 -0.011374602 0.059141304
-0.02519981 -0.041829374 0.017893188 0.007665497 0.047954828 -0.00080132764 0.06892686 0.061633866
-0.00600556 -0.011465557 -0.009741581 -0.07991827 0.067778215 0.02203033 0.018443454 0.015265126
-0.07855068 -0.0398497 -0.053481612 -0.034102235 -0.095119625 0.055031396 0.10919844 0.000320723
-0.02496439 0.07793636 -0.10746979 0.06781325 0.0010877976 -0.01721466 0.002798676 -0.10628591
-0.12032158 0.003932084 -0.013912917 -0.013689021 0.020422582 -0.118309975 0.011577843 -0.09133595
-0.010979828 -0.056661613 -0.057945468 0.022758853 0.0747242 0.07697601 0.11004976 0.06914312
0.05499947 0.02267782 -0.0823272 0.1187341 -0.0122918235 -0.011003386 0.07485153 0.10882155
-0.00045637775 -0.07768487 0.00051931036 -0.016445115 -0.0043068123 -0.027984437 0.08010376 -0.11175217
0.08541917 -0.058107 0.06059521 -0.020288207 -0.08571959 0.088375 -0.07659815 -0.080108956
-0.079495504 0.06346788 -0.077436574 0.06205881 0.015335582 0.006725263 0.07394332 0.06735025
0.05846408 0.10298075 0.010963615 0.04414664 0.0929783 0.07514106 -0.09921333 -0.11449667
-0.08684178 0.023855723 0.07936153 0.017375205 -0.0027362786 -0.04281608 -0.06841994 -0.10701537
-0.019078588 0.0411951 0.085804336 -0.07090487 0.0009866505 0.09974797 -0.014799714 -0.10245091
-0.21998933 0.24725196 -0.014909015 -0.18264309 0.31630296 0.098230414 -0.029794037 -0.0040633795
0.032749716 -0.043877587 0.14050004 0.15912317 0.08180201 0.29623908 0.12440617 0.05525272
0.16751514 0.00046702774 -0.027110646 0.06122977 0.11927953 -0.00059656287 0.07956928 0.0005286756
0.088941686 0.0004895703 0.08601298 0.0064331945 0.023062082 -0.0007252593 0.0013050518 -0.032900266
-0.20191678 -0.08173621 -0.095363125 -0.06931295 -0.055131715 0.015213378 0.015902663 -0.08605695
0.09069172 -0.07637094 -0.15686598 -0.0058410787 0.007921387 0.03539057 -0.04418588 -0.1007014
-0.022671903 -0.13658829 -0.12799366 -0.042020503 0.21814348 0.09397725 0.053321887 0.061424866
-0.091562085 -0.13599412 -0.2556157 -0.214818 -0.0676371 -0.08162963 -0.15099342 -0.022368083
0.026846794 -0.033238772 -0.03278755 -0.059540983 0.066759214 0.0061499677 0.04017527 0.027162723
-0.044059098 0.006535242 0.010275895 -0.012440841 0.046982527 0.057659376 0.084408976 -0.052425124
0.013588325 -0.053226646 0.03286766 -0.06647689 -0.03371474 0.13480262 0.0954839 -0.105554685
0.0270076 -0.117547736 -0.12481775 0.013194527 0.006446862 -0.15072623 -0.18491198 -0.07210181
-0.1327068 -0.01917256 -0.02839445 0.026177648 -0.1080772 0.032804303 0.108607575 0.0044407607
0.002222618 0.1921371 0.05314365 -0.01926544 -0.15087083 0.0053047924 -0.0124558695 -0.05415715
0.013304352 -0.060428675 -0.07842557 -0.068071574 0.00726628 -0.0556325 -0.018806987 0.01509565
0.025863245 -0.011726419 -0.0062112813 0.051947705 0.12910187 0.15551646 0.051582884 0.04393312

block4.4.weight f4 [16]
00000000: 213c 743f 5daf 773f 8c55 863f 4fd2 813f
00000010: c082 7f3f 06e0 813f 3892 6f3f 0e74 723f
00000020: 346a 7b3f 5c84 6e3f b83f 743f 0c40 7a3f
00000030: f637 863f 528c 7e3f a0b1 853f d04f 723f
0.9540425 0.9675196 1.0494857 1.0142306 0.99808884 1.0146492 0.9358249 0.94708335
0.9820893 0.93170714 0.9540973 0.9775398 1.0485828 0.9943286 1.0444832 0.94653034

block4.4.bias f4 [16]
00000000: 41be c2bc 89ef 66be 545c 88bd c677 0cbe
00000010: 2f9d 053c da41 73bd 1279 89bd e847 b1bc
00000020: 436c 25bd b6a7 e9bd f7bd e9bd 8027 b4bd
00000030: b18e 11be c45c e4bd d378 843c 6770 9fbc
-0.02377236 -0.22552313 -0.06658235 -0.13717565 0.008155151 -0.059388973 -0.067125455 -0.021640733
-0.04038645 -0.114089414 -0.11413186 -0.087965965 -0.14214589 -0.11150506 0.016170895 -0.019462777

block4.4.running_mean f4 [16]
00000000: b2bf 3fbe 45b4 90bd 8bbc 29bf c0ad d5be
00000010: 2600 9abf fd84 78bf 4882 25bf 5208 20bf
00000020: 133d 29bf 1405 da3d 53a5 51bf 205e d9be
00000030: 1d46 9abf b266 65bd 99f6 86be e934 a13e
-0.1872547 -0.07065634 -0.6630332 -0.41734123 -1.2031295 -0.97077924 -0.6465192 -0.62512696
-0.66108817 0.106455 -0.8189289 -0.42454624 -1.2052647 -0.05600614 -0.26360014 0.3148568

block4.4.running_var f4 [16]
00000000: 02a6 913e 3e3c 533f 8038 143f 88f6 253f
00000010: 2e09 e43e 4ff0 163f e1a1 b23e 8626 0e3f
00000020: fbd3 153f ac78 c73e cabc 443f 7ff7 ba3e
00000030: ec2b 153f 60d6 1e3f 41e0 2b3f fb21 553f
0.28446966 0.825138 0.5789871 0.648293 0.44538254 0.5896043 0.3488913 0.5552753
0.5852658 0.38959253 0.7685057 0.3651695 0.58270144 0.6204586 0.6713906 0.83254975

block5.0.weight f4 [16, 16, 3, 3]
00000000: 7f6f 6d3d 56e7 a9bc 8b66 593c cbcc 0fbc
00000010: 75c3 5bbc 1dd8 3b3d d203 a7bd 0340 913b
00000020: 06b2 c8bb fc5f 8f3d ffeb 003c 7c5c 5e3d
00000030: 29e7 a23d 88f9 61bd 5ae9 633d d222 ff3c
00000040: e630 71bd 089a e539 99a5 60bd bfd8 1cbd
00000050: 4093 863c bda5 e0bc c1fc 35b9 9df0 f7bd
00000060: 215c 32be e271 babd 676d 10be 2a63 37bd
00000070: c1f3 f33b cc27 ce3c 8535 9e3b c4df 05bd
00000080: 12e9 e1bc ec15 0f3d f096 f3bc b1aa a2bc
00000090: 254f 603d 3882 7c3d 8f59 89bd 233d 5b3d
000000a0: 6db7 d43c 3469 22bd 744d 04bd 1d8e 6a3d
000000b0: feb6 a9bd 3018 f33c 61c7 8d3c 1475 c13d
000000c0: 40a3 1c3c 9b31 6d3b 5c87 993d a624 8abe
000000d0: 6717 29be ff01 443a c2f7 10be ce2f 55bc
000000e0: 5afe c8bc d122 6dbd 50cb a3bc 247e 30bd
000000f0: 484b 743c 5561 47bd 7557 8ebd 5834 4a3d
00000100: f8c7 5f3d beb2 b13d 06b7 6b3c 32b0 f13d
00000110: 9d0b db3d 08fd 0c3e 490d 233e 2a54 5b3e
00000120: 799c 39bd a804 15bd 70d3 28bc beca 90bd
00000130: 0565 2abc eb30 a4bc 974e 35bd e926 c23c
00000140: 9231 c83d 836b b33d 1c6f 4abc 3f0b 2b3d
00000150: ebcb 543e 3366 af3d bde6 963d a27b 3b3e
00000160: b80e ab3c 0ab4 bf3d ac1e 59bd 4adf d5bc
00000170: bf6c 5cbb 1cb5 48bd 7f9e aaba 7d9c b83d
00000180: 0abd b5bd e49a bcbc 919d 103c 0e8e 7cbc
00000190: 7767 cebd c10d 3fbd c7f3 b0bc 1a4f b9bd
000001a0: 45b7 123d f142 0abe 9393 13be 51f5 5b3d
000001b0: ced4 74bd 1577 0b3c 3d1f 8db9 bff4 85bc
000001c0: 02a6 4fbd e9b8 7a3d c383 01bc 6014 443c
000001d0: 9ea7 d83d 971c f33c eee3 2c3d 3492 883c
000001e0: e313 4ab9 f465 a93c cd2b b7bd 206b 4e3d
000001f0: 795c 803b 76b6 babd d816 9d3b e94b 8cbd
00000200: afaa 8b3d f337 80bd 5191 d13c 6252 cb3d
00000210: 937f 2ebe e492 4d3d 783b 213e 2e5f 8f3d
00000220: 0811 003d 3eff 093d 6f81 16bc f659 f43b
00000230: ed7e 843d cb96 09be 69d6 c0bd c405 d7bb
00000240: 063b 783d 74ce c03c 3e44 0c3d 499e bdbc
00000250: 4705 ad3c 56b5 7dbc 7f80 11bd 7be3 a2bc
00000260: 888a 963b d147 513c 4d97 6cbd aab5 a9bd
00000270: 7139 cc3c e628 163d 876e 9cbc 6efc 32bc
00000280: 50fc 153d bd28 853c ed29 1abd a962 9ebd
00000290: 3239 a7bc c7c6 c1bc 6d60 ccbc 23f4 a2bd
000002a0: 59f4 903d ccd3 9a3d 17ca 84bc 87a2 a53b
000002b0: a183 7d3b 7c8e aabd d29d 303d 49cf 04bd
000002c0: e3db 1bbd 062d 89bd c0ca 9abd 0ebb 43be
000002d0: 52c5 c4bd 08e9 27bd 1bde c6bd f260 843d
000002e0: 7c59 42bc b575 023d 2ea1 f93d 2e34 0e3e
000002f0: e079 ce3d 34c8 28bc 45b4 8f3d bbb4 ebbc
00000300: 8b88 5b3d c7bc 443c cbea 8939 61de c43c
00000310: 2232 37bd 6348 1cbc e5ac dd3d e422 7d3c
00000320: a633 75bd 1193 8c3d 1eeb 233c 84b0 cabd
00000330: 55cf f7ba aeba 7fbd 7749 83bd 1913 7839
00000340: 64f5 34bc 4b66 d33c 2b3b 623d 1245 023b
00000350: f561 e53d 0434 78bc 592f 153b 0462 83bb
00000360: 50e7 c83c 97fe 73bd e6c0 5ebd b044 143c
00000370: 5f28 023d 6b98 863d 5eab aebc a049 c7bc
00000380: 59e0 09bc 92ad 41bc 179d c53d ae76 013e
00000390: 493f 293d 008e 4b3d b010 083d 62ce 40bc
000003a0: 24df c03d be0d 263d 9bca d43d ea23 b23d
000003b0: bd24 5bbc e029 1b3e 917b c33d 7f60 393d
000003c0: d5e8 6a3e 8dd2 ef3d e552 573e 3031 263e
000003d0: 93f8 f23d 929b 573e 1c7d 363d a570 30bd
000003e0: bb19 c83d 0159 e63d c5f9 8a3c 0dd1 203d
000003f0: 67a7 27bd 06c8 36bd 6b34 8a3c e291 c43c
0.05796766 -0.020740192 0.013269077 -0.008776854 -0.0134133 0.0458604 -0.081550255 0.0044326796
-0.0061247377 0.070007294 0.007868766 0.05428742 0.079542466 -0.055169612 0.055642463 0.031144533
-0.058884524 0.00043793046 -0.054845426 -0.038292643 0.016427636 -0.02742278 -0.00017355663 -0.1210644
-0.17417957 -0.09103753 -0.14104234 -0.044772305 0.007444829 0.025165461 0.0048281574 -0.032684103
-0.027576957 0.034933016 -0.029735059 -0.019856783 0.054762978 0.061647624 -0.06706535 0.0535251
0.02596637 -0.03965111 -0.032300428 0.057264436 -0.08286856 0.02967462 0.017306985 0.09446159
0.009560406 0.0036192897 0.07496521 -0.26981086 -0.16512834 0.0007477104 -0.14157012 -0.013011886
-0.024535347 -0.05789453 -0.019994408 -0.043089047 0.014910527 -0.048676807 -0.06950275 0.049366325
0.054634064 0.086766705 0.014386898 0.11801185 0.106955744 0.13768399 0.15923037 0.21418825
-0.04531524 -0.036381394 -0.010304317 -0.0706992 -0.0104000615 -0.020042857 -0.044264402 0.023700194
0.0977508 0.087607406 -0.012355592 0.041758772 0.20780914 0.08564415 0.073682286 0.18308881
0.020881042 0.093605116 -0.053007767 -0.02610745 -0.0033634154 -0.049000844 -0.0013017206 0.09014223
-0.08873947 -0.023023076 0.008826629 -0.015414728 -0.10078328 -0.046643976 -0.021600617 -0.090482906
0.03581931 -0.13502099 -0.14411764 0.05370075 -0.05977326 0.008512278 -0.0002691689 -0.016352056
-0.050695427 0.0612115 -0.00790495 0.011967748 0.105788454 0.029676719 0.04220956 0.016671278
-0.0001927163 0.020678498 -0.08943901 0.05039513 0.0039172736 -0.09116833 0.004793983 -0.06850416
0.06819665 -0.062606715 0.025581988 0.09927823 -0.17040853 0.050188914 0.15745342 0.07000576
0.031266242 0.033690684 -0.009186133 0.0074570132 0.06469522 -0.13436429 -0.094158955 -0.0065619666
0.060603164 0.023535945 0.03424477 -0.023146765 0.02112068 -0.015485128 -0.035522934 -0.019883862
0.004594151 0.01277347 -0.05776148 -0.08286603 0.024929734 0.036660098 -0.019095672 -0.010924442
0.036617577 0.016254777 -0.03763764 -0.07733662 -0.020413015 -0.023654355 -0.024948323 -0.07956722
0.070778556 0.07559928 -0.016209645 0.005054775 0.0038683193 -0.08327958 0.04311926 -0.032424245
-0.038051497 -0.06698041 -0.07558203 -0.19114324 -0.09607948 -0.04099372 -0.09710332 0.06463803
-0.011862155 0.031850535 0.12188946 0.13887092 0.100818396 -0.010301638 0.070168056 -0.028772702
0.053597014 0.012007899 0.0002630561 0.02403182 -0.044725545 -0.009538743 0.10823993 0.015450213
-0.05986371 0.06863988 0.010004787 -0.09896949 -0.0018906394 -0.06243389 -0.06410497 0.00023658237
-0.011044834 0.025805613 0.05523221 0.0019877595 0.112003244 -0.01514912 0.0022763817 -0.004009487
0.02452436 -0.059568968 -0.05438318 0.0090495795 0.031776782 0.0657204 -0.021321949 -0.0243271
-0.008415305 -0.011821168 0.09649103 0.12642929 0.04132012 0.04969597 0.03321904 -0.0117679555
0.09417561 0.04054045 0.103902064 0.08698256 -0.013375458 0.15152693 0.09545053 0.04525804
0.22940381 0.11710081 0.21027716 0.16229701 0.11863818 0.21055439 0.044552907 -0.043076176
0.09770533 0.11247445 0.016964803 0.039261866 -0.04093113 -0.04462435 0.016870698 0.023995344

block5.1.weight f4 [16]
00000000: bfc5 1340 28a8 0240 2ee5 0740 47f2 f53f
00000010: 8d41 f13f 50ba 0440 2109 1040 e78d e03f
00000020: d63b e93f 9bf3 0540 6d55 ef3f d4e7 0540
00000030: 9e63 0340 6adb 0440 4848 0640 8fcd f23f
2.3089445 2.0415134 2.123363 1.9214562 1.884813 2.0738716 2.2505572 1.7543305
1.8221385 2.0929935 1.8697945 2.0922747 2.0529552 2.075892 2.0981617 1.8968982

block5.1.bias f4 [16]
00000000: 89aa 453f 6b0f 0d3f b227 2b3f 8139 0d3f
00000010: 3bd1 ef3e 3719 193f 5b86 2c3f 96a1 f03e
00000020: 3f35 c73e f50b 2a3f 1004 f03e 0bdc 043f
00000030: b807 323f 343a 133f 5f81 1b3f 6938 d73e
0.7721334 0.5510165 0.66857445 0.5516587 0.46839318 0.598041 0.6739251 0.4699828
0.3890781 0.66424495 0.468781 0.5189826 0.6954303 0.57510686 0.6074428 0.42035225

block5.1.running_mean f4 [16]
00000000: 23c7 02bd 1e91 413f 8ca5 4f3e 68e4 aebe
00000010: 8c54 4fbd e379 4e3e 8e08 ba3e 0257 87be
00000020: 6577 8d3d e718 85be 4e40 123e 4116 0dbf
00000030: 577d dfbe 6c89 c93d e6a9 163e 19db d03e
-0.031928193 0.75612056 0.20277995 -0.34158635 -0.05061774 0.20163684 0.36334652 -0.2643357
0.06907538 -0.2599556 0.14282343 -0.5511208 -0.43650314 0.09840664 0.14713249 0.40792158

block5.1.running_var f4 [16]
00000000: 149e 1a3f 1517 cf3e 802c 023f db3e 073f
00000010: cbd5 c13e f433 233f 28e1 063f 2b30 c13e
00000020: b4a1 d13e 15ec 193f dc72 e63e 1beb e83e
00000030: 53b1 1d3f 4a1b 0a3f 4495 033f 7fa4 e73e
0.6039746 0.40447298 0.5084915 0.52830285 0.37858424 0.6375115 0.5268731 0.37732062
0.40943682 0.6012586 0.45009506 0.4549187 0.615987 0.5394789 0.51399636 0.45242688
