savedmodel/WithL1_NoL2 with BN classifier.pt (torch, 48134 bytes, 36 tensors)

block1.0.weight f4 [8, 1, 3, 3]
00000000: 6bf3 c03e ff68 9ebe 9476 9d3c c2aa 7e3e
00000010: ff50 27bf 2664 cc3e d34d f8bd 235b bdbd
00000020: 3316 c33d a8d1 98be 1ddd ce3e 4629 9c3e
00000030: 656e b33e d96a 433e bc82 07be 1fb6 97bd
00000040: c5dc 2bbe 603a 64be 751a 113f 6584 973e
00000050: eaf0 833c ef7e 93be 1a04 3bbe 6773 4abe
00000060: 7ca9 a5be 74ee 33be b613 333e 913f 033e
00000070: 1a79 fcbd 9ceb 9b3e 5f7a c63b 4f86 dc3e
00000080: d87f a13e 3622 04bf 0a12 08bf c0d2 bbbe
00000090: bbcb e43e dd63 bb3c 6830 f4bd 66d3 1d3c
000000a0: 01b1 d33e b558 a9be de5c 583e e7aa 273e
000000b0: 0303 fbbd a7bf 1e3e 4297 53be 35dc 80bb
000000c0: bd79 d7bd 3650 07be 8fc9 a1be d409 6fbe
000000d0: 99e6 e73c eb3d c8bc 0d18 023e 9b5b 953e
000000e0: 7a53 c2bd b918 abbe 00ab a13e 67f6 a03e
000000f0: ec7d f3be 7005 35bd 871b 8b3e 951d ea3e
00000100: da84 bbbd 4f5b 79be 0519 f03d 76fe a7bd
00000110: 5c80 c0be 2bb7 25be 9f8a e5bc c7c1 5abe
0.37685713 -0.3093948 0.019221582 0.24869826 -0.65357965 0.39920157 -0.12124219 -0.092458986
0.095257185 -0.29847455 0.4040307 0.3050024 0.35045162 0.19083728 -0.13233465 -0.07407784
-0.16783436 -0.22287893 0.56680995 0.29593197 0.016106088 -0.2880778 -0.18263283 -0.19770585
-0.3235587 -0.17571431 0.17487988 0.12817217 -0.12327786 0.30453193 0.0060570682 0.4307122
0.3154285 -0.516147 -0.53152525 -0.36684227 0.44686684 0.022874767 -0.11923295 0.009632921
0.4134598 -0.3307549 0.21129176 0.16373788 -0.12256434 0.15502797 -0.20663169 -0.0039325007
-0.105212666 -0.13214192 -0.3159909 -0.23343593 0.0283082 -0.024443587 0.12704487 0.29171452
-0.09488578 -0.334173 0.31575775 0.3143799 -0.47557008 -0.04419464 0.2716944 0.45725694
-0.09156199 -0.24351238 0.11723522 -0.082028314 -0.3759793 -0.16183154 -0.028020201 -0.21362983

block1.1.weight f4 [8]
00000000: dd43 753f 5b5b 6a3f 47ae 8f3f a542 8a3f
00000010: 506a 473f fe10 883f 26ea 6a3f f88e 8b3f
0.95806676 0.9154565 1.122506 1.0801588 0.77896595 1.0630186 0.9176353 1.0903006

block1.1.bias f4 [8]
00000000: 2bab 9abd 9859 793d cae5 fcbd f513 133d
00000010: 825d c73d 2dcb b13d ae08 a2bd 3d12 083e
-0.07552179 0.06087646 -0.12348516 0.035907704 0.09734632 0.08681331 -0.07911812 0.13288207

block1.1.running_mean f4 [8]
00000000: 5d9c 723c 2c5f ffba 8d3c ee3b cfd3 96bc
00000010: d9f6 243c 851b 44bc 2b91 f0ba 48dc 29bc
0.014807788 -0.001948332 0.007270402 -0.018411545 0.010068619 -0.011969452 -0.001835381 -0.010367461

block1.1.running_var f4 [8]
00000000: 5b54 3d3e 6c30 c53e 370f d53e 2cd8 223f
00000010: a41d 233f ddb0 0d3f 3ed8 e93e e190 303f
0.1848921 0.38513505 0.4161317 0.636111 0.63717103 0.55347997 0.45672792 0.6897107

block2.0.weight f4 [8, 8, 3, 3]
00000000: 24ca c6bd 940f dc3c e9a5 943d 6eb6 2cbd
00000010: 9125 943d 448b 933d 686c 46be 5f8c ccbd
00000020: 8a00 fe3c 6a25 a7bd aef5 b13d e1d2 edbc
00000030: 91fd 9039 32ae 28be 4f63 33be 85ee 82bc
00000040: 8094 63be ef46 78bd 8d30 b0bd a311 4ebe
00000050: 475d 033e 4135 e4ba 3eb1 a5be 7016 26be
00000060: 81d9 4e3d a57c 04bd e042 97bd 5292 c0bd
00000070: 97ac 47bd 9803 2bbe 6644 2f3a 4449 c73c
00000080: ef12 adbd a27e 093c fd08 113d 9566 4abd
00000090: de1c 733e 6b62 ed3c 4ddc 2e3d 4914 263e
000000a0: 5361 833e cf5a e5bd 7183 853d 4cd7 f43d
000000b0: 64f0 fc3b 1748 42bc b98c 27be 73a7 1ebe
000000c0: 9f7a 16be f8de 6cbd 94a6 de3c dd47 a1bd
000000d0: 1884 5abc 66b9 dabd b86c 9c3c 18ea 80bd
000000e0: 0fbb 0cbe a636 c13e e09f 243b 57a2 33be
000000f0: 85d7 493e 4498 a93e 6328 b03d ec25 943d
00000100: 6e9c a4bd 86bf 0fbe 8cf8 62bd 43a8 28bd
00000110: 776f dcbd a222 713c 7ac4 07bd 0a61 8a3c
00000120: 410d 103e ef98 903c 1f6d 963d e1a4 143e
00000130: f564 3a3d 9c18 9a3d a4f5 80bd afd6 843d
00000140: 1893 3d3d ee3b 03be ec26 84bd 1d96 b73c
00000150: a205 10be b274 29bd c536 163e 6f2b 36be
00000160: ad9a 19be 2b42 89bc 2bae 26bd e525 b4bc
00000170: 5e8a 53be 76af e7bc d833 52be ae37 83bd
00000180: b1ff 27be 18c2 36be 7083 afbd d5c6 d1bd
00000190: d77d 77bd 7244 1d3d ba29 803d 0f83 143d
000001a0: af52 c83c 568d d6bc e7b5 47bd 41cd 193e
000001b0: f0d3 f4bc 6425 1cbd 6c0e 3ebd ea8e 7bbd
000001c0: d8c6 81bd a0b8 9f3d 9cbc 06be 91f5 13be
000001d0: 4005 57bc 1f00 2cbd ea2d 063d 8ede 8dbd
000001e0: 7d1a ea3c fd66 353d d47d a53d f856 093c
000001f0: 8726 e83d 3e06 993d 9782 7d3d bae9 0b3c
00000200: 22a2 363e 20b1 c4bd 3267 4b3e 4f87 0b3e
00000210: 8e4f 70bc 52e2 563d e355 823e d910 903d
00000220: 61fc 0dbc cccb 133b ee2d ca3d af53 b53d
00000230: d788 bfbd d1c1 213e 0bab 303e 90c0 613d
00000240: ed08 873d 425f 533d 02dc 8cbc d4e9 e53d
00000250: c56a b4bd d79e 373e 014e b5bc f525 daba
00000260: e8ee a73e bd3c fabd 2789 4bbe 9bcd 08bc
00000270: 97d7 3ebe 75af 3bbc e816 383e 24b0 ffbd
00000280: 9b29 833e 36a1 65bd 42ff 413e ab1f 773d
00000290: e195 debd 552b da3d 08d1 c03d 9b06 50be
000002a0: bb89 b4bd 524d 993c 414e 683d a711 17bd
000002b0: 37f9 15bd 74c6 afbd 82d8 34be 55ed e2bd
000002c0: 427c d3bd e473 8a3d 0e19 51bd db2b 44be
000002d0: dbe5 22be e6f4 38bc d480 ff3d 794b 40be
000002e0: 302a 7f3c 2c4b 133d f5ff babd d663 d8bd
000002f0: 2530 41bc 8e1b 813d 4e23 3abe 3a51 72bd
00000300: 2ae2 8cbd 98b5 1bbe 8a0d 78bd 2102 31be
00000310: e39e 1cba 3e7f 2ebe e94b b63c f353 063e
00000320: 12a2 a73d 3cd3 76bc aa34 f1bd 791c 0bbd
00000330: 5911 80be 02af 7cbc cd45 7f3d 36d0 debd
00000340: 803a 28be 4178 5d3d 3da5 b43c e74a 5bbd
00000350: 6ad1 b5bc cb90 5cbd 08fc 5cbe e9a2 633e
00000360: 3155 91bd 82e6 4e3b 29f4 a13c 4c3f 01be
00000370: b601 bf3d 3999 123e 481d 8d39 2c6a b53c
00000380: 7fc8 f23c f27f acbd 5617 4abd c7a6 223d
00000390: 6e7e 3abd f558 cabd 6781 853d 8e76 4cbd
000003a0: 57d3 28be 1db9 40bd 1fdf 17be dbff cbbc
000003b0: b785 b8bd b0e7 e9bc 491f a2bc daf9 68bd
000003c0: d993 82be 72fa b1bd 9f0d 513c 3d60 0bbe
000003d0: 7c40 d2bd f4a1 45bd 0d79 b63c 4c3f 21bd
000003e0: a301 02be 20c0 93bd ca43 46bd 1316 a7bd
000003f0: 9095 923d 0313 89bd 1850 9abd 06c6 6d3e
-0.09706524 0.026862897 0.07258207 -0.042166166 0.07233728 0.07204297 -0.19377291 -0.09987711
0.031006116 -0.08161433 0.08689438 -0.029031219 0.00027654742 -0.164727 -0.17518352 -0.015982876
-0.22224617 -0.060614523 -0.0860301 -0.20123915 0.12828551 -0.001741089 -0.32361788 -0.16219497
0.050500397 -0.032345433 -0.07385802 -0.094029084 -0.04874858 -0.1670059 0.00066859124 0.024326928
-0.08450877 0.008392008 0.035408963 -0.049414236 0.2374148 0.028977593 0.042690564 0.16218676
0.2566019 -0.11198961 0.06519211 0.11955127 0.0077190865 -0.011858008 -0.16362275 -0.15493564
-0.14695214 -0.057829827 0.02717904 -0.07875035 -0.013337158 -0.10679893 0.01909481 -0.0629465
-0.13743232 0.37737006 0.0025119707 -0.17542396 0.1971112 0.33123982 0.08601453 0.072337955
-0.08037649 -0.14037904 -0.055412814 -0.041176092 -0.10763448 0.01471773 -0.03314636 0.016891975
0.14067556 0.01765105 0.07345032 0.14516021 0.045506436 0.07524225 -0.06296852 0.0648626
0.046282858 -0.1281583 -0.06452736 0.022410447 -0.14064649 -0.041371055 0.1466933 -0.17790006
-0.1500041 -0.016755184 -0.040693443 -0.021990726 -0.20658252 -0.028281908 -0.2052759 -0.064071044
-0.16406132 -0.17847478 -0.085699916 -0.10243002 -0.060422745 0.038395353 0.06257959 0.0362578
0.02445349 -0.026190441 -0.04875746 0.15019704 -0.029886216 -0.038121596 -0.046400473 -0.06141559
-0.063367546 0.07798886 -0.13157886 -0.14449145 -0.01312381 -0.041992303 0.03275863 -0.069272146
0.028577084 0.04428767 0.080806404 0.008382551 0.113354735 0.07471894 0.06189212 0.0085396115
0.17835286 -0.096040964 0.19863585 0.13625835 -0.014667405 0.05246193 0.2545615 0.070344634
-0.008666129 0.0022551892 0.09872042 0.08853852 -0.09352272 0.15796591 0.17252748 0.055115283
0.06593499 0.051604517 -0.017194752 0.1122624 -0.08809427 0.17931686 -0.022131922 -0.0016643392
0.32799459 -0.12218616 -0.19876538 -0.008349801 -0.18636928 -0.011455406 0.17977488 -0.12484768
0.2561768 -0.056061946 0.1894503 0.060332935 -0.10868431 0.10652796 0.094148695 -0.2031502
-0.088153325 0.018713627 0.056715254 -0.03688207 -0.036614623 -0.08582774 -0.17660716 -0.11080424
-0.10326435 0.06760386 -0.051049285 -0.19157355 -0.15907995 -0.011288857 0.12475744 -0.1877879
0.015574023 0.03596036 -0.09130851 -0.10565917 -0.011791264 0.06304084 -0.1817753 -0.059159495
-0.06879075 -0.15205991 -0.060559787 -0.17285968 -0.00059746037 -0.17040727 0.022252994 0.13117962
0.08185209 -0.015065011 -0.11777623 -0.0339627 -0.25013235 -0.0154225845 0.062322427 -0.10879557
-0.16428566 0.05406976 0.022051448 -0.05353823 -0.022194583 -0.053849023 -0.21580517 0.22230114
-0.07096327 0.0031570499 0.019769745 -0.12621802 0.09326498 0.14316262 0.00026915432 0.022145353
0.02963662 -0.08422841 -0.04933866 0.039709833 -0.04553073 -0.098802485 0.06518822 -0.04991775
-0.1648687 -0.047051538 -0.14831208 -0.024902275 -0.09009879 -0.02855286 -0.019790309 -0.056878902
-0.25503424 -0.08690347 0.012759595 -0.1361093 -0.10266206 -0.048250154 0.022274518 -0.039367005
-0.12695937 -0.07214379 -0.048404492 -0.08158507 0.07157433 -0.06693079 -0.07534808 0.23220071

block2.1.weight f4 [8]
00000000: 337a 7e3f 3596 913f bcd1 813f c064 873f
00000010: 1aa8 5d3f 956a 493f 49cc 953f 7772 6a3f
0.9940521 1.1373965 1.0142131 1.0577621 0.8658463 0.78678256 1.1702968 0.9158091

block2.1.bias f4 [8]
00000000: 4bbe e03c 44db 10bc 20f1 3fbd 45ee 43bc
00000010: 0152 9a3d f5fd b03d 89ff cb3d 92fc 193c
0.027434489 -0.0088413395 -0.046860814 -0.011958663 0.07535172 0.086421885 0.09960849 0.009398596

block2.1.running_mean f4 [8]
00000000: 52e6 0ebf c3de 503e d7d0 53bf b94f 0abf
00000010: 67f0 fc3d 4740 fb3d 56ed 9ebe fa0f 7a3f
-0.5582019 0.20397477 -0.8274054 -0.540279 0.123505406 0.12268119 -0.31040448 0.9768063

block2.1.running_var f4 [8]
00000000: 5f77 5a3f 28c7 3a3f f455 1a3f a4aa 103f
00000010: 0c3c 893f d3f1 113f 0837 ff3e 46f0 8f3f
0.85338396 0.7296014 0.60287404 0.56510377 1.072145 0.5700962 0.49846673 1.1245201

block3.0.weight f4 [12, 8, 3, 3]
00000000: 664c 9e3b 2ff8 9abc 5037 8cbd 503d 093d
00000010: 3982 c7bd a99c 70bc d458 0bbe b8d9 b0bd
00000020: 45eb 4abd 2511 dd3d 38b6 6dbb a18b 90bd
00000030: a251 7cbd e33f b43d e62e b8bd 00d7 5fbd
00000040: 7c2e 853d 2e52 2cbd 8293 a13d 5f22 8fbd
00000050: 675b 0ebe 4bc7 7dbd ce6f 5b3c ee45 b7bc
00000060: c742 9dbd b232 8abb 5acd 6c3c 125a fe3d
00000070: e22a 413b 40ec 8cbd a8a0 e03d 7fb8 a8bd
00000080: 0a56 bf3c 9791 b23d f59b 16be 42e4 dbbd
00000090: 4b14 94bd 4a71 24be 0e92 abbd c0e4 cdbd
000000a0: 7863 2ebd 8c42 d5bd 5d86 50bc 4374 c4bd
000000b0: 1bb0 e7bd 6728 513b 5b36 c0bd bdf2 53be
000000c0: 55ec 153e dcf0 a4bc 3e2c 293d 293c a23d
000000d0: 0e9d eabd 988c 88bd 559a 68bd 3e0c dc3c
000000e0: eb00 17bc 4e3b 18bd 6926 813d 7fa8 953d
000000f0: 569c 6f3d 897c d2bd 341c 53bd a4e4 303c
00000100: 475f 643d 7dd4 12bd 0ae0 88bd e2c4 37bd
00000110: ed5d ccbc 9ae7 623d 87d5 3bbd 8e43 1cbd
00000120: 2185 8f3e 5192 f53c fb0a d0bc 033c e73d
00000130: e69f 833c 8837 873d 1032 b03c f95e 48be
00000140: b3c7 ffbc d85b 60bc 28a3 4b3e f54e e73b
00000150: f378 e53c b527 843c e768 433d 7a87 973d
00000160: 3a5d 243e 4074 933c c4e4 d3bc 38b4 2dbd
00000170: 65cd f7bd 49c1 d6bd 41f0 833c 607f 0e3d
00000180: b780 b9bc 02ad 0bbb bdc8 3a3e 3fe2 313e
00000190: ded4 0d3e 5495 09bd ce6a 143e 4aee f03d
000001a0: 6512 8ebc efba bfb9 3785 4ebc 10ee c43b
000001b0: f85a fbbd d353 a9bd d14d 39be 9eb4 fbbd
000001c0: 1f15 04be 71c5 01be bcfb a7bd cbbc 04be
000001d0: 387f 3dbc bb23 03be 5d4f 4bbe 1f69 c3bd
000001e0: c8be 90bc 7eae 403d d5f5 90bd 4543 bd3c
000001f0: 21b7 08be bcbc 563c cd23 0b3e 798d 92bd
00000200: 816d 0cbc 91f3 7ebc 6ed3 c5bd 87ef 00be
00000210: d412 bbbd 7aa2 f9bc 53a0 f1bd d6fc aebc
00000220: 2550 a3bd 15ec 53bd d0fc d5bc 6ebd 97bd
00000230: 968c 873d 37ec 3f3e dd5c 18be e97c 273b
00000240: 2f59 9e3c 92fc d73d e7c7 473e 36fb 123d
00000250: 8a1f 4f3e c55f 2fbc 0601 3f3d 2044 7dbd
00000260: f2d1 99bc 1a36 473e ab10 4d3e 965a 673e
00000270: 0c69 e3bd 40e9 a1ba fb6e 083d fee6 a03c
00000280: 6796 08be 61af 94bd e154 cd3d b801 13bd
00000290: 1e1b a83d 23e9 96bc b3da 8d3b f5f3 3b3e
000002a0: c68a 803e f8ba 133e 50d4 49bd 9ccb df3d
000002b0: d823 0b3e c88c 9a3d 21a6 dd3c 00a9 bc3d
000002c0: 15bb 9cbb 1014 80bc c9a0 743c db1f a1bc
000002d0: b7fd 833c d310 dabc 968c 8e3d 5a47 aebb
000002e0: 2716 f6bd ad95 66bd 637d 173e 4df8 863c
000002f0: 8852 413e 848c 7bbd c1f8 c93d cab0 c13d
00000300: 67ea 993d d3c5 e2bd 5089 04be 7fb7 993c
00000310: 45fb df3d 62c3 d73d f274 46bd ceb6 153d
00000320: 25aa 81ba 540a 183e dd01 88bd b29c 21bd
00000330: 3b8f 38be 9533 15be b2ef 43be 66a2 4e3d
00000340: e80f 81bd c925 60be e1f4 97be 5803 adbe
00000350: e232 35bd c055 ac3d 178a 083e 7e22 413e
00000360: 4cd1 1d3d be4f 983e 9b12 a53e cba6 93be
00000370: be5f 143c c4ed 253e 7081 69be 5820 20be
00000380: 8812 34bd 9d59 56bd a258 5cbd 56fa b9bd
00000390: a4b7 61be c0d9 8bbb ad6d a4bd 2cd8 66bd
000003a0: 349f 7b3d 2e4b f73a cbc5 00bc 6f52 873c
000003b0: 972f d4bc 3273 a43d 9d22 d93d 41a0 6b3d
000003c0: ffe6 8d3e 3262 3f3d 8fb2 06bd ea03 d1bd
000003d0: 76f1 bbba 091c 6c3e 9b71 3abe 0e7d bcbd
000003e0: d914 6b3d c979 f33b f828 21bd 7249 b53d
000003f0: d9a2 ae3d ad62 7c3c 9396 59be fe0d a5bd
0.0048308847 -0.018917171 -0.068464875 0.033505738 -0.09741635 -0.014685788 -0.13608104 -0.086352766
-0.049540777 0.10794286 -0.003627194 -0.07057882 -0.06160129 0.08801248 -0.0899332 -0.0546484
0.06503007 -0.04207056 0.07889463 -0.06988978 -0.13902055 -0.06195764 0.0133933555 -0.022372212
-0.076787524 -0.004217469 0.0144532565 0.12419523 0.0029475023 -0.068809986 0.10968143 -0.08238315
0.023356456 0.08719175 -0.1470793 -0.10736896 -0.07230433 -0.16058841 -0.08377467 -0.10053396
-0.04257533 -0.104130834 -0.012727347 -0.09592488 -0.11312886 0.003191495 -0.093853675 -0.20698066
0.14640935 -0.020134382 0.04130196 0.07921631 -0.11455737 -0.06667441 -0.056787807 0.026861306
-0.009216527 -0.037165932 0.06306154 0.07307529 0.058498703 -0.102776594 -0.05154057 0.0107967
0.055754926 -0.035847176 -0.06683357 -0.044865496 -0.024947131 0.055396654 -0.045857932 -0.038150363
0.28031257 0.029976996 -0.02539586 0.11290743 0.016067456 0.066023886 0.021508247 -0.19567479
-0.031223154 -0.013693772 0.19886458 0.007058973 0.028011775 0.016132215 0.047707465 0.07398887
0.16051188 0.017999768 -0.02586592 -0.042408198 -0.12099723 -0.10486085 0.016105773 0.034789443
-0.022644384 -0.0021312837 0.18240638 0.17371462 0.13850734 -0.033589676 0.14493868 0.117642
-0.017342756 -0.00036569635 -0.012605003 0.0060098246 -0.1227321 -0.08267941 -0.18096091 -0.12290309
-0.12898682 -0.12672974 -0.082023114 -0.12962644 -0.011565976 -0.12806599 -0.19854493 -0.09541535
-0.017669097 0.04704141 -0.07078139 0.023103366 -0.13351108 0.013106521 0.13587876 -0.0715589
-0.00857103 -0.015561 -0.09659468 -0.12591372 -0.091344506 -0.030472983 -0.117981575 -0.021360796
-0.07974271 -0.051738817 -0.026121527 -0.07409178 0.066186115 0.18742453 -0.14879175 0.002555663
0.019329635 0.10546221 0.1950985 0.035884105 0.20226875 -0.010703986 0.046631835 -0.061832547
-0.018776868 0.19454232 0.2002589 0.2259315 -0.111040205 -0.0012352839 0.033308964 0.019641396
-0.13338624 -0.07260013 0.10025955 -0.03589031 0.08208297 -0.018421715 0.0043290495 0.18354781
0.25105876 0.14426792 -0.049274743 0.10927507 0.13587892 0.07546383 0.027056755 0.09211922
-0.004783044 -0.015634567 0.014930912 -0.01966851 0.016112192 -0.02661935 0.069604084 -0.0053185644
-0.12015944 -0.056295086 0.14793925 0.01647582 0.1887914 -0.061413303 0.09861899 0.09457548
0.07515412 -0.11072888 -0.12943006 0.018764256 0.10936598 0.10535313 -0.04845137 0.03655129
-0.0009892626 0.1484769 -0.066409804 -0.039456077 -0.18023388 -0.14570458 -0.19134405 0.050447844
-0.06301862 -0.21889414 -0.29679015 -0.33791614 -0.04423798 0.08414793 0.13333927 0.18860814
0.03852968 0.29748338 0.32240757 -0.2883819 0.00905603 0.16203982 -0.22803283 -0.15637338
-0.043962985 -0.052331556 -0.053795464 -0.09080951 -0.2204271 -0.004267901 -0.080287315 -0.0563585
0.061431125 0.001886701 -0.0078596575 0.0165188 -0.025901599 0.08029784 0.10602305 0.057525877
0.277153 0.046724506 -0.03288513 -0.10205825 -0.0014338929 0.2305757 -0.182074 -0.0920354
0.05739293 0.0074302894 -0.03934571 0.08851899 0.085271545 0.0154043855 -0.21248846 -0.080593094

block3.1.weight f4 [12]
00000000: 6a92 893f 49d7 903f 278b 6d3f c0ef 703f
00000010: 3a15 963f 365b 543f 0206 7c3f b866 6a3f
00000020: 0e9e 883f bf82 7b3f 24fb 663f 02b2 823f
1.0747807 1.13157 0.92790455 0.9411583 1.1725228 0.82951677 0.9844667 0.91562986
1.0673234 0.9824638 0.9022696 1.0210574

block3.1.bias f4 [12]
00000000: 2630 a63b 112b 2f3d 78ba 7fbd 4752 80bc
00000010: 423b b43c 4d38 20bd 9980 7fbd 0d17 c63a
00000020: 634c e4bd 9b8a 51bd 0cd0 b8bb 1a81 8bbc
0.0050716577 0.04276568 -0.06243369 -0.015664233 0.022000913 -0.039116193 -0.0623785 0.0015113071
-0.11147382 -0.051157575 -0.0056400355 -0.017029334

block3.1.running_mean f4 [12]
00000000: 1b72 96bf ab5b 13bf 83c7 3f3f 7366 85be
00000010: 5006 a1be 5708 3e3e e0dd 01bf d76f 54bf
00000020: ddc2 aa3c f28f a2be de46 843e 2fa1 81bf
-1.1753572 -0.5756175 0.74913806 -0.26054725 -0.3145013 0.18557869 -0.5072918 -0.82983154
0.020844871 -0.31750447 0.25835317 -1.0127314

block3.1.running_var f4 [12]
00000000: 28e7 ab3f b779 c33f a6d8 cf3f 188b 0e40
00000010: ba97 1c40 2e63 b53f be6a ad3f 7ce9 b23f
00000020: 3de0 3440 9734 8d3f 1089 d33f 5daf ea3f
1.3429918 1.527152 1.6237991 2.2272396 2.4467607 1.4170892 1.35482 1.3977504
2.8261864 1.1031674 1.6526203 1.8334767

block3.3.weight f4 [12, 12, 3, 3]
00000000: 3c87 183d f46b 453e 0521 613e 6cbd 323d
00000010: a648 fc3d 4462 893d abab ebba 0dfa 14bd
00000020: 3852 96bd b501 ca3d 2767 613d 41c6 fc3d
00000030: 3555 80bd 232a 43bb 9b46 c9bd cd9c 903d
00000040: 54f5 acbb 9435 04be d537 9e3d 0744 203d
00000050: 014b 52be 0320 23be a4a0 11be 9efc 873a
00000060: a108 57be 850c b638 98b1 ed3d 048f f33d
00000070: d93b 443e 882a 083e 938b 28be 4659 17be
00000080: 1083 67be 26c8 c43b 0e96 913c 132f 063d
00000090: 184f 7bbd c692 e0bd 6f48 3fbe d3f9 7d3c
000000a0: b3ea aabd 1409 4e3d 7e02 8dbd 4eeb 3fbc
000000b0: dd28 553e a516 f83d ee45 47bc cbd7 43be
000000c0: 5f8e 0fbe 5559 d7bd 1ff3 e5bd d4fa 71bc
000000d0: bc38 8c3b 617c df3d 4d54 913d 0e71 0abd
000000e0: 3a8f 7f3d 1329 d0bb 0f15 b6bd 15cb 58bd
000000f0: 0bbe 34bb 461e 92bd c6d5 90bc e3c8 1e3d
00000100: 6964 abbd 39ab 19bc fed5 373d d2c6 633d
00000110: a05e 7d3e d25d 51bc 7cb1 cabc ec00 0cbe
00000120: 96bc 24bd df6f 103c 0ecb 223c a77f 873c
00000130: 7b3d a13d abb9 713e 7c1b e6bc 3d12 09bc
00000140: 5eed 19bc 5920 9e3c 6186 633c c853 b83d
00000150: 95b3 373e 7eec 413d 48d7 9abb 90c7 3cbd
00000160: 7b25 9bbd a58d 19be 6358 84bd 0e93 b23d
00000170: 3795 1f3e a878 ed3d ea11 103e 3368 0cbd
00000180: ad93 aabd 2d4e 59be 0ae3 edbc bc39 a1bd
00000190: a530 80bd 5d0d 3fbe dd01 8c3d 6254 2abc
000001a0: 156c d33c 9294 453e b49b 1f3e ab96 4d3e
000001b0: 40c2 753d 4e04 283d 0144 4d3d a659 8e3c
000001c0: 2374 78bd 76dd 49bd 5861 213d 4eae 17bb
000001d0: 75d1 17bd 2e82 cf3d 0d61 2a3d 43eb febc
000001e0: 51e3 6d3a efda 02bc 7b36 bdbd cf13 fb3c
000001f0: 45fd 99ba d62d 3f3d 2a0e 623b c52a 503d
00000200: a419 31bd b664 a93d 51bb 973c 71d7 933c
00000210: 2890 7a3b 90b4 40bd 0636 51bd 1f49 143c
00000220: 2f2f aa3d cfc6 ea3d 86e6 663d 2258 ed3d
00000230: 2f84 e23d 5d36 5e3d f9d5 a13c 3903 88bd
00000240: b6b2 72bc a87d 13be 37f9 eebd fb87 b83c
00000250: 674e bdbd 5228 bd3c e372 0b3e 086a 1dbd
00000260: c66a 86bb 59a0 6fbe b40f 38be 7e0f 47be
00000270: 5349 8d3d 6add 683d a877 81be b183 44bd
00000280: bc0c 91be 1312 2bbe 2798 69bc 391a adbd
00000290: 4263 30bc 1841 a43c fd8f 62bd d6f2 9cbd
000002a0: a17c ff3b 7b62 dd3d 1686 463d 13a4 ba3d
000002b0: b5e4 22be 5f3b aabd ca35 59bd 59a9 18be
000002c0: cfeb 433d 432d a33c ae16 e03b d5e4 f73d
000002d0: fb94 c2bd 9ab7 47be bb2f 1abe f50d 0bbe
000002e0: b2b9 e2bd 3d3d d1bd 36dc bbbc 61cc 67bd
000002f0: 30c0 b7bd 9932 153e 2c7a 833e ed39 233d
00000300: 5237 4cbd c7bb 7a3d aa2c eb3d 82d1 80bd
00000310: 8992 e2bb 7294 58bc 7567 053d 7f60 f43c
00000320: 494a a3bd a81b bfbd 29b5 a6bc 9c5d 483c
00000330: 1e72 afbc b2c4 863d 9b5a c93d 8e15 cd3d
00000340: 4fb6 2a3e b9fe f93d 2e24 2a3d ce89 25bd
00000350: 8cae 23bc eaa4 ffbd d969 efbc f964 9ebd
00000360: 2da4 f4bc f90f f8bd 881c 9cbd 7c9f cf3d
00000370: 4525 303c 3b33 113c ad97 5e3c 1653 b1bc
00000380: ec13 1c3d 2cb8 16be 6d9b 283c cec7 8fbd
00000390: 32ba 47bb c1f6 a1bb 9b37 90bc f447 533d
000003a0: eba8 153b af6d 38bc b77b e2bc 0c2e 29bc
000003b0: 2155 b4bd 47e8 a83c 666a 2ebb c306 433d
000003c0: 34cf 3e3e 9ec5 933e 452a 6d3e 58fc 74be
000003d0: 6bca 23be c5fc 97bd 1e9f 86be 607a afbd
000003e0: c438 82bd 6eaf 5ebe f89b febc 9c8d 6f3e
000003f0: 4fde 67be 49f1 5dbe fb09 2bbe e525 10bd
0.037238345 0.19279462 0.21985252 0.043637678 0.12318544 0.06708196 -0.0017980238 -0.03637128
-0.07339901 0.09863607 0.055030014 0.123425014 -0.06266252 -0.0029779754 -0.0982792 0.070611574
-0.005278269 -0.12911063 0.07725493 0.039127376 -0.20536424 -0.1593018 -0.14221436 0.0010374968
-0.20999385 8.680768e-05 0.11606139 0.118925124 0.19163455 0.13297474 -0.16459493 -0.14780149
-0.2260859 0.006005305 0.017771747 0.032759737 -0.061354727 -0.10965495 -0.18679975 0.015501457
-0.083455466 0.050301626 -0.06885241 -0.011713816 0.2081637 0.12113694 -0.012162669 -0.19125287
-0.14019154 -0.105150856 -0.11228012 -0.014769275 0.004279224 0.10912395 0.07096157 -0.033799224
0.06239245 -0.0063525527 -0.08890735 -0.05292805 -0.0027579095 -0.071346804 -0.01768006 0.0387658
-0.08368761 -0.009379202 0.044881813 0.05560953 0.24743128 -0.012778716 -0.024742834 -0.13672227
-0.040218912 0.008815735 0.009936107 0.016540362 0.078730546 0.23605983 -0.028089277 -0.008366165
-0.009394972 0.019302534 0.013887019 0.09000355 0.17939599 0.047344677 -0.0047253706 -0.046088755
-0.07575508 -0.1499544 -0.06462171 0.08719455 0.15584265 0.11595279 0.14069334 -0.03427906
-0.08328948 -0.21221228 -0.029038925 -0.0787234 -0.06259278 -0.18657441 0.06836293 -0.010396095
0.025808373 0.19294956 0.1558674 0.20077007 0.059999704 0.04101973 0.05011368 0.017376732
-0.06065763 -0.049283467 0.039399475 -0.0023144665 -0.03706499 0.10132252 0.04159646 -0.03111804
0.00090747053 -0.007986768 -0.09238907 0.030649094 -0.0011748454 0.046674572 0.0034493306 0.05082204
-0.043237343 0.08271162 0.018521937 0.018047066 0.0038232896 -0.047047198 -0.05107691 0.009050637
0.08309781 0.11463701 0.056372188 0.115890756 0.11060368 0.054251064 0.01975535 -0.0664124
-0.014813116 -0.14403403 -0.11668628 0.022525778 -0.0924347 0.023090515 0.13618045 -0.038431197
-0.004102084 -0.23401012 -0.1797474 -0.19439504 0.06898751 0.056851782 -0.25286603 -0.047977153
-0.28330028 -0.16706114 -0.014257467 -0.08452267 -0.010765852 0.02005057 -0.0553131 -0.07663505
0.0077968393 0.10809799 0.048467718 0.09113326 -0.15907557 -0.083121054 -0.053029813 -0.14908351
0.047832306 0.019919043 0.006838641 0.12104193 -0.09501072 -0.19503632 -0.1505727 -0.13579543
-0.11070575 -0.102167584 -0.022932153 -0.056591395 -0.08972204 0.14570083 0.25679147 0.039850164
-0.049857445 0.061214235 0.11483128 -0.062899604 -0.006914441 -0.013218986 0.032569367 0.02983117
-0.07973153 -0.09331447 -0.020350056 0.012229349 -0.02141672 0.065804854 0.09831735 0.10013877
0.16671108 0.122067876 0.04153841 -0.040414624 -0.009990346 -0.12482627 -0.029225277 -0.07734103
-0.029863441 -0.121124215 -0.076226294 0.10137841 0.010751073 0.008862312 0.013585967 -0.021646064
0.038104936 -0.14718693 0.010290963 -0.070205316 -0.0030475971 -0.0049427454 -0.01760464 0.05158229
0.0022836279 -0.011256619 -0.027646882 -0.01032592 -0.088052996 0.020618571 -0.0026613711 0.04761387
0.18633729 0.28861707 0.23160656 -0.23924387 -0.15995185 -0.07421259 -0.26293272 -0.08568263
-0.063584834 -0.21746609 -0.031080231 0.23393863 -0.22643398 -0.21674074 -0.16703026 -0.03519239

block3.4.weight f4 [12]
00000000: 62f9 913f 5286 803f 2fc5 623f a848 833f
00000010: 320f 6e3f e739 6b3f 5bca 9b3f 4d5d 723f
00000020: 2e4b 7a3f a702 6d3f a54c 713f f2a0 803f
1.140423 1.0040991 0.8858213 1.0256548 0.92991936 0.91885227 1.2171129 0.94673616
0.97770965 0.9258217 0.94257575 1.0049117

block3.4.bias f4 [12]
00000000: 9e1f 11bd b790 88bd fdde a6bd 9e4f 213d
00000010: 8af4 45be 9a42 c5bd 073d 18bd 186c a83d
00000020: 15b5 87bd 6873 27bb 3b3f a13d 8493 d1bd
-0.035430543 -0.06668227 -0.081480004 0.03938257 -0.19331565 -0.09631844 -0.037167575 0.08223742
-0.066263355 -0.0025550965 0.078733884 -0.102332145

block3.4.running_mean f4 [12]
00000000: a1bd 33bd f7d4 edbe 3531 dabe 7399 85bf
00000010: 149e 61be 8f05 b2be 24dd 1dbf 5df0 5cbf
00000020: c7e9 173e 367b cbbe 0c77 083f f034 283e
-0.043882016 -0.46451542 -0.42615667 -1.0437454 -0.22032958 -0.34769866 -0.6166556 -0.86304265
0.14835273 -0.3974244 0.5330665 0.16426444

block3.4.running_var f4 [12]
00000000: 3b77 933f c028 843f 5826 963f 3a8e 743f
00000010: 0798 8c3f 48f2 6c3f cb5f b53f 41bf 853f
00000020: db45 443f afcd 733f e083 a53f 189c 133f
1.1520761 1.0324936 1.1730452 0.9552952 1.0983895 0.9255719 1.4169859 1.0448991
0.7666909 0.95235723 1.293087 0.57660055

block4.0.weight f4 [12, 12, 3, 3]
00000000: 304f f43c d381 c3bd b6ce b9bc c3e8 f0bc
00000010: 16ed b9bd 6365 e2bd 6a61 a7bc 4d07 32be
00000020: 4b5a 81be c4b3 32bd 06f0 27bb 2eb9 8b3a
00000030: 5ea2 debc c27d b7bd bc30 3fbb 22c2 cfbc
00000040: fb95 bd3c 59af 873d 5f24 833b c19f 47bc
00000050: fba3 e5bd 995b 5e3b cd8a ca3b a513 39bd
00000060: df57 13be 88ce 47bd ab30 c6bc e77f 0dbd
00000070: 840a 393c 1036 18be 1ee8 583d be62 89bd
00000080: b39d adbd 747c f73d 3521 86bd 965e 35be
00000090: 8357 693d 3391 893d f1db d2bd 52f8 2c3d
000000a0: b3c6 cc3c 0e7c 5abc efca 81be d99f a8bd
000000b0: 714c dfbd 59bc 93be 81b8 10be 4771 c5bd
000000c0: 0847 49bd 2254 393b 99ad 973d aca8 303e
000000d0: 0cd6 cf3c b097 563e 60b8 bc3c 9d01 d43c
000000e0: c9ba 88bd 9bf5 0f3d 0680 88bd a8ed 1cbe
000000f0: c575 323e b037 a8bd 29dd 1ebe 7b7f c33c
00000100: c6fb 473d 88e6 9c3c 6d21 4bbd fecf 6e3d
00000110: 7db9 1c3e a13f 78bd 9129 50b8 d8ad fc3d
00000120: 511c 6f3d c5c2 98bd bfa4 be3d 7937 713d
00000130: 6be9 9a3a cf7f 293d 9f21 11bd c9c8 36be
00000140: 859d 87bd c277 d739 1465 36bd bf6c 01be
00000150: 0f9e 6c3d 944d 713d 0559 a33d 89a9 563d
00000160: 35c3 403c 56ab 93bb 2659 2c3e 749e 78bd
00000170: a22e 75bc 2ccb bdbc 0977 fdbc 4206 b73b
00000180: 9751 70be ea91 1bbe 13a0 d5bc 6856 d93d
00000190: c322 fb3d f2c0 18bc 4245 093e 000b 67bd
000001a0: 9b42 5fbc 046b 66bd e1c2 89bd 9da8 edbd
000001b0: 89f0 78bc fd5b bd3d 33f9 513e 4367 f33c
000001c0: f789 07bb 354e c13c c814 4b3e c996 4a3c
000001d0: 4fb0 6b3d 1542 1d3e 0809 75bc 6b7d a3bd
000001e0: 66cf db3d 69ae 113d 9d49 b2bd 525d 74bc
000001f0: 5811 e1bc 8c0c 48bd 135c 4ebc af26 5a3d
00000200: 9349 c63d 6dfe a83d c966 a93d 317a 883d
00000210: 81da 2e3d 5780 a4bb bb09 253c 8a0b 66bc
00000220: 390e 903d 7425 003e e158 0fbe 0657 5a3d
00000230: 941d 893d 2971 bfbd dee3 37bd 6c3f 13be
00000240: 5eda 1abd 7670 a1bd c298 c3bd 2d5f d6bc
00000250: 338c d6bd 9cda f0bc af1d 263d e94f 853d
00000260: f834 233e 0c05 19bd 18ec e7bc 9746 26bd
00000270: d6e7 203d b054 09bc 2948 2bbd f620 a6bd
00000280: 4552 5739 b2a7 be3c 66f8 ba3b 769a 1d3d
00000290: f79a 8c3e df5a 40bd f4f2 91bc fa27 283d
000002a0: 6b0f 843e 70df 503d 4d4b 503c b6ec c83c
000002b0: 7d41 98bd 9935 cebd ac17 1b3d c2aa 7fbd
000002c0: bb05 49be 1bef bdbd 47bf b6bd 656d 12be
000002d0: 912b 493d 8de1 8bbd 1ed1 6dbd 98a1 2d3c
000002e0: 8391 1a3c b958 0dbd 1d93 27bd 1784 4cbd
000002f0: abfc c43d 563e 033d b8e0 69bd 400a 85be
00000300: 9866 193d 16c8 813d 0364 ea3d 66a8 483e
00000310: c425 323e 5d13 253e e999 f9bd 3851 7b3d
00000320: 9350 793b d0f9 65bc e53e f4bd 3e1d 12be
00000330: 7275 8abd 9356 393d 8381 48bc d709 de3d
00000340: b178 e23c e975 d6bd 6027 df3c c2ff 073d
00000350: fa0a 303b 85b5 8c3d 8d66 c23d fff2 cf3d
00000360: 89c5 12bc 1ba5 a8bd 02da 0dbe 5bb6 3c39
00000370: 3920 a3bd e476 abbd 5666 15bd fbcb 483d
00000380: 2719 a53d 2da4 c2bd 936e 12be 98c2 68be
00000390: a225 9abd 28d3 1abe 026b edbc 1bc9 98bd
000003a0: 1b89 57bd 1d3d c63d 1830 6dbd 5628 a73b
000003b0: 9edc 7f3b 70c6 9c3a 2670 cabc 6084 343d
000003c0: 3225 be3d 6668 083c 41f9 20bd 5939 c33d
000003d0: bcb1 b93d 0844 fa3d 266f 203d 1ba1 863c
000003e0: 9b9d 843d f7a4 f1bc 5c83 09bd 282c 20be
000003f0: f4f4 ab3d 64c2 8d3e 310a 283e 2b9c bf3d
0.029822916 -0.095462464 -0.022681575 -0.029407864 -0.09078424 -0.11054494 -0.020432193 -0.17385598
-0.252642 -0.04362847 -0.0025625243 0.0010660046 -0.027177032 -0.08959533 -0.0029173335 -0.025361124
0.023142805 0.06625242 0.0040021385 -0.012184084 -0.112129174 0.0033929108 0.006181097 -0.04518475
-0.14388989 -0.048780948 -0.024193129 -0.034545805 0.011294011 -0.14864373 0.05295574 -0.06708287
-0.08477344 0.120842844 -0.065493025 -0.17711863 0.056968223 0.06717148 -0.10295857 0.042229004
0.02499709 -0.013335241 -0.2535014 -0.082336135 -0.10903252 -0.28854635 -0.14132883 -0.096407466
-0.049140006 0.0028278907 0.07406158 0.17251843 0.02537062 0.20956302 0.023037136 0.025879676
-0.066762514 0.035146337 -0.066650435 -0.15325034 0.17427738 -0.082137465 -0.15514053 0.023864498
0.048824094 0.019152895 -0.049592424 0.058303826 0.15305133 -0.060607556 -4.9629776e-05 0.123378456
0.058376614 -0.07459024 0.093087666 0.058890793 0.0011818832 0.041381653 -0.035432454 -0.17850031
-0.06621841 0.00041097222 -0.04452999 -0.1263914 0.057767924 0.058911875 0.079759635 0.052407775
0.011765291 -0.004506509 0.16830882 -0.060697988 -0.014964731 -0.023168169 -0.03094055 0.005585463
-0.23468624 -0.1519238 -0.026077306 0.10612184 0.1226249 -0.0093233455 0.13405326 -0.056406975
-0.01362672 -0.0562544 -0.06726623 -0.11604426 -0.015194067 0.09246061 0.20505218 0.029712325
-0.0020681599 0.023596862 0.19832146 0.012365052 0.057541188 0.1535724 -0.0149557665 -0.07982906
0.107329175 0.03556672 -0.08705447 -0.014914827 -0.02747409 -0.04884009 -0.012595194 0.053259548
0.09682002 0.08251653 0.08271558 0.06663931 0.04268885 -0.005020182 0.010073121 -0.014040837
0.07033963 0.12514287 -0.13998748 0.05330565 0.06695095 -0.093477555 -0.044895045 -0.14379662
-0.037805907 -0.07882778 -0.095506206 -0.02616843 -0.1047596 -0.029401116 0.040555652 0.06509382
0.15938175 -0.03735833 -0.02831082 -0.040594663 0.039283596 -0.0083820075 -0.041816864 -0.081117555
0.00020534646 0.023273323 0.005705881 0.038477384 0.2746198 -0.04696166 -0.017816044 0.04105375
0.25793013 0.050994337 0.012713266 0.024526935 -0.07434366 -0.10068817 0.037864372 -0.062418707
-0.19631092 -0.092741214 -0.08923202 -0.14299543 0.049113814 -0.0683013 -0.058060758 0.010597609
0.009434107 -0.03450844 -0.040911783 -0.04993066 0.09618505 0.03204187 -0.057099074 -0.25984383
0.037451357 0.063369915 0.11444857 0.19595489 0.17397219 0.16120668 -0.12187559 0.061356753
0.003804241 -0.014036611 -0.11926059 -0.14268968 -0.06760682 0.04524858 -0.012237909 0.108417206
0.02764544 -0.10471708 0.027240455 0.033202894 0.0026862011 0.068705596 0.09492216 0.1015377
-0.008958229 -0.08234616 -0.13852695 0.0001799701 -0.0796513 -0.08372286 -0.03647455 0.049022656
0.08061438 -0.0950397 -0.14299993 -0.22730482 -0.07526709 -0.15119612 -0.02898169 -0.07460233
-0.05262099 0.09679625 -0.057907194 0.005101244 0.003904141 0.0011960994 -0.02471168 0.044071555
0.09284438 0.008325672 -0.039300207 0.095324226 0.09067103 0.12220007 0.0391685 0.016434243
0.06475373 -0.029497607 -0.03357254 -0.15641844 0.083963305 0.2768737 0.16410138 0.093559586

block4.1.weight f4 [12]
00000000: b251 843f 9327 8a3f 5f54 773f a00f 773f
00000010: 857d 653f 63ce 6e3f 17a8 7a3f 706f 8b3f
00000020: 3361 7f3f 17fb 823f 17de 803f e503 7e3f
1.0337431 1.0793327 0.96613115 0.96508217 0.8964465 0.9328367 0.97912735 1.0893383
0.9975769 1.0232877 1.0067776 0.9922469

block4.1.bias f4 [12]
00000000: a6ab 01bc 3722 6fbc 0a50 d1bb f540 3b3c
00000010: d63c d8bd eb8a d03d c702 fa3d 1acc 32bc
00000020: 225e 22bd 8e9a 023d ff43 103d b266 053d
-0.007914459 -0.01459556 -0.006387715 0.011429061 -0.105584785 0.101827465 0.12207561 -0.010912919
-0.039640553 0.031885676 0.035221096 0.03256864

block4.1.running_mean f4 [12]
00000000: 2810 7bbf 6196 b83e e1b3 15be 8214 2bbe
00000010: 2d5c bdbe 5f6f e3be a027 c2be 7b12 1fbe
00000020: 2758 1ebc 28ca 59bf e047 fd3c 88ed 4bbf
-0.9807153 0.3605223 -0.146194 -0.16707042 -0.36984387 -0.44420907 -0.37920856 -0.15534393
-0.009664572 -0.8507409 0.030918062 -0.7965932

block4.1.running_var f4 [12]
00000000: 8b9d 163f f217 213f 8b29 423f b3c2 823f
00000010: cca9 053f 8e3c 233f 5ba6 3f3f c5b9 f13e
00000020: a3ef 4c3f eab0 f43e e462 1c3f 9c44 383f
0.5883414 0.6292716 0.7584464 1.0215667 0.52212214 0.63764274 0.74863213 0.47212043
0.80053157 0.47791225 0.61088395 0.7197969

block4.3.weight f4 [16, 12, 3, 3]
00000000: 89a3 8f3d 7137 a43b 147c 95bc 9ba9 dc3d
00000010: ce00 ad3c 9a81 3ebd 6f12 263d a878 103d
00000020: b968 01be 1e1c d4bc 3d64 af3d bce0 d33c
00000030: 193f d43b f6fb edbc 7891 97bd e5bd 803d
00000040: 4021 e3bd e4c1 d1bd 7d98 0dbe fcc6 aebd
00000050: 6776 ccbc cba3 11be 3a1d 9fbc 0698 e3bd
00000060: 6401 65bd 54b1 8dbc 520d 85bd c952 a53d
00000070: 08ba 55bd e80f 82bd eeb5 8ebd 8272 2c3c
00000080: 7a98 4dbc 38f6 5e3d 864a 0e3d 97de 82bd
00000090: 2728 1a3d b138 2fbd 5867 d0bc 6b15 13bb
000000a0: 278e e5bd 462b 16be 8e4e 1cbe ec48 3dbe
000000b0: 3c67 1dbe 6452 373d 748c 77bc 3dcd fbbd
000000c0: ff62 22bc 191b dabc 7a53 94bb 173f 50bc
000000d0: 1e7a 7f3d 4b3a 033e bbd3 7ebd 6108 803d
000000e0: 9870 68bd f9da 55bd e528 613c 08b3 6d3d
000000f0: 9d94 afbd 2a49 39bb 7f4e 54bd 48de 46be
00000100: 47a4 f4bb e585 d4bd ca7d 69bd 42e7 f23c
00000110: f4f7 9c3d d537 bc3d 5bdf c5bc f8bb 2c3c
00000120: 9936 6e3e 4979 803d 0063 0c3d 38b9 dabb
00000130: a384 be3b a91f b0bd dc88 b7bc aa62 2fbc
00000140: 6ae7 173c d73e 19bd 3bb6 5fbd 0f23 9dbd
00000150: ce56 b8bd f957 9d3a 81a5 09bd 8785 263d
00000160: b49d 023e b973 fbbc 323f ddbc 3b7f da3d
00000170: cf97 b83c 459b a9bc 4bab e23a 72a2 b93d
00000180: 0803 6dbd 0706 ebbc 0f2b 15bc c2d1 423b
00000190: 24c1 4a3c 6f81 113e 9d3e 843d fba7 4a3c
000001a0: a646 1c3d 5f8d 473d 6090 113d e3ce c9bd
000001b0: 45c3 603d 2011 96bd 0ebc b43d 8137 cebc
000001c0: 7c0b df3b 33e6 5f3c 3407 63be 64cd 66be
000001d0: 9cc6 f9bd d53d db3c ddb3 a1bb 0d65 ddbd
000001e0: a87b 2f3d fd1a 4f3d ffd5 51be e094 103d
000001f0: 37cf 853d e4ad 62bd a890 be3d 29f8 393d
00000200: d767 c03d 8421 d83b 4174 a6bd bfae 933d
00000210: ce97 c2bc 3596 493d 41ea dd3b c138 0a3c
00000220: da80 043e e0a6 ce3d f2fc b5bd 74d7 80bd
00000230: d94b 0dbe 71aa 52bd ded7 9ebd eb24 64be
00000240: b047 d83b c681 08be 4b3b 0cbe 773d 3d3a
00000250: 6f28 253b 980f 99bd 4dc1 313c fa8a 583d
00000260: 3291 fc3c 2de6 0bbc b5c4 0b3d 6fa7 383e
00000270: 5539 74bc 1ef5 253d b341 5b3d 755f bebd
00000280: 95d7 a5bd 49c1 40be 99e6 9b3d c28f 09bd
00000290: 83cf 613d bdf7 a13d d03e a63c 3308 883d
000002a0: 4f19 303e 3d0b 9a3d 3b12 243e 6f3f a4bd
000002b0: 0a40 65bd 8fad 62be 2da9 d03c 5da4 f33c
000002c0: c90a b0bd 37de d63d 214a 053e 519a b8bb
000002d0: cb5b c6bd adf0 983c bfe5 b8bd 631c 1b3d
000002e0: 5e43 a83c 4b98 c0bc d13b 463d d3c5 06bc
000002f0: 5ff9 0bbe 5e80 913a 4234 ad3c 86c7 35bc
00000300: d20f 483d cecc ac3d 1351 5ebd 5741 0fbd
00000310: 9fae b4bd 592a 7fbe ae90 953d c142 dcbc
00000320: ce7a 2abe 645d a63d 57b5 99bc d214 2e3d
00000330: 365b 3e3d a87a d83b 502e 643d bcc1 cd3d
00000340: e454 c4bb 59f7 e0bc 278a 023b 846b 60bc
00000350: 72de 8cbd 6da0 77be 80fc 47be df68 58be
00000360: 9452 ec3d 8195 ce3d 6d58 df3d d6ea c33d
00000370: 6613 b33d 225a 9d3d 1a07 bcbd ae74 143c
00000380: d463 a4bd 0acf 27bd 1cb8 45bd 1314 f2bc
00000390: 8d7c a3bd 7958 e1ba bcd7 c7bd 325c 02be
000003a0: 90f1 4cbe e381 29be ec60 6abe d4a2 21be
000003b0: 03dc 68bd 3b3e 5ebd 73b9 aabd 8501 863d
000003c0: b165 5c3d 8e16 49bd 784a 2bbd 54bd f8bd
000003d0: 74fe 15be e203 393a d950 dfbd 0036 d7bd
000003e0: 14c2 6e3c 29e5 ccbd 8e9d c8bc 0627 49bc
000003f0: f4a5 8cbd 80e6 4abc 1f0c efbd 7ba3 8b3d
0.07013614 0.005011492 -0.018247642 0.10774537 0.021118548 -0.046510316 0.040544923 0.035271317
-0.12637605 -0.025892314 0.08564041 0.025863998 0.0064772484 -0.029050808 -0.07400793 0.062862195
-0.11090326 -0.1024206 -0.13827701 -0.08534047 -0.024958802 -0.14222638 -0.019423116 -0.111129805
-0.05590953 -0.01729647 -0.06496681 0.08072431 -0.052179366 -0.0635069 -0.06968294 0.010525348
-0.01254856 0.05443403 0.03473904 -0.06390112 0.03763595 -0.042778675 -0.025439903 -0.0022443186
-0.11208754 -0.14664945 -0.15264341 -0.18484849 -0.15371412 0.04475631 -0.01510917 -0.122950055
-0.009911298 -0.02662425 -0.0045265527 -0.012710354 0.06237232 0.12815206 -0.06221364 0.06251598
-0.056748003 -0.05221078 0.01374266 0.058032066 -0.085732676 -0.002827237 -0.051832672 -0.19420731
-0.0074658724 -0.10377101 -0.057004727 0.029651288 0.07664481 0.091903366 -0.024154356 0.010542862
0.23263015 0.06273133 0.0342741 -0.006674912 0.0058141514 -0.08599789 -0.022404127 -0.010704676
0.009271482 -0.037413444 -0.054617148 -0.076727025 -0.09000932 0.0012004367 -0.033605102 0.040654685
0.12755471 -0.03069483 -0.027007673 0.106687985 0.022533325 -0.020703921 0.0017293481 0.09064187
-0.05786422 -0.028689397 -0.009104504 0.0029727076 0.01237515 0.14209531 0.06457255 0.012369151
0.038153313 0.048718806 0.035538077 -0.09853914 0.054873724 -0.07327485 0.08824931 -0.02517295
0.006806789 0.013665724 -0.22170717 -0.22539288 -0.12196085 0.026762882 -0.0049347715 -0.108102895
0.042842537 0.050562847 -0.2049179 0.03529823 0.06533664 -0.055341616 0.09304935 0.04540268
0.09394806 0.0065957922 -0.081276424 0.072110645 -0.023754027 0.049215514 0.00677231 0.008436383
0.12939778 0.10090423 -0.08886136 -0.062910944 -0.13798465 -0.051432077 -0.07756017 -0.22279708
0.0066003427 -0.13330755 -0.13694493 0.0007218937 0.0025201102 -0.074736774 0.010849309 0.052866913
0.030830953 -0.008538765 0.03412314 0.18032621 -0.014906247 0.040516965 0.053529453 -0.09295551
-0.0809776 -0.18823732 0.076123424 -0.033584364 0.05512954 0.079085805 0.020293623 0.06642189
0.17197154 0.07521675 0.1602258 -0.080199115 -0.055969276 -0.2213652 0.025471294 0.02974146
-0.08595807 0.10491603 0.13016559 -0.0056336303 -0.09685477 0.01866945 -0.090281956 0.03786887
0.020539936 -0.023510119 0.04839689 -0.008225876 -0.13669346 0.0011100878 0.021143083 -0.011094933
0.048843212 0.08437501 -0.054276537 -0.034974422 -0.08822369 -0.24918498 0.07302986 -0.0268873
-0.16648409 0.081232816 -0.018763227 0.042500325 0.046473704 0.0066064186 0.05570823 0.100467175
-0.005991565 -0.027461695 0.001991877 -0.013697509 -0.068783656 -0.24182291 -0.19529915 -0.21133755
0.11539188 0.10087109 0.10905538 0.09566276 0.08743934 0.07683207 -0.09181042 0.009061022
-0.08026853 -0.040968932 -0.048271284 -0.029550588 -0.079827406 -0.0017192505 -0.09757945 -0.12730482
-0.20014024 -0.16553454 -0.22888535 -0.1578477 -0.056850445 -0.054258566 -0.08336153 0.065432586
0.053807918 -0.049093775 -0.041819066 -0.121454865 -0.14647847 0.00070577685 -0.10904092 -0.105083466
0.014572639 -0.10004646 -0.02448919 -0.01227737 -0.068675905 -0.012384057 -0.11672234 0.06818291

block4.4.weight f4 [16]
00000000: 6825 733f 3936 873f 0611 7e3f f525 853f
00000010: 4d30 773f 66e6 7d3f 69a7 853f 6c2f 7f3f
00000020: 5ce3 813f 2836 843f a5fb 7a3f 9c09 783f
00000030: 591b 813f 85cc 7b3f a6ee 7e3f c8cb 6d3f
0.9497895 1.0563422 0.99244726 1.0402209 0.96558076 0.99179685 1.0441715 0.99681735
1.014751 1.0329027 0.9804023 0.9688966 1.0086471 0.9835895 0.995829 0.9288907

block4.4.bias f4 [16]
00000000: 501f acbc 7124 1cbd 6df8 dc3b 266d babd
00000010: 760c 42bd b755 a5bd ac95 52bc 406b cdbd
00000020: 2080 933c 5610 20bd 62cb 01bd a536 52bd
00000030: bb84 3a3d 503a adbc 7b72 54bd 905b 8bbb
-0.021011025 -0.03812069 0.006743482 -0.0910285 -0.047375165 -0.080729894 -0.012853067 -0.10030222
0.01800543 -0.03907808 -0.0316881 -0.051321644 0.045536738 -0.02114597 -0.05186699 -0.0042528585

block4.4.running_mean f4 [16]
00000000: ddbe 15bf 372c 44bf b10b 42bf 17d1 8fbf
00000010: 3d9f e5be c2f8 97bd 593a 493e e865 53bc
00000020: ef43 913d 4fe4 1abf cdfe f4bc 16f8 86be
00000030: bc05 a7be 7e61 85bf e3e5 343e c0b1 a43f
-0.5849436 -0.76629966 -0.7579909 -1.1235684 -0.44848052 -0.07420494 0.19651164 -0.012902714
0.070930354 -0.6050462 -0.029906655 -0.2636115 -0.32621562 -1.0420377 0.1766582 1.2866745

block4.4.running_var f4 [16]
00000000: 17ed c23e c957 2f3f c5fa 073f 209c 3b3f
00000010: bb3b 243f 0882 173f 492a 1d3f 8bdc e33e
00000020: 13c2 8b3f 89ab 403f cccb 1a3f 3022 b43e
00000030: dd66 003f 7794 f83e 0f2c 0b3f e738 023f
0.3807151 0.68493325 0.5311702 0.732851 0.6415364 0.59182787 0.6139265 0.44504198
1.0918602 0.7526174 0.6046722 0.35182333 0.50156957 0.4855077 0.54364103 0.50868076

block5.0.weight f4 [16, 16, 3, 3]
00000000: 1adf fc3c ce07 6abd 27ee 5abd 49cc c63d
00000010: 17ea a23c c329 863c 3f8d 303c b0ce fc3c
00000020: d166 023d edc8 33ba 4879 553d 3076 1bbc
00000030: 0744 bd3c a543 803d 0907 febb 17aa ecbb
00000040: 93d3 d8bd 6237 5ebd d3b3 b33b 3592 f8bc
00000050: aea0 a5bc ed84 d8bc 4df5 02bc bb78 5ebc
00000060: bc54 24bd 0a14 4b3b 0b3f f5ba 099b ccbd
00000070: fd98 8dbc a578 21bd c359 04be ef0f 8fbd
00000080: 986e a53c 792d 00bd 471c 8c3c 347a cc3d
00000090: f893 37bd 7ed9 283d 744a 003d 6531 7c3d
000000a0: 4721 813d f6dc 223d 8409 7c3d a4f8 dc3b
000000b0: 662e 10bd 6fff 003e b3d7 ba3c d60a b73d
000000c0: 3068 2b3d da6d 8d3d 9d08 bf3d 0574 433d
000000d0: 0d88 a33a fe72 143d 8897 5c3c c940 a1bb
000000e0: 6d09 c03c 4810 c33d b8e7 26bc 5704 ffbc
000000f0: 6493 43bd d550 f5bd 7379 05be 50fc 323d
00000100: d1b5 e93d af62 383d c96a 993d b91a cebc
00000110: 6264 50bb 3737 bebd 4570 d7bc 744a 2dbe
00000120: d18d 023d 4841 7cba 68c2 823d b644 013d
00000130: e4c1 653d 4d4b e33c 4316 873d 97e8 e23d
00000140: 8a35 133e db31 17be e17e b4bd 30e1 213c
00000150: 4d2b 7fbd 1de0 0b3d a784 aebc 3078 a4bb
00000160: 9899 65bd 9cad 553c 2182 08bd 8db9 72bc
00000170: b0b0 d83c 73bd 3abd c114 3dbc 9c0e 4bbc
00000180: e9ca e3bc 606b 383c d4df 413c 58d5 eabd
00000190: 294a a1bd c48e b9bd 1ffc c0bc 8cfb c5bc
000001a0: c246 22bd 49a4 683d 29c8 303d 26ae 303c
000001b0: 661c a23d 5f79 a43c 20f5 333d 438a a33b
000001c0: 1e9a 38bd d534 383c b6e1 bbbd 4271 5a3a
000001d0: b90f 7b3d d46c 88b9 beec 85bd 3258 b0bd
000001e0: 5c35 19bc fff2 ad3c 3c02 8abb ecef 733c
000001f0: 4af7 3c3d 4b38 7bba dbac 5fba bf02 8bbb
00000200: b1e0 3d3c f704 1d3d 939e 1b3c c7d3 103d
00000210: baa5 fb3d fc61 95bc 0f69 313c c106 8abd
00000220: 9f60 b13c 378c 47bd 91cc 63bd 20db 063d
00000230: f601 953c 4ca2 bb3a 231f c33d 9e21 3b3c
00000240: f5a0 b53d 9dd0 e63d 9be2 2e3e 2f2b 163c
00000250: a222 553d 7f8a 78bd 4c6b 953d 9423 3cbd
00000260: a449 debc 7df2 b1bd e9ca 66bd 760d 073d
00000270: e602 35bc e8c7 73bd 43e9 b2bd b7f0 b5bc
00000280: 52ec f03c 75bd 233d 95ad f43b 5d8d 423c
00000290: 46a2 45bd 18f2 fe3c 8b6f fb3b e2a7 17bd
000002a0: a371 803c 17e9 393d a181 25bc d70b c33c
000002b0: 8321 ef3d f39c 023d d32d 08bd 18b0 103d
000002c0: 78c2 213d 73be 03bd 1a7b 57bd 47bf 73bd
000002d0: 4c11 1dbc aa0c 223d 53d3 253e 9189 9ebb
000002e0: ee85 03ba c2ff c83d a56d 8bbd da0b 323d
000002f0: 4993 073e f32f 673e 9f23 283e 83cc 383d
00000300: 000a b13c 3728 c0bb 405b f5bd faf6 123c
00000310: 5388 66bd 930d 4fbd 3800 713d 6527 6cbc
00000320: 1463 af3a d786 833d 9db3 c3bc c0d8 a73d
00000330: 75bf 093c 8f04 b5b8 6168 0a3e 2ebe 1bbc
00000340: 85ae c53d 77f7 3d3e 6ff8 9d3c d578 4c3d
00000350: 6faa 4f3e c1d7 9cbd e958 e1bc 8b90 283e
00000360: 1a32 06be 80ee ebbd 6abb 4ebc 1dd7 f3bc
00000370: f291 debc 9e01 58bd 1208 acbd e0aa 94bd
00000380: 2cc7 efbd b89c e6bd 75b2 f7bd 0460 83bd
00000390: 66cb 83bb 9244 b7bd 334f 4abd 9d0b 023d
000003a0: d296 8dbc f3b8 9cbd c9b3 19bd bdac b8bc
000003b0: a58f 60bd f9cc c2bc de31 0cbd 72ef bd3c
000003c0: ec7d 23bd f716 85bc 8526 4bbb 7828 7d3b
000003d0: 8695 f83c 3939 fd3d 7444 37bc d850 04bd
000003e0: 73a6 883b 11c5 4bbd 6890 56bb 995f edbc
000003f0: c6f8 4d3d 91da c33c 3087 46bd 8565 223b
0.030868102 -0.05713635 -0.053449776 0.09706933 0.019887013 0.016377335 0.010775863 0.030860275
0.031836335 -0.00068582484 0.052117616 -0.009488627 0.023103727 0.06262902 -0.0077523035 -0.0072224247
-0.105872296 -0.054252036 0.005484083 -0.030343154 -0.02021822 -0.026430571 -0.007993055 -0.013578589
-0.04011987 0.0030987286 -0.0018710805 -0.09990508 -0.017284865 -0.039421696 -0.12924866 -0.06985461
0.020194337 -0.031293366 0.017103327 0.09984246 -0.04481885 0.04122304 0.031321004 0.061570544
0.06305175 0.039761506 0.061532512 0.0067435075 -0.0352005 0.1259744 0.022807932 0.08937614
0.041847408 0.06905718 0.09327815 0.047718067 0.0012476459 0.036242478 0.013463862 -0.004921053
0.023441995 0.0952459 -0.010187082 -0.03113 -0.047747985 -0.11978308 -0.1303461 0.043697655
0.11411632 0.045015987 0.07491071 -0.025159227 -0.0031798114 -0.09287875 -0.026298651 -0.16922933
0.031873528 -0.0009622765 0.06384736 0.03155967 0.05609311 0.027745867 0.06596043 0.11079519
0.14375892 -0.14765112 -0.08813263 0.009880349 -0.062297154 0.034149278 -0.021303488 -0.0050192103
-0.05605468 0.01304188 -0.033327226 -0.014814747 0.026451439 -0.04559083 -0.011540593 -0.01239362
-0.027806716 0.011256069 0.01183315 -0.11466473 -0.07875473 -0.090604335 -0.02355772 -0.024167798
-0.03961826 0.0567973 0.043159638 0.010783708 0.07915573 0.020077405 0.04393494 0.0049908473
-0.045068853 0.011243065 -0.0917391 0.0008332917 0.06129429 -0.00026021025 -0.065392956 -0.08610572
-0.009351101 0.021234034 -0.004211692 0.014888745 0.04613427 -0.00095832784 -0.00085325324 -0.0042422707
0.011589215 0.038334813 0.009498256 0.035358217 0.12287469 -0.0182352 0.010828271 -0.067395695
0.021652518 -0.048717704 -0.05561501 0.032923818 0.018189412 0.0014315336 0.09527423 0.011421589
0.08868591 0.112702586 0.1707863 0.009165569 0.05203498 -0.060678955 0.07295856 -0.045932367
-0.027134724 -0.08688829 -0.056345854 0.03297182 -0.011048054 -0.059516817 -0.087358974 -0.022209508
0.029409561 0.039975602 0.0074669817 0.011874524 -0.04825046 0.031121299 0.007673209 -0.03702534
0.015679186 0.045388307 -0.010101707 0.023809357 0.11676314 0.03188796 -0.033246826 0.035324186
0.0394921 -0.03216405 -0.052607633 -0.05950859 -0.009586643 0.03956286 0.16193895 -0.0048381765
-0.00050172105 0.09814407 -0.068080224 0.043468334 0.13239779 0.22576885 0.16419838 0.045116913
0.021611214 -0.005864169 -0.11980295 0.008970017 -0.056282353 -0.050550055 0.0588381 -0.014413689
0.0013380968 0.06422203 -0.023889357 0.08195639 0.008407463 -8.631602e-05 0.1351638 -0.009505792
0.096524276 0.18551432 0.019283501 0.049919922 0.20279859 -0.07658339 -0.027508216 0.16461389
-0.1310505 -0.115201 -0.012617925 -0.02976566 -0.027169202 -0.052735917 -0.08399977 -0.07259154
-0.11707911 -0.112603605 -0.12094585 -0.06414798 -0.0040220497 -0.089486256 -0.049391937 0.031749357
-0.01728383 -0.07652464 -0.037524972 -0.022543306 -0.05482449 -0.02377938 -0.034227245 0.023185465
-0.03991501 -0.016246302 -0.0030998301 0.0038628858 0.030344736 0.1236443 -0.011185754 -0.03230366
0.004170233 -0.049748484 -0.0032739881 -0.028976249 0.050286077 0.023907932 -0.04846877 0.0024779749

block5.1.weight f4 [16]
00000000: a397 ed3f 32cf 0d40 db21 0140 1d95 c63f
00000010: 1bae 0740 91b6 ef3f cfc8 e63f 504a 1340
00000020: 0844 0d40 a7b9 0340 8ff6 0940 e0b1 0840
00000030: d0c3 0240 d02a 1140 4c68 0440 e818 bc3f
1.8561901 2.2157712 2.0176914 1.5514256 2.1200016 1.872759 1.8030032 2.3014107
2.2072773 2.0582063 2.1556737 2.1358566 2.0432014 2.268238 2.0688658 1.4695101

block5.1.bias f4 [16]
00000000: 1195 e73e 365a 3f3f dc41 433f e2d9 d23e
00000010: 0d92 043f 15f5 e13e e28a f93e 0aec 3e3f
00000020: aa55 353f fe41 333f 9deb 1a3f 22df 2d3f
00000030: d4a4 233f 7f51 543f 3265 1d3f 8bab c13e
0.45230916 0.74747026 0.7627237 0.41181856 0.51785356 0.44132295 0.48738772 0.7457892
0.7083384 0.7002257 0.6051577 0.679186 0.6392338 0.82936853 0.61482537 0.3782619

block5.1.running_mean f4 [16]
00000000: ae2d ea3d 5868 3ebe 9f9b 8b3e 25c1 c83d
00000010: 650a 853e ed92 5a3e 645d b63e d9c9 fe3e
00000020: 6baa f4bd 536b 0bbe 8a66 8abd 4614 58bf
00000030: a076 3abd a23f 023e 4c0f 80bf e88d 36bd
0.11434494 -0.18594491 0.27267167 0.098024644 0.25984493 0.2134511 0.35618126 0.49763373
-0.11946567 -0.1361516 -0.06757839 -0.84405935 -0.045523286 0.12719586 -1.0004668 -0.044568926

block5.1.running_var f4 [16]
00000000: 3c09 003f ee86 263f f400 383f a5c2 e13e
00000010: 6c82 0c3f 8a2b f63e 4c5e 0d3f 13a8 7e3f
00000020: c077 473f c06b 473f 1360 393f 2f1a 213f
00000030: 9114 f53e 21a8 633f 0353 e23e c956 d03e
0.5001409 0.65049636 0.71876454 0.44093814 0.5488651 0.48080093 0.5522201 0.9947521
0.779171 0.7789879 0.7241222 0.6293058 0.47867253 0.8892842 0.44203958 0.40691212
